trainResults/miniImagenet_FO-MAML_lr_0.1_ways_5_shots_1_steps_5_seed_1_iter_1.pt (torch, 143549 bytes, 26 tensors)

features.0.0.normalize.weight f4 [32]
00000000: ae35 423f c47e 8e3e 07dc cd3e d155 3c3f
00000010: bfae e73c 0082 4c3f a8d8 cb3e fcdc 403f
00000020: d80c 123f 922a e13e 19c2 233f f80e 063f
00000030: 437e 2e3f a0bf 9c3e ecd8 ed3e e670 e83e
00000040: 0fcf 123f 447d ff3e 29a3 6f3f 9d16 283f
00000050: 0e2d a13e 6fbf 493e 369a d53e ba16 923e
00000060: 287a ae3e 8562 063f 610c 4c3f 1351 453f
00000070: f284 273c 0518 4f3f a980 233f cdab 793f
0.7586316 0.2783109 0.4020693 0.73568445 0.028281568 0.79885864 0.39813733 0.75337195
0.5705085 0.4397779 0.63968045 0.5236659 0.6816141 0.30614948 0.4645456 0.45398635
0.57347196 0.49900258 0.9360834 0.65659505 0.31479686 0.19701932 0.41719216 0.28532964
0.34077573 0.5249408 0.7970639 0.77076834 0.010224568 0.80896026 0.63868195 0.9752777

features.0.0.normalize.bias f4 [32]
00000000: 6b12 833a 6212 83ba 6b12 83ba 6b12 833a
00000010: 6b12 833a 6712 83ba 6e12 833a 6812 83ba
00000020: 5a12 833a 6912 833a 6912 83ba 6b12 83ba
00000030: 6b12 83ba 6b12 833a 6c12 833a 6412 83ba
00000040: 6d12 833a 6b12 83ba 6412 83ba 6b12 833a
00000050: 6b12 833a 6512 833a 6812 833a 6412 83ba
00000060: 6c12 833a 6c12 833a 6212 833a 5012 83ba
00000070: 6a12 83ba 6b12 83ba 6c12 83ba 6712 83ba
0.0009999996 -0.0009999985 -0.0009999996 0.0009999996 0.0009999996 -0.0009999991 0.0009999999 -0.0009999992
0.0009999976 0.0009999993 -0.0009999993 -0.0009999996 -0.0009999996 0.0009999996 0.0009999997 -0.0009999988
0.0009999998 -0.0009999996 -0.0009999988 0.0009999996 0.0009999996 0.0009999989 0.0009999992 -0.0009999988
0.0009999997 0.0009999997 0.0009999985 -0.0009999964 -0.0009999995 -0.0009999996 -0.0009999997 -0.0009999991

features.0.0.normalize.running_mean f4 [32]
00000000: ff53 8342 bf77 2542 b49e 57c2 3d1d b441
00000010: b6a2 9341 cdfc 7fc2 0dbf 29c2 06d4 a741
00000020: 706b d9c2 ca69 9842 3ee8 75bf 5ba0 09c2
00000030: 8bad 8c42 33e7 8542 620c 7ac2 6a41 49c1
00000040: 3214 bf42 3d43 91c2 7cea 4f42 710f 8cc2
00000050: af13 36c2 4e09 37c1 6a6f 0ec1 14aa 54c2
00000060: 263c 8c42 bb70 7d42 675d d3c1 8b97 2ac2
00000070: 9fb6 a6c2 2287 7e41 3e42 c5c2 7b47 b841
65.664055 41.36694 -53.904984 22.514277 18.454449 -63.996876 -42.436573 20.978527
-108.70984 76.20662 -0.960575 -34.406597 70.33895 66.95156 -62.512093 -12.57847
95.539444 -72.631325 51.97899 -70.03016 -45.519222 -11.439772 -8.902201 -53.166092
70.11748 63.36009 -26.420607 -42.64799 -83.35668 15.907991 -98.62938 23.034903

features.0.0.normalize.running_var f4 [32]
00000000: 300f c344 76a3 5344 83bd cb44 23e5 f044
00000010: 2e5c 6543 ce32 1345 ff8e 0945 1a45 1044
00000020: 0e80 4045 1453 fa44 e094 8244 52b4 8244
00000030: 825d fb44 0caa a144 638f b644 6267 fa43
00000040: 2d27 1445 2ced ee44 305c e844 96e0 f944
00000050: 1c7f 4c44 0dbc 8444 d4e2 e943 69ce 8344
00000060: 965b a444 dba2 b144 f0c5 ba44 9db2 9744
00000070: d7b8 dc44 3929 e244 5540 8045 1a44 fe44
1560.4746 846.5541 1629.9222 1927.1605 229.36008 2355.1753 2200.9373 577.0797
3080.0034 2002.5962 1044.6523 1045.635 2010.9221 1293.314 1460.4808 500.80768
2370.4485 1911.4116 1858.8809 1999.0183 817.9861 1061.8766 467.7721 1054.4503
1314.862 1421.0892 1494.1855 1213.5817 1765.7762 1809.2882 4104.0415 2034.1282

features.0.0.conv.weight f4 [32, 3, 3, 3]
00000000: 3753 573d b3c4 e83d 3b86 7c3b 4671 e8bd
00000010: d512 343a 257e cf3d 19e7 85bd f036 753d
00000020: f267 063d 0ca2 bfbc 83d0 a0b7 969a 743d
00000030: e077 c3bd 8d69 b03d 934e bd3d fba7 a03d
00000040: dd32 0c3e c0b5 a4bb 85a3 c9bd 7dbc ad3b
00000050: 681a 28bd 4f76 433d 250b ed3d 97c0 9cbd
00000060: 3a9c 9c3b 296f 083e f8af e3bd 96e8 babc
00000070: 6442 0a3e f48b c73d 5d2b 283d 21b8 6fbd
00000080: 2b67 42bc 7669 fbbd 8907 04be 8163 03be
00000090: 5ec3 083e e79a e13d bb55 643d a5e4 09bd
000000a0: 7868 f53d 8539 11bd bd45 c63d bed7 64bb
000000b0: ebe9 82bd 88ad 19bd 3939 e9bc 1856 00be
000000c0: c724 2d3d e823 28bd 80e8 833d 0943 b63d
000000d0: f08f abbc c320 8b3d ec14 ea3c 86c5 bb3d
000000e0: fd54 b8bd c923 36bc af78 40bd a89e f53d
000000f0: 42a8 fbbd 21eb a0bd 36e2 6e3c 9ef7 fc3d
00000100: 4832 bd3d 3a45 05be 85ac c4bd a601 083e
00000110: cb93 9c3c 590b f0bd cb31 36bd b50b 733d
00000120: bd39 e4bc 0429 dbbd a68f b0bd 9278 94bd
00000130: f4e8 d1bb e070 593d 26a9 853d 7f5b 8bbd
00000140: 46e4 c5bc 5c47 dcbd 70b4 d33d 6f0f 0e3e
00000150: 3057 083e e71e 6b3d 4e47 f9bc 3781 91bb
00000160: 14db 473d 640d f7bd 10f8 f73b c4b4 e3bd
00000170: ea46 0cbe 4eec b7bb 53de 2fbd 0500 b1bd
00000180: a03b b33c f774 973b b456 a43c 853e a0bd
00000190: 1267 09be 4cbe 833b 7885 62bd ffad 42bd
000001a0: 1b09 ce3d c174 b03c f915 7e3d 0115 22bd
000001b0: 4a3b debd 57a1 e93c 8a3b bdbd 0547 943c
000001c0: 93a2 debd 400a d33d f497 c2bd 7556 f33d
000001d0: 149e c53d 41b7 d73d 8ea6 ab3d 4a7f fd3c
000001e0: d8a5 bbbb 49e9 51bb bbed 64bd 05ee 02be
000001f0: c094 ff3d 998c c93b 5ce3 823d c237 853b
00000200: 1b5b 1e3d a332 b0bd 64c5 ddbd 7783 d53d
00000210: 8946 523d b883 893d 204c 0dbe df7d 083c
00000220: 3ecc 02be 2993 89bc cfeb 07bc 07e6 c8bd
00000230: cff7 0cbe d530 c0b8 c323 fc3d 16af fc3d
00000240: c321 aebd b208 d1bc b469 eebd 06c9 debd
00000250: 1118 1fbd db2e 083e 2193 17bd ebe3 e43b
00000260: 12ee 033e 2d4a c13c 47f7 e13d 60c5 b93d
00000270: 967f 033e fcb1 b93c 6c9f e6bd bf33 f5bd
00000280: 6016 94bd c83e e73d 427c a03d bc5a 213d
00000290: 7b4b d9bd c038 d2bd 708d e43d 121b 7bbc
000002a0: d3bc 0dbe 99f5 93bc 83cf 0bbd fcca 8d3a
000002b0: d77c 683d b76c 553d 8f53 dabd 9dab 24bb
000002c0: 3c1f 8ebd 2125 bd3d 73ea 893d 0718 993d
000002d0: 12ec fe3d 71ca 883d d63f 0ebe eb8b 0a3d
000002e0: b9ff c3bd 2eca 8e3c 4423 f939 4225 0b3e
000002f0: 5429 c3bd f170 09be 40a4 1bbd e261 be3c
00000300: 9601 cd3d 3220 e33d 6ca2 d73d ea8b 363d
00000310: eda5 25bd bcdd e6bc ae86 98bd ece5 d43c
00000320: d684 c2bd 1e42 3e3d ac7d b43d ddcc ed3d
00000330: 6e46 0abe c4db e53d de82 afbd e402 49bc
00000340: 04fa ff3d 361f 973d 4969 37bd 0bcf a43d
00000350: 787b 0abe 45ec da3d c529 083e 7523 eebb
00000360: 0744 c23c 428d 00bd 8be2 b0bd df98 7bbd
00000370: 14c8 05bc 5631 e5bd f964 e2bd c245 843c
00000380: a0dd b5bd 78cb 9bbd 3cc1 0fbb 7e01 97bd
00000390: 7ad7 033e 47fa 47bd dc35 9fbd 3ab2 1abd
000003a0: c2a7 e8bd 69a8 933d 7be6 f43d c0f5 a0bd
000003b0: 320d 4ebd 20eb 043e 836b cabd ba33 1d3d
000003c0: fe3e e4bd c09e fdbd 9e71 9e3a 7f45 9fbd
000003d0: ac20 9b3d 6ff2 32bd 0ba7 1a3b 299d 95bd
000003e0: cb34 643d 1af7 033e 73c5 a1bc 3868 acbd
000003f0: 65d0 08be 7373 083e 5f2a 6a3d ca8e 6d3d
0.052569594 0.113656424 0.0038532156 -0.1134973 0.0006869261 0.10131482 -0.06538219 0.059866846
0.032813974 -0.0233927 -1.9170582e-05 0.059717737 -0.09544349 0.08613882 0.092435025 0.0784454
0.13691278 -0.005026549 -0.09845642 0.0053020106 -0.041040808 0.04772025 0.11574391 -0.07653921
0.004779366 0.13323654 -0.11117548 -0.022815984 0.13501889 0.09743491 0.04105698 -0.05852521
-0.0118654175 -0.122759745 -0.128935 -0.12830926 0.13355777 0.110158734 0.05574582 -0.033665318
0.119828165 -0.035455246 0.0968127 -0.0034918631 -0.063922726 -0.037519008 -0.028469669 -0.12532842
0.0422714 -0.041049868 0.0644083 0.08899505 -0.020942658 0.06793358 0.02857443 0.09168534
-0.09000585 -0.01111693 -0.046990093 0.11993152 -0.12287952 -0.07857347 0.0145803 0.12351917
0.09238106 -0.13014689 -0.09603218 0.13281879 0.019113442 -0.117209144 -0.04448108 0.059337337
-0.027859563 -0.107011825 -0.08621149 -0.072495595 -0.006405944 0.05308616 0.06526403 -0.06804561
-0.0241567 -0.10755798 0.1033715 0.13873075 0.1331451 0.057402518 -0.030429509 -0.0044404524
0.048792914 -0.12063101 0.007567413 -0.11118463 -0.13698927 -0.0056128865 -0.042936634 -0.08642582
0.021879017 0.0046220976 0.020060875 -0.07824425 -0.13418224 0.004020488 -0.055303067 -0.047529217
0.100603305 0.021540048 0.062032674 -0.039570812 -0.10851152 0.028519316 -0.09239872 0.018100271
-0.10870852 0.103046894 -0.09501639 0.11881725 0.09649292 0.10533 0.08381377 0.030944485
-0.005726557 -0.0032029918 -0.05589078 -0.1278611 0.12479544 0.0061507937 0.063910216 0.0040654847
0.038661104 -0.08603408 -0.10828665 0.104254656 0.0513368 0.067145765 -0.1379857 0.008330791
-0.12773225 -0.016793804 -0.008295967 -0.09809499 -0.13766406 -9.164369e-05 0.123115085 0.123380825
-0.08502533 -0.025516842 -0.11641255 -0.10878186 -0.03884131 0.13299124 -0.037005547 0.0069851778
0.12883785 0.02359494 0.110334925 0.090708494 0.12841639 0.022667877 -0.11260876 -0.119727604
-0.0723083 0.112912714 0.078362 0.03939317 -0.106101 -0.102647305 0.111597896 -0.015326278
-0.13841562 -0.018061446 -0.034133445 0.001081794 0.05675968 0.05210563 -0.10660469 -0.0025126704
-0.06939551 0.092355974 0.06734171 0.07475286 0.124473706 0.06679238 -0.13891539 0.033824842
-0.095702596 0.017430391 0.00047519256 0.13588431 -0.09529367 -0.1342199 -0.037998438 0.023240034
0.10010068 0.11090125 0.105290264 0.044567026 -0.040441442 -0.028181903 -0.07447563 0.025988542
-0.09497993 0.046449773 0.088130325 0.1161134 -0.1350343 0.112235576 -0.08569883 -0.012268756
0.124988586 0.07379 -0.044778142 0.08047303 -0.13523662 0.10689596 0.13297184 -0.0072674104
0.023714079 -0.031384714 -0.0863696 -0.061425086 -0.008165378 -0.11191051 -0.11054415 0.016146544
-0.08880162 -0.07607168 -0.0021935245 -0.073733315 0.12875167 -0.048822667 -0.07773945 -0.037767626
-0.11360122 0.07209856 0.11958023 -0.07859373 -0.050305553 0.12980318 -0.098837875 0.03837941
-0.11144827 -0.12383795 0.0012088304 -0.07776927 0.07574591 -0.043688234 0.00235981 -0.073053665
0.05571441 0.1288723 -0.019747471 -0.08418316 -0.13360746 0.1332529 0.057169314 0.057997502

features.0.0.conv.bias f4 [32]
00000000: 7ba4 2cb8 7267 feb6 b1e5 0db8 327d 17b8
00000010: f018 8335 4e83 6db8 472a 2c37 76d5 aeb8
00000020: 775e ef36 6757 e6b6 e132 20b7 a010 4137
00000030: 472a 2cb7 f8f1 54b6 6663 21b8 976a aa37
00000040: 52fd a336 2a4f f737 02b5 6a37 6fe1 abb7
00000050: 5b23 e3b7 52fd a3b6 895c 1538 6055 97b7
00000060: cf9c ac37 beef 6138 b19e a1b7 7d7c a7b7
00000070: 5cd5 e7b4 a7dc 95b7 5b23 e337 b01d 0cb8
-4.116118e-05 -7.5818325e-06 -3.3830936e-05 -3.6117803e-05 9.767518e-07 -5.662749e-05 1.0261842e-05 -8.336727e-05
7.133752e-06 -6.864709e-06 -9.548589e-06 1.1507567e-05 -1.0261842e-05 -3.1731306e-06 -3.8477963e-05 2.0315214e-05
4.887269e-06 2.9481558e-05 1.3989631e-05 -2.0489764e-05 -2.7076972e-05 -4.887269e-06 3.561055e-05 -1.8040359e-05
2.0577017e-05 5.3867458e-05 -1.9266592e-05 -1.996592e-05 -4.3182342e-07 -1.7864933e-05 2.7076972e-05 -3.340625e-05

features.0.1.normalize.weight f4 [32]
00000000: fff1 7d3e 610c 743f baeb 013f da73 433f
00000010: c6d6 1d3f 0cc9 163f 3872 5e3f 7aa8 f23e
00000020: 8791 5a3f 3383 2a3f ef33 613e 1d27 543f
00000030: bf38 133e 44e6 423f 7eaa c93e 56f9 273f
00000040: 1edb e03e c38e 193f ca2a b23e d84d 353f
00000050: 1b7e 3b3f 6da4 2a3d 431c 713f e245 c83d
00000060: 6c39 8d3e 52a5 323f cab8 753f 61e0 293f
00000070: 2345 613e ef44 163f b7b6 4b3e 6bf6 3b3f
0.24799345 0.9533139 0.50750315 0.7634865 0.61655843 0.58900523 0.86893034 0.47394162
0.8537831 0.66606444 0.21992467 0.8287218 0.14377116 0.7613261 0.39387888 0.6561483
0.43917173 0.5998346 0.3479827 0.70821905 0.73239297 0.041660715 0.9418375 0.09778954
0.27582872 0.6978351 0.9598509 0.66358 0.2199903 0.58698934 0.19893919 0.7342288

features.0.1.normalize.bias f4 [32]
00000000: 6612 83ba 3611 833a 6612 83ba 5712 83ba
00000010: 6a12 833a 6612 833a 6912 83ba 6612 833a
00000020: 6712 833a 6b12 833a 6b12 83ba 6b12 833a
00000030: e511 833a 3c12 83ba 6712 833a 6b12 833a
00000040: 6212 83ba 6812 833a 6212 83ba 5f12 83ba
00000050: 5f12 83ba 6212 83ba 6712 833a 6912 83ba
00000060: 6b12 83ba 6a12 833a 6a12 833a 6812 833a
00000070: dd11 83ba 6812 83ba 6a12 833a 5e12 83ba
-0.000999999 0.0009999636 -0.000999999 -0.0009999973 0.0009999995 0.000999999 -0.0009999993 0.000999999
0.0009999991 0.0009999996 -0.0009999996 0.0009999996 0.000999984 -0.0009999941 0.0009999991 0.0009999996
-0.0009999985 0.0009999992 -0.0009999985 -0.0009999982 -0.0009999982 -0.0009999985 0.0009999991 -0.0009999993
-0.0009999996 0.0009999995 0.0009999995 0.0009999992 -0.000999983 -0.0009999992 0.0009999995 -0.0009999981

features.0.1.normalize.running_mean f4 [32]
00000000: ee0d aebe 0fbe a93d 7c30 833e 579c 893c
00000010: 1d97 893e f681 203e 6bcb 123f 6861 663e
00000020: 647c ad3d c04e e8bb e16d 533e 0b87 933e
00000030: d447 afbe dfbe 2a3e 5fb1 b93e c47c fa3e
00000040: 30ad d1bc 6a7f a43e a67c 7dbe 564a 44be
00000050: 41ca fa3d efda 47be c883 b23e a72b e93d
00000060: 696d d83d 7756 03bf fbca 4a3d 83e2 5abf
00000070: f740 70be e111 953e f638 f1be c0c2 35bf
-0.33995003 0.08288204 0.25622928 0.016798181 0.26873103 0.15674576 0.5734164 0.22498095
0.08470991 -0.007089466 0.20647384 0.28813967 -0.34234488 0.16674374 0.36268136 0.48923314
-0.025595278 0.3212846 -0.24754581 -0.19168982 0.12245608 -0.1951711 0.34866166 0.11385279
0.10567743 -0.5130381 0.049509984 -0.8550188 -0.23462282 0.29115203 -0.4711377 -0.7100029

features.0.1.normalize.running_var f4 [32]
00000000: 4b30 073e 62be a73e 637e af3e 6315 9d3e
00000010: 9d5a 923e e2ca 3a3e 8235 9f3e bca8 bb3e
00000020: 7831 783e 3be3 953e ce22 0a3e 0c8a 673e
00000030: fefa be3d ddcf 903e 4816 833e 8a72 8d3e
00000040: 9b8d 523e 5705 8e3e c934 083e 02f5 4c3e
00000050: 270a c53e f290 143e 5573 743e 2d64 bf3d
00000060: ee70 043e 25a4 1b3e 8c2a 873e 327f 6f3e
00000070: fd28 003e ca8d a63e bcaf 843e 524c 8a3e
0.13202016 0.32762438 0.34276113 0.3068038 0.28584757 0.18241456 0.3109551 0.36652172
0.24237621 0.29274926 0.1348984 0.22611254 0.09325217 0.28283587 0.25602937 0.2762645
0.2056183 0.2773845 0.13301386 0.20015338 0.38484308 0.14508417 0.2387212 0.09345279
0.12933704 0.15199335 0.26399648 0.23388365 0.12515636 0.3253005 0.25915325 0.27011353

features.0.1.conv.weight f4 [32, 32, 3, 3]
00000000: 1f59 b3bb 2f29 c2bd 7cee bdbd 7528 0dbd
00000010: 15cb 2dbd 87be d13c 8706 803c 86db 14bc
00000020: ac44 ec3c a7a5 633c f0d7 b23d 6794 0d3d
00000030: 1f4a 58bd 2f6d afbd d663 78bd 9992 6abd
00000040: e441 663d 5212 34bc bf07 7dbd c3b5 c9bd
00000050: 2893 d1bb dbcb 12bd 2d10 79bd 9f54 833d
00000060: dc10 cc3c 7d9f c3bc a22a 0e3d 8924 8b3c
00000070: c089 15bc 5836 6bbc 4d12 833d faa8 a8bd
00000080: 796f 343d 8baf a2bd e693 a2bd 93d0 f9bc
00000090: 3a92 f9bc cf1e 8fbd b343 8bbd 42bf 213d
000000a0: 2028 e13c 5c66 763d 148d 63bd 2c96 b6bd
000000b0: 635e 5bbc 29d6 fa3c 655d b9bb 6c57 67bd
000000c0: 0eee 34bd 1408 1b3d 8491 c7bc 5cb8 b23d
000000d0: 0e16 9ebc f1f0 bebd 1e15 92bd a5db 5d3d
000000e0: a799 b53d 0401 59bd 0ac0 093d a30f d3bc
000000f0: 98a0 c1bc 8cec 153d 3eb8 6fbd fb94 47bd
00000100: 1e43 05bd ade6 9ebd c0df 68bd 1733 83bd
00000110: 0f33 bd3d b3c0 9fbd ae5e b93d 2a10 b83d
00000120: 8d71 b7bd 9f6f 88bd 0638 fc3c fd4a 1b3d
00000130: ff0e b93d da65 a0bd fe7d 9cbd 3ece 3ebc
00000140: b0e1 62bd 6c71 04bd dee2 53bd 8890 8f3d
00000150: c726 1d3c b603 6d3d ed6f 8dbd 0b52 4dbd
00000160: 5550 0b3d af79 a2bd 1b8b bb3d 5a1e bebd
00000170: dcab 86bd adfd 04bd e1da b33d 1261 57ba
00000180: 65a5 233d 93d6 a03c b5f7 723d b66e 2f3d
00000190: 311e 7e3d d927 cfba bc4b 8abd 2c0e b13d
000001a0: 6df3 1ebd fa55 b03c b3f0 20bd a272 3ebd
000001b0: f4d0 a1bd 0a5f 873a 829e 633d 0af5 aabd
000001c0: 1e0f a2bd bc4d 09bb 6bd2 aabb 28f4 aebd
000001d0: 5b83 85bb 668b c83d 8e70 aa3d acd0 4abc
000001e0: 17de be3d d608 f1bc 29fc a3bd 1f93 a43c
000001f0: 2586 743d 545f 1fbd b878 abbd 8c11 03bd
00000200: a572 cc3d f9cb 7f3d 5253 7bbd a6ae 953c
00000210: 97a9 cabd 958f 5dbc af22 903d 368b 3cbd
00000220: 7a53 593c ed1a b8bd 65c2 b43d 3703 ae3c
00000230: d74c 9f3c 36e5 c7bd 8ca4 af3d 4050 be3d
00000240: c637 babd 4a69 a6bd 7b51 aabd 2126 74bd
00000250: 4548 8fbd 8c97 573c dbdd b03d 48c2 e13c
00000260: 0093 903d 9e5f 183d 7ece 6a3d 2b4d c0bd
00000270: fdd0 de3c f6ea 2d3d a334 883d 0480 c83d
00000280: c144 6cbd cefd a7bd 3e1d 3d3c 58b3 3d3d
00000290: 6f04 92bb b605 cb3d 4a15 94bd b3dc c7bd
000002a0: 39ff 22bd b7d0 a33d 05ac 433c b731 25bd
000002b0: 9f1e a6bc 95e3 08bc b83e 6a3c ee4d 15bd
000002c0: 9638 783d 0df4 b33d de0e d2bd 493f 95bd
000002d0: 2d43 dc3c bd7e a9bd 1860 c33d 01ce 393d
000002e0: 999b aebd 0aea ab3d d8d9 fc3c 0e4f bebd
000002f0: b118 cb3d 6866 8bbd c586 043d ae9e 133c
00000300: 1a17 bebd bcbf 563c 363a 8fbd e9c1 68bd
00000310: fda4 6c3d d7a3 913c c6ed d2bd 6d64 02bd
00000320: 6320 70bd 7a05 4b3d 8be1 91bd d635 b13d
00000330: dc60 68bd 0542 873d 5914 44bd 3d06 76bd
00000340: 8857 d23d d179 82bd 2297 bd3d 135b 4bbd
00000350: 6651 38bd e473 90bd 39b4 8bbd 2d40 be3d
00000360: 434b b5bd 5c94 8b3c 4562 4a3d b507 bfbd
00000370: 95e7 843d d5de 2cbd 0901 243d 6036 b03d
00000380: ad25 96bd 41c6 483d 7c96 cf3b de12 69bc
00000390: 5641 d43c 9d91 653d fd70 c73d 9ea9 233d
000003a0: 1924 f93c 4f09 93bd 99fc b13d fbe7 9dbc
000003b0: 8ec8 b3bc b33c 253c fe6d 7d3d a74c cd3d
000003c0: f203 c5bd 13c5 283d 4f11 38bd c3b4 8fbd
000003d0: e57a aabc afeb 783c aa44 afbc 4b8b 0fbc
000003e0: 8b87 5abd 8353 0e3d 13de cd3c 2d9b 4bbd
000003f0: 6331 c23d 8069 cf3d c0d4 623d e3fe 09bd
-0.0054732705 -0.094805114 -0.09274003 -0.03446241 -0.042430002 0.025603546 0.015628112 -0.009085542
0.028841339 0.013894475 0.08732593 0.034565356 -0.052805062 -0.08565747 -0.060642086 -0.057268713
0.056215182 -0.010990696 -0.061774965 -0.098491214 -0.006395716 -0.035838943 -0.060806442 0.064126246
0.024910383 -0.02387976 0.034708627 0.016985195 -0.00912708 -0.014356218 0.06399975 -0.08235355
0.04405162 -0.079436384 -0.07938366 -0.030494964 -0.030465234 -0.06988298 -0.06800022 0.03948904
0.027484953 0.06015621 -0.055554464 -0.08915362 -0.013389203 0.030619698 -0.0056568854 -0.056479856
-0.04417234 0.0378495 -0.02436138 0.0872657 -0.019297626 -0.093233 -0.07132934 0.054164547
0.088671975 -0.052979484 0.03363041 -0.025764292 -0.023636147 0.03660254 -0.058525316 -0.048726063
-0.03253471 -0.07758842 -0.05685401 -0.06406229 0.09238254 -0.07800426 0.09051262 0.08987458
-0.08957205 -0.06661915 0.030788433 0.03791331 0.090360634 -0.07831927 -0.076412186 -0.011645852
-0.055391014 -0.03233473 -0.05173003 0.07009989 0.009591765 0.057864867 -0.06906114 -0.05012707
0.034012157 -0.079333656 0.09157392 -0.09283133 -0.06575748 -0.032468487 0.08781982 -0.0008216064
0.039952654 0.019633567 0.059318263 0.04283019 0.06204051 -0.0015804722 -0.067527264 0.08645281
-0.038806368 0.021525372 -0.03929205 -0.04649604 -0.07901183 0.0010328006 0.055571087 -0.08347519
-0.079130396 -0.0020950874 -0.005213072 -0.08542663 -0.0040744967 0.09792213 0.08322249 -0.012378853
0.09319704 -0.029423159 -0.0800708 0.020089684 0.059698243 -0.03890927 -0.08372635 -0.031999156
0.09982804 0.062450383 -0.061358757 0.018271755 -0.09895628 -0.013523002 0.07037865 -0.0460312
0.013264531 -0.08989511 0.0882614 0.021241767 0.01944582 -0.097605154 0.08576307 0.0929265
-0.09092669 -0.08125551 -0.083163224 -0.059606675 -0.06996206 0.01315869 0.086360656 0.02755846
0.07059288 0.037200563 0.057325833 -0.093897186 0.027199263 0.042460404 0.06650665 0.09790042
-0.057682756 -0.08202706 0.011542616 0.046313614 -0.004456095 0.09913199 -0.07230623 -0.09758892
-0.03979418 0.079987936 0.011942868 -0.040330615 -0.020278273 -0.008355041 0.01429718 -0.036451273
0.06060084 0.08786783 -0.10256742 -0.07287461 0.0268875 -0.082761265 0.09539813 0.045362476
-0.08525772 0.08394249 0.030865595 -0.09292422 0.09916819 -0.06806642 0.03235509 0.00901
-0.0928175 0.0131072365 -0.06993525 -0.056825552 0.057774533 0.01777832 -0.10299258 -0.031834055
-0.058624636 0.04956577 -0.07123097 0.086528465 -0.056732997 0.06604389 -0.047870968 -0.060064543
0.102706015 -0.06370891 0.09257342 -0.049647402 -0.044999503 -0.070533544 -0.06821484 0.09289584
-0.08852246 0.017038517 0.049410123 -0.09327642 0.06489483 -0.042204697 0.04004005 0.08604121
-0.07331405 0.049017195 0.006335078 -0.01422569 0.02591006 0.05604707 0.09738348 0.03995668
0.03041272 -0.0717951 0.08690757 -0.019275656 -0.021946218 0.010085273 0.061872475 0.10024386
-0.09619893 0.04120357 -0.04493838 -0.070168994 -0.020810554 0.01519291 -0.021395046 -0.008761237
-0.05335192 0.03474761 0.025130307 -0.049708534 0.09482076 0.101275444 0.055378675 -0.033690345

features.0.1.conv.bias f4 [32]
00000000: 54ee 14ba 4bc0 2c3a 1538 7739 1cbe 1f3a
00000010: 7cd2 fcb9 aeb5 a339 0000 0000 d92a ac39
00000020: d92a acb9 c63c b4b9 9b3b 9639 4fcc 5539
00000030: dd92 a6b9 89d8 b639 24d4 ddb9 cb61 37ba
00000040: a1c4 7ab9 5dcd e3b9 2040 ed39 4fcc 5539
00000050: 54b2 0bba 87b1 e1b7 93b1 35ba 21b6 6638
00000060: 47ac 9439 c2a7 04ba fcd4 19ba 7c1d f6b9
00000070: 0b2d fbb9 aa7a d539 8c29 eeb9 54b2 0bba
-0.00056812656 0.0006589933 0.00023576648 0.0006093697 -0.0004822201 0.00031225145 0.0 0.0003283832
-0.0003283832 -0.00034377555 0.0002865464 0.00020389374 -0.0003177141 0.00034875076 -0.00042310462 -0.0006995468
-0.00023915108 -0.00043449822 0.0004525194 0.00020389374 -0.0005329002 -2.6904758e-05 -0.00069310627 5.5005894e-05
0.00028357116 -0.0005060398 -0.0005868224 -0.00046942744 -0.0004790801 0.00040717918 -0.00045425852 -0.0005329002

features.0.2.normalize.weight f4 [32]
00000000: 06ae f03e 0aa2 013f 90c5 3d3f 6174 1d3e
00000010: 0e9e 3d3f d65c 803e dbc3 623e ce8f 873d
00000020: 48f6 cb3e c768 613f 6ac0 6a3f f676 e73d
00000030: 7f9c 7b3f 54f5 c33e c634 393f 5018 3e3d
00000040: 0017 0b3f 50a8 6b3f e265 643f ad2e 643f
00000050: d5eb 293f d2c4 a63e 2222 e83d 4a91 f53e
00000060: f437 3e3f 5de3 0e3e 82a1 eb3e 8fe2 3c3f
00000070: 3dd5 3a3e fe9e 873d f551 163f 0d9f 793f
0.4700777 0.50637877 0.7412958 0.15376426 0.740693 0.25070828 0.22145025 0.066192254
0.39836335 0.880505 0.9169985 0.11301987 0.9828567 0.38273108 0.7234615 0.046409905
0.5433197 0.920537 0.8921796 0.8913372 0.66375476 0.32572037 0.11334635 0.4796241
0.7430413 0.1395392 0.46021658 0.737832 0.18245406 0.06622122 0.58718807 0.9750832

features.0.2.normalize.bias f4 [32]
00000000: 6612 83ba 6b12 833a 6212 833a 6a12 833a
00000010: 6412 833a 6712 833a 6812 833a 6412 83ba
00000020: 6612 833a 6212 833a 5b12 833a 4512 833a
00000030: 6012 833a 6412 833a 6512 833a 6912 83ba
00000040: 6b12 83ba 3712 833a 6112 833a 6b12 833a
00000050: 6b12 833a 6712 833a 6c12 833a 6612 833a
00000060: 6712 83ba 6a12 833a 6a12 833a 5f12 833a
00000070: 6b12 833a 6812 83ba 6b12 83ba 6712 83ba
-0.000999999 0.0009999996 0.0009999985 0.0009999995 0.0009999988 0.0009999991 0.0009999992 -0.0009999988
0.000999999 0.0009999985 0.0009999977 0.0009999952 0.0009999983 0.0009999988 0.0009999989 -0.0009999993
-0.0009999996 0.0009999935 0.0009999984 0.0009999996 0.0009999996 0.0009999991 0.0009999997 0.000999999
-0.0009999991 0.0009999995 0.0009999995 0.0009999982 0.0009999996 -0.0009999992 -0.0009999996 -0.0009999991

features.0.2.normalize.running_mean f4 [32]
00000000: 5849 d93e 6105 833e f673 82be 4b63 073e
00000010: a60d 423e 799f 163f 23c6 bf3e 881a 7b3e
00000020: e892 d03d 513d b13e 443b 5d3f 41d3 e93e
00000030: 9c29 013f 6d31 b7be 957b 1a3f 0074 2f3f
00000040: 2ea1 d9be 5ded f63d f127 ac3e 560e b23e
00000050: e72e 853d 4aa7 9c3e 17ab 333e 94b9 5b3d
00000060: 4e51 82be d40b 0cbd 8842 30be 18a4 39bd
00000070: 02f2 a23e cb90 0bbf 9f67 d1be d89f 5f3f
0.4243877 0.2559004 -0.25479096 0.13221471 0.18950519 0.58837086 0.37455854 0.2452184
0.1018427 0.34617093 0.8641856 0.45668986 0.50454116 -0.35779896 0.6034482 0.68536377
-0.42505783 0.12056992 0.33624223 0.34776562 0.065030865 0.3059638 0.17545734 0.053643778
-0.25452656 -0.034190968 -0.1721288 -0.045322508 0.31825262 -0.5451781 -0.4089937 0.8735328

features.0.2.normalize.running_var f4 [32]
00000000: a6fe 543e 0604 8f3e e45d a13e 6f2f 973e
00000010: 5318 903e 4632 8e3e 9a03 1e3e c42c 7b3e
00000020: ac00 613e 3738 f43e 9e5f c33e dc94 3e3e
00000030: 5ddc 963e d555 a93e 58b4 923e a006 5f3e
00000040: 5e80 403e 9954 5d3e 6af7 ce3e 0d3f af3e
00000050: 70a2 5a3e 81ba 6a3e 4af8 6c3e b1a7 7a3e
00000060: 95f0 833e 9b1e 303e 2f70 3e3e 9f9c 883e
00000070: 2c68 493e b90b 8c3e 9db0 6c3e 8eda b23e
0.20800266 0.27932757 0.31516945 0.29528376 0.28143558 0.2777273 0.15431061 0.24528795
0.21972913 0.4769914 0.38158888 0.18611473 0.29465 0.33073297 0.28653216 0.21779871
0.18798968 0.21614303 0.40423137 0.3422779 0.21351027 0.22922708 0.2314159 0.24478032
0.25769487 0.17199175 0.18597482 0.26681992 0.19668645 0.27352694 0.23114248 0.3493237

features.0.2.conv.weight f4 [32, 32, 3, 3]
00000000: a0fe 97bd b9a5 a03d ebd5 34bc 8e53 d03d
00000010: 0347 18bd 55bc 6d3c 09c8 c13d f66c 9d3d
00000020: b93c b0bd 9f76 9ebd 12c4 c43d 6f48 6ebb
00000030: 4243 82bd b493 c0bd a493 1fbd 2df9 85bc
00000040: 9999 0bbd 6b5b a93d 7978 7bbd d341 ccbd
00000050: f47f 703d 6bb7 9fbd ed5e bc3d ddb9 913d
00000060: 6bb3 68bb a7fa b83d d610 883d c381 9e3d
00000070: 70bf d13c 6a78 c9bd ab32 85bd 2ee1 aabd
00000080: 876f 883d 28a8 adbd 88f8 b9bd 1664 8cbd
00000090: 36dd a2bd cc4d b63d b214 e13c db48 a03c
000000a0: aa3f a6bc 1e3c 3fbd 52a3 99bd 9521 63bd
000000b0: f9bf 343d 8a20 98bd 497f e7bb 720f a03c
000000c0: 1931 67bd 6d40 09bd 70ee 9c3d 316c 87bc
000000d0: 230f 9d3b 37cf b3bc 8144 27bd 75db 6e3d
000000e0: 8fd7 cf3c afe4 49bd a66e a3bd df93 cc3d
000000f0: add2 a2bd 6a6f 563d 8df5 82bd 56df 29bd
00000100: 640f c53c 43d8 c63d 5873 3fbd 5ca7 00bd
00000110: 2a92 493d 9201 f13c 1c89 9cbd d516 02bd
00000120: 2498 50bd 0372 a2bc b8fa 443d e13f 8c3d
00000130: d25b 16bd 76df 4bbd 4b2f 1a3d b888 54bb
00000140: fc68 95bc 53d3 0b3d a6d3 403d 0b9a 9e3d
00000150: c4f9 80bd 3f61 af3d 724c c8bd 52db 473d
00000160: dac2 a83d 704e 9dbd b7ed 79bb 1eeb 1ebd
00000170: bea4 bb3d 70fe 173d d4b0 b43d 04c4 aa3d
00000180: cead 713d 683b fd3c 527a 85bd df10 8dbd
00000190: 83f8 a93d 0e98 df3a cf70 9b3d 6ae1 21bd
000001a0: d225 863d 31dc 15bd e471 12bb e078 f33c
000001b0: 9de5 083d 8be1 8e3d b478 81bd 769d 943c
000001c0: 7622 5abd 7ef0 2abb 76bc 99bc ca5e af3c
000001d0: 9514 a63c 27e5 8fbd 3270 c43d 0568 5ebd
000001e0: 5316 bcbd df6a 63bc 56e0 5ebd 63d8 3dbc
000001f0: d9a9 61bc 9e36 803d 8103 ef3a c1ff acbd
00000200: d86c fd3c a7e0 66bd 5776 82bc 2e04 5c3d
00000210: 1307 463d 390f d03c 3f78 e6bc 03d1 033d
00000220: 4076 9cbd 1701 e8bc df17 0ebd 3150 b73d
00000230: 391f c3bd 5f4c 303c 3df1 923d 92aa e53c
00000240: 5c0c 2a3d feda 75bd a38c 66bd 7c67 cd3d
00000250: c29f bf3d ac54 403d 7f88 fbbc deb1 80bd
00000260: 8978 ee3c 50ce 793d 54db 0fbd b6de 913d
00000270: 42ca ef3c 21b8 953d e332 2b3d d9cf 61bd
00000280: 78da bf3d c828 943d 7591 06bd 3899 bf3c
00000290: 6947 a33d 5e75 94bc 79cd 4e3d 3a9f 013b
000002a0: f9b7 bb3d 2a3e 46bd b8f2 cf3d afc8 153d
000002b0: 4694 56bd c53a cb3d 948f c43d 759e d13c
000002c0: 06a0 5f3d e7b2 113c f3ee 2b3d cba2 1ebd
000002d0: 924c 333d 769a c83d 3370 263d ceac 953c
000002e0: e2a6 8b3d f2d8 403d f561 fc3c 5c7c 883c
000002f0: 8d77 25bd 46a3 8ebd 56fd 03bd 0da9 c0bd
00000300: ec7e 803c 9202 bfbd f146 713b fd6f c3bc
00000310: e0b9 7b3d fe36 a53b 88d9 36bd 1822 39bd
00000320: 5fc7 f9bc e19b 863d bd68 5dbd a72d 113d
00000330: 0ad8 05bd 7e35 c7bc 05db aa3d 79d1 5ebd
00000340: ad87 9bbd 7fb3 24bd dec4 61bd 916d 9bbb
00000350: ef3b a1bc 4172 6d3d 8fac 05bd fe56 183d
00000360: 28ad 70bd f645 afbd dbe2 813c 2ed0 a7bd
00000370: 14e5 81bc 3d76 d1bc 66d9 b5bc f946 9c3d
00000380: 4e1f 6e3d 04a4 8e3d 95b3 123c 5691 213d
00000390: 1096 61bd b37f 62bd ab31 443d 4acb cebd
000003a0: 3bee 0c3d 4941 f0bc c8be fdba 837f 2fbd
000003b0: 57dd f03c 1a3a bd3d 25e6 3d3d efdf d0bc
000003c0: a893 aabd f138 e03b 0e4d b73c c13c fb3c
000003d0: 4410 06bc 07e6 c63d e54f afbd bdd2 19bd
000003e0: 79f8 75bd 88ed 9e3d 0bce eb3c 24b5 273d
000003f0: a4d2 8b3d 7dbe 2c3d 5114 513c d0bd cdbd
-0.07421613 0.07844109 -0.01103733 0.10172187 -0.037177097 0.014510234 0.09461982 0.07686798
-0.08605332 -0.07737469 0.0960771 -0.0036359092 -0.06360485 -0.09403172 -0.03895916 -0.016354168
-0.03408203 0.0826939 -0.06139419 -0.099734925 0.058715776 -0.07798656 0.09197793 0.07115529
-0.0035507332 0.09032183 0.06643836 0.07739594 0.02560398 -0.0983742 -0.06503805 -0.08343731
0.06661897 -0.08479339 -0.09080607 -0.068550274 -0.07952349 0.08901557 0.027475689 0.01956599
-0.02029403 -0.04668819 -0.07501854 -0.05545195 0.044128392 -0.07428081 -0.007064734 0.019538615
-0.056443308 -0.033508707 0.07662666 -0.016531082 0.004793064 -0.021949394 -0.040836815 0.05831476
0.025371341 -0.049290355 -0.07980089 0.09989142 -0.079503395 0.052352346 -0.06394491 -0.041472755
0.02405519 0.097092174 -0.04674086 -0.031409606 0.04921166 0.029419694 -0.07643339 -0.031760056
-0.050926343 -0.019829756 0.048090667 0.068481214 -0.03670866 -0.049773656 0.03764276 -0.0032430124
-0.018238537 0.03413708 0.047076844 0.07744225 -0.06297639 0.0856347 -0.09780206 0.048793145
0.0824029 -0.076809764 -0.0038136074 -0.038798444 0.091622815 0.037107885 0.0882279 0.08338168
0.059003644 0.030912116 -0.065174714 -0.068879835 0.08299353 0.0017058866 0.07589876 -0.039521612
0.065501824 -0.036586944 -0.0022345716 0.029720724 0.0334221 0.06976613 -0.063218504 0.01814149
-0.05325552 -0.0026083286 -0.018766623 0.021407504 0.020273486 -0.07026129 0.09591712 -0.05429842
-0.091839455 -0.0138804605 -0.054413162 -0.011587235 -0.013773405 0.062604174 0.0018235297 -0.08447219
0.03093569 -0.05636659 -0.01592557 0.053714924 0.04834659 0.025397884 -0.02813351 0.03218175
-0.07639742 -0.028320832 -0.034690734 0.08950842 -0.095274396 0.010760396 0.07174919 0.028035436
0.041515693 -0.0600233 -0.056286465 0.10029504 0.09356643 0.04695575 -0.030704735 -0.062839255
0.02911021 0.06098777 -0.035121277 0.07122557 0.029271249 0.073105104 0.041796576 -0.05512986
0.093678415 0.07234341 -0.032853562 0.02338849 0.07972605 -0.018122371 0.050488923 0.0019778744
0.091659494 -0.048399128 0.10153717 0.03656834 -0.0523875 0.09923319 0.09597698 0.025588254
0.05459597 0.008892751 0.041975927 -0.03872947 0.043774195 0.09795086 0.040634345 0.018270876
0.0681894 0.047081895 0.030808428 0.016660862 -0.040397216 -0.06964736 -0.03222402 -0.09407244
0.015685521 -0.09326662 0.0036815966 -0.023857111 0.06145656 0.005041956 -0.044641048 -0.04519853
-0.030490575 0.065727 -0.054054964 0.035443928 -0.032676734 -0.0243175 0.08342556 -0.054398987
-0.075942375 -0.040210243 -0.055119388 -0.004743286 -0.019681899 0.05797029 -0.032635268 0.037192337
-0.058758885 -0.08558266 0.015855243 -0.08194004 -0.015856303 -0.025569076 -0.02219839 0.076307245
0.058135323 0.06964877 0.0089539485 0.039445244 -0.05507475 -0.055297565 0.04789893 -0.10097368
0.03440688 -0.029328005 -0.0019359225 -0.042846214 0.029402418 0.092395976 0.04636206 -0.025497405
-0.083289444 0.0068427254 0.02237561 0.030668618 -0.008182589 0.09711843 -0.085601605 -0.03755449
-0.060051415 0.07760149 0.028784772 0.040944234 0.06827286 0.04217385 0.012761191 -0.100459695

features.0.2.conv.bias f4 [32]
00000000: aed8 dfb9 db0e 16ba 420e 293a 761a 2bb9
00000010: 34fd 4d39 fea8 35b9 4d49 2039 a61c 02b8
00000020: a5ec 3d39 d92a ac39 5708 46b9 6aff 4139
00000030: 695f 1b3a 4de5 c0b9 1eac b2b8 ce91 bb38
00000040: 059c d7b9 1426 033a dd92 a6b9 6132 24ba
00000050: 1eac b2b8 a942 a2b9 abeb 88b8 5c8b e939
00000060: 043f 18ba 55de beb7 1eac b2b8 fea8 35b9
00000070: 6ea3 7339 f5c6 1a39 4fcc 55b9 21f2 bb39
-0.00042695313 -0.00057242595 0.0006448963 -0.00016317688 0.00019644649 -0.0001732446 0.00015286096 -3.1021096e-05
0.00018112602 0.0003283832 -0.00018885858 0.00018501063 0.0005926998 -0.00036791936 -8.519761e-05 8.944013e-05
-0.0004112424 0.00050029275 -0.0003177141 -0.00062636106 -8.519761e-05 -0.00030948714 -6.528882e-05 0.00044545054
-0.000580773 -2.2753296e-05 -8.519761e-05 -0.0001732446 0.00023235168 0.00014760702 -0.00020389374 0.0003584782

features.0.3.normalize.weight f4 [32]
00000000: 98bf d83e 9ac4 d63d 83c7 7a3e 4050 443f
00000010: 1e30 e7b9 4caf e73e 9b4e 6f3f f2b5 e03e
00000020: ee73 863e a6cf 9e3e 5cbc 303f 70b1 dc3e
00000030: d740 7f3f 468c c23e 8d2f 4d3d d329 553e
00000040: 9ec9 263f 7de5 353f 5083 e33e cb3d 463f
00000050: 6961 203f eec2 ca3e 7a95 753f 46f6 c43e
00000060: 0f9f 963d 5eb8 e23e 4e3c 4e3f a4ca 0b3f
00000070: 20ed ba3e 2ac3 1e3f 4ba5 343e a053 a83e
0.42333674 0.104867175 0.2449017 0.7668495 -0.00044095604 0.45250928 0.9347932 0.43888813
0.26260322 0.31017798 0.69037414 0.43104124 0.9970831 0.37997645 0.050094176 0.20816736
0.65151393 0.71053296 0.4443612 0.7743804 0.62648636 0.39601845 0.9593121 0.38469142
0.07354557 0.44281286 0.8056077 0.5460608 0.36509037 0.62016547 0.1764118 0.328763

features.0.3.normalize.bias f4 [32]
00000000: 6b12 833a 6212 833a 6d12 83ba 6d12 83ba
00000010: 6712 833a 6d12 83ba 6c12 833a 6c12 83ba
00000020: 6c12 83ba 6212 83ba 4712 83ba 6b12 83ba
00000030: 6d12 83ba 6f11 83ba 1712 833a 5d12 833a
00000040: 6c12 83ba 6e12 83ba 6d12 83ba 6b12 833a
00000050: 5a12 833a 6b12 83ba 6d12 83ba 6c12 83ba
00000060: 6b12 83ba 6712 833a 6d12 83ba 6a12 83ba
00000070: 6b12 83ba 3f12 833a 6b12 83ba 6d12 83ba
0.0009999996 0.0009999985 -0.0009999998 -0.0009999998 0.0009999991 -0.0009999998 0.0009999997 -0.0009999997
-0.0009999997 -0.0009999985 -0.0009999954 -0.0009999996 -0.0009999998 -0.0009999702 0.0009999898 0.000999998
-0.0009999997 -0.0009999999 -0.0009999998 0.0009999996 0.0009999976 -0.0009999996 -0.0009999998 -0.0009999997
-0.0009999996 0.0009999991 -0.0009999998 -0.0009999995 -0.0009999996 0.0009999945 -0.0009999996 -0.0009999998

features.0.3.normalize.running_mean f4 [32]
00000000: 18ee 3e3d 0668 7a3c 9010 0e3e 5d09 363e
00000010: 9846 3bbe 62a4 5d3f 151e eb3e 9ea3 4e3d
00000020: 3d25 07bf 7dc3 23bf cf55 6ebe 96c7 c53e
00000030: b1ad 2abe af03 1d3e 7b4c f3bb 66ed fa3e
00000040: 6554 c93d 870a ad3e 3d34 1e3f a9d0 d9be
00000050: 87dc bebb 7a5f 623f bba6 163e 1ae1 3e3c
00000060: 9ecb d23b ed50 6e39 d80c 0a3f 9656 983d
00000070: 569b 373e 9ecd 3d3f b073 413f bde1 0a3f
0.046613783 0.01528359 0.13873506 0.1777701 -0.18288648 0.86578953 0.45921388 0.050449006
-0.52791196 -0.63970166 -0.23274921 0.38628834 -0.1666782 0.15333436 -0.0074248887 0.49009246
0.0983055 0.33797094 0.6179846 -0.42542008 -0.0058246288 0.88426936 0.1471204 0.011650348
0.0064329645 0.00022727596 0.5392585 0.0743839 0.1793035 0.7414187 0.7556715 0.542507

features.0.3.normalize.running_var f4 [32]
00000000: a2c8 383e e25a 713e 1cd0 5c3e 824c 993e
00000010: 9a43 2c3e 9099 013f 4d69 c63e 2e9e 313e
00000020: 5b90 8a3e d224 5f3e 3bd6 a33e 8c06 883e
00000030: bd97 a83e dc81 303e 2923 823e bcdf 2c3e
00000040: cb52 923e 4d37 1a3f fef5 c13e b126 9e3e
00000050: b1a0 973e 8dea 903e 6204 b63e 2fb5 293e
00000060: f126 843e 1d97 873e 8ac7 d43e e44e 643e
00000070: 3012 883e a73d d23e eb4d 623e e118 833e
0.18045285 0.23569825 0.21563762 0.29941183 0.16822663 0.5062494 0.38752213 0.17345497
0.2706326 0.2179139 0.31999382 0.26567495 0.32928267 0.17237037 0.2541745 0.16882223
0.2857879 0.6024063 0.3788299 0.30888894 0.29614785 0.28303948 0.3555022 0.16573022
0.2581096 0.26482478 0.41558486 0.2229572 0.26576376 0.41062662 0.22100036 0.2560492

features.0.3.conv.weight f4 [32, 32, 3, 3]
00000000: 6d6a 3ab9 dfd0 a1bd 59c0 c2bd 1277 04bd
00000010: bc11 b0bd 57fb 04bd fa9d b4bd a401 823d
00000020: c557 693c cb6c b6bc eed2 463d d0c3 96bd
00000030: 9fb0 713d 271c 49bc b722 a8bd 4ff8 883d
00000040: 9c40 8bbd 27a8 92bd 84da acbd dc4c 2cbd
00000050: a6fc 0cbd 7131 65bb 71c5 cabc c9d5 a13d
00000060: 6577 b93d 9deb cabc 9b9a c5bd 118e 553c
00000070: f6df c1bd fe60 193d 84ea ecbc fadf 89bd
00000080: e3ad 823c 1995 ac3d 9240 263c 5ca2 6bbd
00000090: 3e0e 883d 47a5 ba39 8b05 2c3d 3258 a2bc
000000a0: 8a60 aa3d d9cc b93d f904 843b a4b4 f7bc
000000b0: eeb1 ecbb 307a 8e3d ce80 55bd 7c04 afbc
000000c0: 2dd4 9dbc 000b b0bd 88ac 0e3d d128 27bd
000000d0: daae c4ba d7ae c0bd dd33 1b3d c1b4 9abd
000000e0: 103c 453d 0119 cabd be79 9dbd d4f4 5ebc
000000f0: ef8f c03d d0cc 09bd 8a0c b33c d716 42bd
00000100: 0af6 a9bd 8a80 a43d 4a8e 7cbd 8037 a1bb
00000110: f6c8 b83d 8ea6 c53c 3251 2dbd 325e 283c
00000120: 700b 133d 7bfe 8fbc 3e0d 3b3d 4bad 31ba
00000130: 7da2 c03d 4b43 30bd e4b2 d13d 983f 0b3b
00000140: c97d 483c ba87 d2bb 29db 743d e01a c5bd
00000150: c91e a1bd 1a33 193d df2c 563d 71d3 cdbd
00000160: 8d86 02bd 1b28 893d 48c4 af3d a7c2 ad3b
00000170: ffe4 1e3d 4141 4e3d 0df9 873d 4967 133d
00000180: d328 adbd 5385 79bc 3dfb acbd 5082 8d3d
00000190: 9689 0b3d e143 21bd 3dc0 bc3d 3998 32bd
000001a0: e28a 93bd 092d a5bd 4655 16bd 24b2 cc3c
000001b0: 4ee5 c43d 8288 b83c 4ee6 56bd 31bd 913d
000001c0: dcb8 a23d e639 633d 7003 2fbd 4007 7f3d
000001d0: a8b4 ebbc 4ae3 d4bc 5598 74bb 0ccb 53bd
000001e0: cdcf d0bd 8b68 96bd ad5a b1bd f453 743d
000001f0: 2d55 263d ae47 cf3c c10d 7fbd 7d62 72bd
00000200: 878f 95bd 96bc 373d b96f 6dbc 1a30 6c3d
00000210: cc3a 733d 413e 89bd b133 e73c cb4c b53d
00000220: 5d81 2e3c 253a 15bd d556 623d 9b86 c63d
00000230: 1d06 91bd 750c 353d b349 b6bc 0f9c a03c
00000240: 0752 963d aebf 8f3d c226 bcbd 5c5e 08bb
00000250: 0432 8b3d f8a7 c23d c820 5d3d ab4a cd3c
00000260: 632b 463c 6d3b c1bd be34 153d d058 70bd
00000270: 977d 813c 1e5c bc3d 3725 093d c5d9 febc
00000280: 4d2b f3ba 55e4 a5bc c51b 843d ac53 87bc
00000290: 88c7 d13c b4d2 1d3b 3052 c73d 4650 febc
000002a0: 22d1 82bd ea28 01bd 93c8 0a3d e138 c4bd
000002b0: 906f 97bd 7558 a83c 8b7c 70bd ea4e 4fbd
000002c0: b3cb f63c 19e4 8e3d b9bf 5c3d 613a 9cbd
000002d0: f2f0 963d c462 73bd 5f8f c33d 3b13 af3d
000002e0: 72c2 40bc fe4e f13c 1d56 b03c b5e4 fabc
000002f0: fc26 f63b 213e 84bd e0a3 173d b596 323d
00000300: ebd4 27bd d0c1 2ebd 79bc d5bc 6fc6 86bd
00000310: 91c5 86bd eef9 813d 06b9 bbbc 933f 44bd
00000320: 71a7 c03d 8ce9 4dbd 4c2b b43d bd38 b1bd
00000330: 58f2 463d e5bf 6a3d bc5b c43d a042 d2bd
00000340: edb7 923d adf2 bbbd ebde cabc d4b6 a3bd
00000350: f477 1c3c 1fb1 8d3c 0bf5 c23c c329 943c
00000360: 27c0 0f3d e889 b1bc 1c4b 803d f3f0 e83b
00000370: a805 97bd b4fe d03d b0e8 943d f0d5 6fbb
00000380: 350a 2d3d 5718 13bd 3854 b33d 6954 afbd
00000390: 524c cbbd de94 41bd 59f7 aabd b03a 743d
000003a0: 0bea 16bc 931d 2abd 867c 69bd f00b 94bd
000003b0: 7938 633b f136 d2bd 1b26 afbd 4408 a73c
000003c0: ae34 173c dd9d 633d d3ff e93b 0cb6 9fbd
000003d0: 0b67 833d 75ef 933d b25a f43c bf41 7a3c
000003e0: 0771 c43c 57f1 e03c 7413 40bd b554 25bd
000003f0: f4a8 bb3c 1e90 d03d 5ec1 5dbb 18fc 243c
-0.00017777989 -0.07901167 -0.09509344 -0.032340117 -0.085971326 -0.03246626 -0.08819194 0.06347969
0.014242117 -0.022268673 0.048541002 -0.07361567 0.05900633 -0.012274778 -0.08209746 0.06687986
-0.06799433 -0.07160979 -0.08440116 -0.042065486 -0.03442063 -0.0034972096 -0.02475235 0.079021044
0.09055976 -0.024770552 -0.09648629 0.01303436 -0.09466545 0.037446015 -0.02892042 -0.06732173
0.015952056 0.084268756 0.010147231 -0.057527885 0.066433415 0.00035599826 0.041997474 -0.019817445
0.083191946 0.09072275 0.004028913 -0.030237503 -0.0072233593 0.06956899 -0.05212479 -0.021364443
-0.019266212 -0.08595848 0.034832507 -0.04081041 -0.0015005723 -0.09408348 0.037891258 -0.07554007
0.048152983 -0.0986805 -0.07689236 -0.013608176 0.09402453 -0.03364259 0.021856565 -0.047385063
-0.08298881 0.080323294 -0.061659135 -0.004919946 0.09022705 0.024127271 -0.042313762 0.010276364
0.03589958 -0.0175774 0.045666926 -0.0006777837 0.09405992 -0.043032926 0.10239199 0.0021247622
0.012237021 -0.0064248713 0.05977932 -0.096242666 -0.078672 0.03740225 0.052288886 -0.10050095
-0.0318666 0.06697103 0.085823596 0.0053027454 0.038792606 0.0503552 0.066392995 0.035987172
-0.08455052 -0.015229541 -0.084463574 0.06909621 0.03406676 -0.039371375 0.09216354 -0.043602202
-0.07204224 -0.080652304 -0.036702417 0.024987288 0.09614049 0.02252603 -0.05246573 0.071161635
0.079454154 0.055475138 -0.042727888 0.062262774 -0.028772667 -0.025987286 -0.0037322242 -0.051707312
-0.10195885 -0.07344159 -0.08659873 0.059650376 0.040608574 0.025302734 -0.062268976 -0.059175957
-0.07302766 0.044857584 -0.014491969 0.05766306 0.059382245 -0.06701327 0.02822289 0.08852538
0.01065096 -0.036432404 0.05525859 0.09693643 -0.07081244 0.044201333 -0.02225194 0.019605665
0.07339864 0.07018982 -0.0918708 -0.0020808196 0.06796649 0.09504694 0.05398634 0.025060019
0.012095305 -0.09435163 0.036427252 -0.05867845 0.015806956 0.091972575 0.033482756 -0.0311097
-0.0018552333 -0.020250479 0.06450609 -0.01651939 0.02560784 0.0024081888 0.09732473 -0.031044137
-0.06387545 -0.03153316 0.03388269 -0.09581161 -0.07394326 0.020549992 -0.058712523 -0.050612368
0.030126428 0.069771 0.05389378 -0.076283224 0.073701754 -0.059420362 0.0954883 0.0854859
-0.011765109 0.029456612 0.021525437 -0.030626634 0.0075119715 -0.06457163 0.037021518 0.043600757
-0.04097454 -0.042665303 -0.026090847 -0.06580817 -0.065806516 0.063464984 -0.022915374 -0.04791219
0.09406937 -0.050271556 0.08797321 -0.086534 0.04857096 0.05731191 0.095878094 -0.10266614
0.07163987 -0.09177146 -0.024764499 -0.07993856 0.009550083 0.017296372 0.023798486 0.01808632
0.03509536 -0.021672204 0.06264326 0.0071088015 -0.07374126 0.10204831 0.07270944 -0.0036596023
0.042246062 -0.035911884 0.08756298 -0.08561022 -0.09926666 -0.04726111 -0.08347959 0.05962628
-0.009211074 -0.04153211 -0.05700352 -0.072288394 0.0034671111 -0.102643855 -0.0855219 0.020389684
0.009228868 0.055570472 0.0071410923 -0.077983946 0.06416138 0.07223407 0.029828403 0.015274464
0.023979677 0.02745883 -0.046893552 -0.040363986 0.022907712 0.10183738 -0.003383718 0.010069869

features.0.3.conv.bias f4 [32]
00000000: c968 ebb9 e140 61b8 12c9 aab9 5dcd e3b9
00000010: a621 d2b7 ecc9 50b8 ab59 0a3a 8064 a939
00000020: eed5 9a39 7187 0039 7e11 efb9 8064 a939
00000030: b5b3 c539 f05e ca39 b8d5 2938 8211 eeb8
00000040: 6b05 9e38 4a88 3fba d277 3139 eed5 9ab9
00000050: 2ee6 ae39 0feb b2b9 22b0 26ba 6ce2 1bb9
00000060: e7be 4236 4de5 c039 7cd2 fc39 6ea3 7339
00000070: 868a 0db8 0226 2eba 9608 8bb9 69e9 5139
-0.00044900764 -5.3704603e-05 -0.00032574736 -0.00043449822 -2.504962e-05 -4.977912e-05 0.0005277644 0.0003230907
0.0002953256 0.00012257487 -0.00045598665 0.0003230907 0.0003770866 0.00038599176 4.049178e-05 -0.000113519854
7.535036e-05 -0.00073063804 0.00016924672 -0.0002953256 0.00033359363 -0.00034125938 -0.00063586433 -0.000148663
2.9019373e-06 0.00036791936 0.0004822201 0.00023235168 -3.374603e-05 -0.0006643237 -0.00026518543 0.00020018745

classifier.weight f4 [5, 800]
00000000: 9c5c 32bd c63f d6bc c80d 92bd 3335 b43c
00000010: d6f6 29bd 9a1d 31bd be56 13bc c0e4 853d
00000020: 6d32 00bd c13e 27bc 8528 763d d263 b3bc
00000030: 5db6 8abd a916 98bd 1ff6 0e3c 47ed fa3b
00000040: 881b 4abc 7991 823c 44c2 4cbd 65cb 9939
00000050: b791 9c3c dd33 00bd 3812 0b3d 345f 803d
00000060: 33cd 8dbd eaf4 623c ecfe 2ebd 4782 a63c
00000070: b887 3ebd cad2 14bc 9754 86bd 5305 7f3d
00000080: 4e21 9ebd d72b 99bd bde4 a53d 7973 9f3d
00000090: cb66 9e3d dc0c ae3d f557 9abd 72ed 7bbd
000000a0: 9973 723d 6592 72bd d62d b3bc 4dca 393d
000000b0: 8c6f 633c 52f5 a23d 68be 88bd 2580 b13c
000000c0: 9e32 cf3c 8212 ffbc d07a 85bd f532 96bd
000000d0: d87d 70bc 414a 28bd bc44 963c 00f4 f8bc
000000e0: f31a 4bbc 80dc 943d 38b3 543c ede2 e6bb
000000f0: 2622 423d 0b48 d4bc 6941 843d e8fe 563c
00000100: 02aa 08bd c6ff 9e3d dc26 953d 9d89 393d
00000110: 39b4 83bc 1d68 9f3d 9e3d 69bc cb50 96bd
00000120: 1d10 543d 772a 7b3d 530c 863d 1ab8 b1bd
00000130: 046e 8ebd 6fdc a9bd 1bd2 e3bc c8f2 963c
00000140: 0785 a1bd 64c4 9f3d 6600 55bc 1285 603d
00000150: ab74 9abc 8dfd 59bd 0dd5 623c 5e8d a63a
00000160: 37f0 de3c 1d49 5f3b 2c54 e1bb 1a3f a13d
00000170: 8900 533d ea29 233d 19c7 4bbc e052 3d3d
00000180: d802 ba3c f557 753d ddce 5f3d 8273 3f3d
00000190: b072 803d 926e 8b3c 93d5 8ebc 9828 fa3c
000001a0: e272 abbd aa8b 713d 97c5 3b3d 9a94 a0bc
000001b0: 633f e5bc 966e 33bd 9a17 adbd c186 9abd
000001c0: 848c 1b3d 001e b1bd 5881 d1bc 5894 e93c
000001d0: 8277 ba3c af22 9dbd a2d1 ad3c 2d37 45bd
000001e0: 1261 853d d508 993d a3fd 0b3d 96df c3bc
000001f0: b171 5fbc 31a2 b7bc f747 8abd bcfa f33c
00000200: d710 8ebb cdfa 14bb a812 a03d 7855 003d
00000210: 7ccd 473d a0fe 873d f60d b3bc d996 c439
00000220: a3ce fbbc e624 a5bd c95e 6e3d f9f7 84bd
00000230: 525d ef3c a6b5 213d 8702 d5bc c992 03bd
00000240: f3c1 343d 9caf 4d3d 614b 3dbb 4318 6cbd
00000250: 9e9b b03c d969 563d 66d1 1dbc 3d2a 3a3b
00000260: 409e bdbb dd95 49bd 17af 63bd 8cd5 2ebd
00000270: e859 58bd cfc2 213d 1ab0 5ebc 05fb 883d
00000280: be71 86bd ef9d 00bd 564f 383d cdbe 33bb
00000290: 04b0 a4bc 26cb dc3b 9125 ba3c 0d6c f53b
000002a0: 040e 91bd 67d9 773d f8a1 3bbd 157c 8b3d
000002b0: fc7d a6bd c789 b23b 6381 a7bd d716 39bb
000002c0: dc36 8fbc 7587 613c 092b 853c 54a4 713c
000002d0: 269a 40bd 04bf 0bbc a300 a93d d9e5 bf3b
000002e0: 71a9 31bb 95c6 613d b32c 35bd e341 2e3d
000002f0: f586 9fbd cf13 283d 6b2a 75bd 8834 7ebd
00000300: a4e1 863d ca09 973d acf8 0abd 7c0d fabc
00000310: 8f7e 9bbd 43ab 183d 5526 a73c ad89 2d3d
00000320: 53db 02bd c913 073d 30fe 59bd 1cbc 903d
00000330: e23c 173d efe1 47bd 3130 413d 49e8 a63c
00000340: 51af ab3d fea5 41bc 93ed 523d eb62 9d3d
00000350: e459 07bc bf8c 93bd ae2b 893d 81ad a83d
00000360: 1b59 503a c2e1 85bc ef9a f63b 70d4 6cbd
00000370: 9b5b 9abb 643f b03d a1a5 703d 375a 633c
00000380: b18d 3cbd 069b a63d 794c ad3d 35f3 37bd
00000390: 180d 42bd 0298 833d 28e4 0f3d d905 2b3b
000003a0: 67ac db3c 78aa 2fbd 82c0 603d 8b59 b83c
000003b0: d001 5abd e543 54bd 4010 49bd a5c1 5c3d
000003c0: ef21 7cbc c3cd 9f3c 87f2 39bc cd2d 33bd
000003d0: 3699 b8bc e933 aabc 8e76 febb ac8c 56bd
000003e0: efee 9abd 399a 29bc de2d 8dbd c0ea e73c
000003f0: ca10 60bd 9ceb 423c 9daa 83bd 9f8e 63bd
-0.04354535 -0.026153456 -0.07131535 0.021998024 -0.041495167 -0.04324112 -0.008992849 0.06537771
-0.03129809 -0.010207833 0.060097236 -0.021898184 -0.06773064 -0.07426197 0.008725672 0.00765768
-0.0123356655 0.015938507 -0.049989954 0.00029333975 0.019112451 -0.03129946 0.03395292 0.062681586
-0.06923904 0.013852337 -0.04272358 0.020325793 -0.04651615 -0.009083459 -0.06559103 0.062260937
-0.07721196 -0.07479065 0.08100269 0.077856965 0.0773445 0.084985465 -0.07536308 -0.061505742
0.059192274 -0.059221644 -0.021872442 0.045358945 0.013881575 0.079569474 -0.06676942 0.02166755
0.02529269 -0.031136755 -0.06517565 -0.07333938 -0.014678441 -0.04108644 0.018343322 -0.030389786
-0.012396562 0.072686195 0.012982182 -0.0070460946 0.047395848 -0.025913259 0.064577885 0.013122298
-0.033365257 0.07763629 0.072828025 0.045297254 -0.016077148 0.0778353 -0.014235882 -0.07339629
0.05177318 0.061319795 0.065453194 -0.08677693 -0.069545776 -0.082939975 -0.027810147 0.018426314
-0.07886701 0.078011304 -0.013000583 0.054814406 -0.01885446 -0.05322032 0.013844741 0.0012706926
0.027214153 0.0034070679 -0.006876489 0.07873364 0.051514182 0.039834894 -0.012437605 0.046221614
0.022706434 0.059898335 0.05464064 0.046741016 0.06271875 0.017020497 -0.017435824 0.030536935
-0.083715215 0.058971085 0.045842733 -0.019602109 -0.027984327 -0.043806635 -0.08451767 -0.075452335
0.037975803 -0.086483 -0.025574371 0.028513119 0.022762064 -0.07672631 0.021218125 -0.048148323
0.06512655 0.07472388 0.034177434 -0.023910325 -0.013637946 -0.022416206 -0.067520075 0.029782645
-0.0043355036 -0.0022732497 0.078160584 0.03133151 0.04877995 0.06640363 -0.021857243 0.00037496423
-0.03073818 -0.080636784 0.058195863 -0.064926095 0.029219303 0.039479874 -0.026002182 -0.032122407
0.044130277 0.050216302 -0.002888404 -0.057640325 0.021558579 0.052347038 -0.009632444 0.0028406524
-0.005786687 -0.049215186 -0.0555869 -0.042684123 -0.052820116 0.039492425 -0.013591791 0.06688503
-0.06564663 -0.031400617 0.044997536 -0.0027426959 -0.020103462 0.0067380844 0.022722991 0.0074896873
-0.070827514 0.060510065 -0.045808762 0.06810776 -0.08129498 0.0054485532 -0.081789754 -0.0028242373
-0.017482214 0.013765206 0.016255872 0.0147486515 -0.047022007 -0.008529428 0.082520746 0.0058562574
-0.0027109052 0.055121023 -0.04423208 0.042543303 -0.07789413 0.041034516 -0.059854906 -0.062061816
0.06586006 0.07374914 -0.03392856 -0.030524008 -0.075924985 0.037272703 0.02040402 0.042367626
-0.031947445 0.032977853 -0.053220928 0.07067129 0.036923297 -0.04879945 0.0471651 0.020374434
0.08383048 -0.011819361 0.0514961 0.07684883 -0.008261178 -0.072045796 0.06697784 0.08236218
0.0007947848 -0.016343001 0.0075257937 -0.057819784 -0.0047106273 0.08605841 0.058751706 0.013876489
-0.046033565 0.08135037 0.084618516 -0.044909675 -0.04737577 0.064254776 0.035129696 0.0026096015
0.026815606 -0.04288718 0.05487109 0.022503635 -0.053224385 -0.05182256 -0.049087763 0.05389561
-0.01538895 0.019507295 -0.011349327 -0.04374485 -0.022533994 -0.020776706 -0.0077655977 -0.05238025
-0.07565104 -0.010351711 -0.06893514 0.02831018 -0.05470351 0.011896994 -0.06429026 -0.055555936

classifier.bias f4 [5]
00000000: 6c12 83ba 6d12 83ba 6a12 833a 3912 83ba
00000010: 6d12 833a
-0.0009999997 -0.0009999998 0.0009999995 -0.0009999938 0.0009999998
