trainResults/miniImagenet_SIGN-MAML_lr_0.0035_ways_5_shots_1_steps_5_seed_1_iter_1.pt (torch, 143549 bytes, 26 tensors)

features.0.0.normalize.weight f4 [32]
00000000: ae35 423f e884 8f3e 2ae2 ce3e d155 3c3f
00000010: b9ae e73c 1205 4d3f 84d2 ca3e fcdc 403f
00000020: c689 113f 6e24 e03e 073f 233f f80e 063f
00000030: 5501 2f3f a0bf 9c3e ecd8 ed3e e670 e83e
00000040: 0fcf 123f 447d ff3e 3b26 703f 9d16 283f
00000050: 0e2d a13e 6fbf 493e 1294 d43e ba16 923e
00000060: 0474 ad3e 73df 053f 610c 4c3f 25d4 453f
00000070: 8d49 483c 0518 4f3f bb03 243f bb28 793f
0.7586316 0.28031087 0.40406924 0.73568445 0.028281556 0.8008586 0.39613736 0.75337195
0.5685085 0.43777794 0.6376805 0.5236659 0.6836141 0.30614948 0.4645456 0.45398635
0.57347196 0.49900258 0.93808335 0.65659505 0.31479686 0.19701932 0.4151922 0.28532964
0.33877575 0.5229408 0.7970639 0.7727683 0.012224567 0.80896026 0.6406819 0.97327775

features.0.0.normalize.bias f4 [32]
00000000: 6612 833a 6612 833a 6612 83ba 6d12 833a
00000010: 6912 83ba 6512 83ba 5412 83ba 6c12 83ba
00000020: 6c12 83ba 3112 83ba 6d12 83ba 6d12 83ba
00000030: 6612 833a 6c12 833a 6c12 833a 6612 83ba
00000040: 5912 83ba 6612 833a b211 833a 6c12 83ba
00000050: 6912 83ba 6b12 833a 6a12 833a 6b12 83ba
00000060: 6312 833a 5412 83ba 6b12 833a 6812 83ba
00000070: 6b12 833a 6512 833a 6412 83ba 6b12 833a
0.000999999 0.000999999 -0.000999999 0.0009999998 -0.0009999993 -0.0009999989 -0.0009999969 -0.0009999997
-0.0009999997 -0.0009999928 -0.0009999998 -0.0009999998 0.000999999 0.0009999997 0.0009999997 -0.000999999
-0.0009999975 0.000999999 0.000999978 -0.0009999997 -0.0009999993 0.0009999996 0.0009999995 -0.0009999996
0.0009999987 -0.0009999969 0.0009999996 -0.0009999992 0.0009999996 0.0009999989 -0.0009999988 0.0009999996

features.0.0.normalize.running_mean f4 [32]
00000000: bc5c 7c42 742a 8541 6b5d e1c1 270c c5c1
00000010: f0b1 a141 e959 83c1 536f 4540 6c7d 3142
00000020: e3e5 d3c2 21c0 9442 00bd b541 7166 cac1
00000030: f1a6 2842 0b06 8942 4e81 41c2 a5d8 d3c1
00000040: d881 b842 ebd1 97c2 6fd9 2942 ca91 1cc2
00000050: ba4d 20c2 2193 20c1 663c 85c0 4524 e5c1
00000060: d8a6 9042 e99d 8142 6e2d 5c41 6f98 b8c1
00000070: 645d a0c2 0b17 cf41 d4d7 60c1 3b78 2142
63.09056 16.64573 -28.170614 -24.630934 20.211884 -16.418901 3.0849197 44.372482
-105.949 74.37525 22.717285 -25.30002 42.16303 68.5118 -48.376274 -26.480783
92.2536 -75.909996 42.462337 -39.142372 -40.075905 -10.03592 -4.163623 -28.64271
72.32587 64.80842 13.761091 -23.07443 -80.1824 25.886251 -14.052692 40.367413

features.0.0.normalize.running_var f4 [32]
00000000: 1de4 8d44 dade ba43 a995 f243 c44d e043
00000010: dea5 7f43 b2c8 b743 c633 6843 4632 5d44
00000020: 9404 3845 62e2 e444 ba34 6e43 907e ab43
00000030: 36b8 2644 2ce0 a544 f14f 8544 864c ec43
00000040: 6db3 0845 8e15 de44 1e6d 7244 c725 0344
00000050: 7825 2944 54ed 7144 c23e 9343 2282 e843
00000060: d8ab ab44 e124 9144 8e47 f443 a2a0 e943
00000070: 6e00 d144 cfb5 3844 ebdb 3743 1fc6 1344
1135.1285 373.74103 485.16922 448.60754 255.64792 367.56793 232.20224 884.7855
2944.2861 1831.0745 238.20596 342.98877 666.8783 1327.0054 1066.4982 472.59784
2187.214 1776.6736 969.70496 524.5903 676.58545 967.70825 294.4903 465.01666
1373.3701 1161.1525 488.55902 467.25494 1672.0134 738.84076 183.85905 591.09564

features.0.0.conv.weight f4 [32, 3, 3, 3]
00000000: 3753 573d b3c4 e83d 3c86 7c3b 4671 e8bd
00000010: d912 343a 277e cf3d 19e7 85bd f036 753d
00000020: f267 063d be3f afbc cad0 013b 969a 743d
00000030: 4c5f bfbd 1f82 b43d 2767 c13d fba7 a03d
00000040: dd32 0c3e bcb5 a4bb f18a c5bd b345 ef3b
00000050: 42e9 1fbd 75a7 4b3d b923 f13d 03a8 98bd
00000060: 7025 de3b 737b 0a3e 6497 dfbd e24a cbbc
00000070: 6442 0a3e f48b c73d 37fa 1f3d 21b8 6fbd
00000080: 2a67 42bc 7669 fbbd 8907 04be 8163 03be
00000090: 5ec3 083e e79a e13d bb55 643d cb15 12bd
000000a0: 7868 f53d 8539 11bd bd45 c63d bfd7 64bb
000000b0: ebe9 82bd 88ad 19bd 3939 e9bc 1856 00be
000000c0: a1f3 243d e823 28bd 80e8 833d 0943 b63d
000000d0: f08f abbc c320 8b3d ec14 ea3c 1ade bf3d
000000e0: 693c b4bd 63e8 56bc af78 40bd a89e f53d
000000f0: 42a8 fbbd 8dd2 9cbd 69d3 873c 9ef7 fc3d
00000100: dc4a c13d f038 03be 18c5 c8bd a601 083e
00000110: cb93 9c3c 580b f0bd a500 2ebd db3c 7b3d
00000120: 0b9c f4bc 0429 dbbd a68f b0bd 9278 94bd
00000130: f4e8 d1bb e070 593d bac1 893d eb42 87bd
00000140: 46e4 c5bc c92e d8bd 6fb4 d33d 6f0f 0e3e
00000150: 7a63 0a3e c1ed 623d 4e47 f9bc 03f0 1fbb
00000160: 14db 473d 640d f7bd 91c0 1c3c c4b4 e3bd
00000170: ea46 0cbe 32c6 6cbb 790f 38bd 9918 b5bd
00000180: ed9d c33c 2bfe d83b b356 a43c f125 9cbd
00000190: 1267 09be 4cbe 833b 7785 62bd db7c 3abd
000001a0: 1b09 ce3d 0ed7 c03c 9023 833d 0115 22bd
000001b0: db53 e2bd 1b3f d93c 8a3b bdbd 0647 943c
000001c0: 018a dabd d122 d73d 697f bebd 026f f73d
000001d0: 93b6 c93d af9e d33d fd8d a73d 497f fd3c
000001e0: 34a7 bbbb 30ae 9dba bced 64bd 0aee 02be
000001f0: a7d6 013e 998c c93b 5ce3 823d b537 853b
00000200: 1b5b 1e3d a732 b0bd 62c5 ddbd 7783 d53d
00000210: 8746 523d b883 893d 204c 0dbe 7a42 293c
00000220: 87d8 04be b661 72bc cfeb 07bc 07e6 c8bd
00000230: 85eb 0abe cb30 c0b8 c323 fc3d d563 003e
00000240: 2f09 aabd b208 d1bc 2051 eabd 06c9 debd
00000250: 1118 1fbd 253b 0a3e 2193 17bd ebe3 e43b
00000260: 5cfa 053e 7bac d13c db0f e63d f4dd bd3d
00000270: e08b 053e fcb1 b93c d886 e2bd 2b1b f1bd
00000280: 6016 94bd 5c57 eb3d 427c a03d bc5a 213d
00000290: 7b4b d9bd c038 d2bd 708d e43d 131b 7bbc
000002a0: d3bc 0dbe 9af5 93bc 83cf 0bbd faca 8d3a
000002b0: d77c 683d b76c 553d 8f53 dabd 9eab 24bb
000002c0: 3c1f 8ebd 2125 bd3d 73ea 893d 0718 993d
000002d0: 12ec fe3d 71ca 883d d63f 0ebe eb8b 0a3d
000002e0: b9ff c3bd 2eca 8e3c 3423 f939 4225 0b3e
000002f0: 5429 c3bd f170 09be 40a4 1bbd 96ff ad3c
00000300: 9601 cd3d 3220 e33d 00bb db3d ea8b 363d
00000310: e7a5 25bd 0840 f7bc ad86 98bd 3a48 e53c
00000320: d684 c2bd 4473 463d 4096 b83d 71e5 f13d
00000330: 6e46 0abe 58f4 e93d dd82 afbd 493e 28bc
00000340: 4c09 023e ca37 9b3d 2338 2fbd 9fe7 a83d
00000350: 2e6f 08be d804 df3d 0f36 0a3e 3f9a acbb
00000360: bae1 b13c 68be 08bd 8ae2 b0bd 02e5 81bd
00000370: 14c8 05bc 5631 e5bd 8d7d e6bd edc6 673c
00000380: 34f6 b9bd 79cb 9bbd 42ef 4ab9 eae8 92bd
00000390: 7ad7 033e 45fa 47bd 491d 9bbd 3eb2 1abd
000003a0: c2a7 e8bd d68f 8f3d e8cd f03d c0f5 a0bd
000003b0: 320d 4ebd 20eb 043e 836b cabd ba33 1d3d
000003c0: fe3e e4bd c19e fdbd 6a66 4fba 125e a3bd
000003d0: ad20 9b3d 6ff2 32bd 0ba7 1a3b 299d 95bd
000003e0: cb34 643d 1af7 033e bf27 b2bc ca80 b0bd
000003f0: afdc 0abe 2967 063e 5f2a 6a3d a45d 653d
0.052569594 0.113656424 0.0038532158 -0.1134973 0.00068692636 0.101314835 -0.06538219 0.059866846
0.032813974 -0.0213927 0.0019808286 0.059717737 -0.09344348 0.08813881 0.09443503 0.0784454
0.13691278 -0.0050265472 -0.096456416 0.00730201 -0.03904081 0.049720246 0.11774392 -0.07453921
0.0067793652 0.13523655 -0.10917547 -0.02481598 0.13501889 0.09743491 0.039056983 -0.05852521
-0.011865417 -0.122759745 -0.128935 -0.12830926 0.13355777 0.110158734 0.05574582 -0.035665315
0.119828165 -0.035455246 0.0968127 -0.0034918634 -0.063922726 -0.037519008 -0.028469669 -0.12532842
0.040271405 -0.041049868 0.0644083 0.08899505 -0.020942658 0.06793358 0.02857443 0.093685344
-0.08800585 -0.013116929 -0.046990093 0.11993152 -0.12287952 -0.07657347 0.0165803 0.12351917
0.094381064 -0.12814689 -0.09803218 0.13281879 0.019113442 -0.11720914 -0.042481083 0.061337333
-0.029859563 -0.107011825 -0.08621149 -0.072495595 -0.006405944 0.05308616 0.067264035 -0.066045605
-0.0241567 -0.105557986 0.10337149 0.13873075 0.1351451 0.05540252 -0.030429509 -0.0024404533
0.048792914 -0.12063101 0.009567396 -0.11118463 -0.13698927 -0.0036128876 -0.04493663 -0.08842582
0.023879016 0.006622096 0.020060873 -0.07624424 -0.13418224 0.004020488 -0.055303063 -0.045529228
0.100603305 0.023540046 0.064032674 -0.039570812 -0.110511504 0.026519349 -0.09239872 0.018100273
-0.106708534 0.105046876 -0.09301645 0.1208172 0.098492764 0.10333001 0.08181379 0.030944483
-0.0057267193 -0.0012030061 -0.055890784 -0.12786117 0.1267954 0.0061507937 0.063910216 0.0040654787
0.038661104 -0.08603411 -0.108286634 0.104254656 0.05133679 0.067145765 -0.1379857 0.010330791
-0.12973224 -0.014793804 -0.008295967 -0.09809499 -0.13566406 -9.164362e-05 0.123115085 0.12538083
-0.08302533 -0.025516842 -0.114412546 -0.10878186 -0.03884131 0.13499124 -0.037005547 0.0069851778
0.13083786 0.02559494 0.11233493 0.0927085 0.1304164 0.022667877 -0.11060876 -0.1177276
-0.0723083 0.11491272 0.078362 0.03939317 -0.106101 -0.102647305 0.111597896 -0.015326279
-0.13841562 -0.018061448 -0.034133445 0.0010817938 0.05675968 0.05210563 -0.10660469 -0.0025126706
-0.06939551 0.092355974 0.06734171 0.07475286 0.124473706 0.06679238 -0.13891539 0.033824842
-0.095702596 0.017430391 0.0004751921 0.13588431 -0.09529367 -0.1342199 -0.037998438 0.021240037
0.10010068 0.11090125 0.10729027 0.044567026 -0.04044142 -0.0301819 -0.07447562 0.027988542
-0.09497993 0.04844977 0.09013033 0.118113406 -0.1350343 0.11423558 -0.08569882 -0.010268756
0.12698859 0.07579 -0.042778146 0.08247303 -0.13323662 0.10889596 0.13497184 -0.005267411
0.02171408 -0.03338471 -0.08636959 -0.06342508 -0.008165378 -0.11191051 -0.11254416 0.014146549
-0.09080163 -0.07607169 -0.00019353352 -0.07173331 0.12875167 -0.04882266 -0.07573945 -0.03776764
-0.11360122 0.070098564 0.117580235 -0.07859373 -0.050305553 0.12980318 -0.098837875 0.03837941
-0.11144827 -0.123837955 -0.0007911684 -0.07976927 0.07574592 -0.043688234 0.00235981 -0.073053665
0.05571441 0.1288723 -0.021747468 -0.086183146 -0.13560747 0.1312529 0.057169314 0.055997506

features.0.0.conv.bias f4 [32]
00000000: 868a 0db8 607d 7c37 8201 4a37 2e35 24b8
00000010: 1496 7b36 2e35 2438 3b1e d637 607d 7cb7
00000020: 02b5 6ab7 a41d b6b7 3be1 4e36 c2af 1039
00000030: 2758 adb7 7905 8d37 347d fe37 812a 5238
00000040: 9c90 1eb8 0ff6 4f37 078d ad38 eee8 db37
00000050: 498b 0338 2e45 b0b7 743c edb7 6e02 5bb6
00000060: 532a 1236 0e4c dab6 a61c 0238 ca84 4bb9
00000070: ab24 80b4 f0fe 7638 8aee 70b9 e7be 4236
-3.374603e-05 1.5049562e-05 1.2040489e-05 -3.9150174e-05 3.7489272e-06 3.9150174e-05 2.5524865e-05 -1.5049562e-05
-1.3989631e-05 -2.1709893e-05 3.0827493e-06 0.00013798385 -2.0664256e-05 1.6811058e-05 3.0337462e-05 5.0107486e-05
-3.7804813e-05 1.2395451e-05 8.275551e-05 2.62153e-05 3.1362553e-05 -2.101305e-05 -2.8280752e-05 -3.2634957e-06
2.1780331e-06 -6.50576e-06 3.1021096e-05 -0.00019409056 -2.3868537e-07 5.88884e-05 -0.00022977046 2.9019373e-06

features.0.1.normalize.weight f4 [32]
00000000: 49fe 7f3e 738f 743f baeb 013f c8f0 423f
00000010: d859 1e3f fa45 163f 26ef 5d3f 9eae f33e
00000020: 750e 5a3f 2100 2a3f ef33 613e 1d27 543f
00000030: bf38 133e 3263 423f 5aa4 c83e 4476 273f
00000040: 42e1 e13e c38e 193f ca2a b23e d84d 353f
00000050: 2d01 3c3f 93d5 323d 3199 703f 4f2d c43d
00000060: 6c39 8d3e 4022 323f dc3b 763f 61e0 293f
00000070: 6d51 633e ef44 163f 01c3 4d3e 6bf6 3b3f
0.24999346 0.95531386 0.50750315 0.76148653 0.6185584 0.58700526 0.86693037 0.4759416
0.8517831 0.66406447 0.21992467 0.8287218 0.14377116 0.7593261 0.3918789 0.65414834
0.4411717 0.5998346 0.3479827 0.70821905 0.73439294 0.04366071 0.9398375 0.095789544
0.27582872 0.6958351 0.9618509 0.66358 0.2219903 0.58698934 0.2009392 0.7342288

features.0.1.normalize.bias f4 [32]
00000000: 6d12 833a 6912 833a 6c12 83ba 6712 83ba
00000010: 6c12 833a 6a12 83ba 6512 83ba 6b12 833a
00000020: 6212 83ba cc11 83ba 5612 83ba 6412 833a
00000030: 6112 833a 6312 833a 6b12 83ba 5012 833a
00000040: 6912 833a 6712 83ba 6812 833a 6d12 833a
00000050: 6b12 833a 2712 833a 6a12 83ba 6d12 833a
00000060: 6912 83ba 6612 83ba 6b12 833a 6b12 833a
00000070: 6812 83ba 6c12 833a 6512 83ba 6812 83ba
0.0009999998 0.0009999993 -0.0009999997 -0.0009999991 0.0009999997 -0.0009999995 -0.0009999989 0.0009999996
-0.0009999985 -0.0009999811 -0.0009999971 0.0009999988 0.0009999984 0.0009999987 -0.0009999996 0.0009999964
0.0009999993 -0.0009999991 0.0009999992 0.0009999998 0.0009999996 0.0009999917 -0.0009999995 0.0009999998
-0.0009999993 -0.000999999 0.0009999996 0.0009999996 -0.0009999992 0.0009999997 -0.0009999989 -0.0009999992

features.0.1.normalize.running_mean f4 [32]
00000000: ede8 ddbe 8e11 053e e6af 8b3e 6c04 5dbd
00000010: 9360 bd3e 23bd 343e b34d f53e c905 913e
00000020: 34cf 353c fd22 ba3d 6b01 423e 3b8d 233e
00000030: 5d41 c1be 0584 1a3e 54ad b43e d87c dd3e
00000040: b31b 043d e36a 7d3e f550 c8be 932a 0bbe
00000050: 6e33 bb3d cd1b 9cbe ddd5 d63e ef28 a83d
00000060: 77b6 c93d 2c24 dbbe ada3 b23d 82da 76bf
00000070: 8fa4 48be 910f a83e d616 0abf e28e 1abf
-0.4334177 0.12994978 0.27282637 -0.053959295 0.36987743 0.17650275 0.47910842 0.28324726
0.011096764 0.09088705 0.18945853 0.15971844 -0.3774518 0.15089424 0.3528849 0.4325931
0.03225298 0.24747805 -0.39124265 -0.1359046 0.09140669 -0.3048996 0.4196004 0.082109325
0.098492555 -0.42801034 0.08722625 -0.96427166 -0.19594024 0.32824376 -0.53941095 -0.6037427

features.0.1.normalize.running_var f4 [32]
00000000: e737 1b3e 5308 253e 19a8 c13e 01a7 0b3e
00000010: c2b8 023e 21b5 cd3d 98e4 303e b274 e03e
00000020: 4aac 0f3e cb88 da3d 944b 0d3e ad6c 4d3e
00000030: 2cb8 023e b749 373e 02b1 803e e78b 113e
00000040: b347 0a3e 4d1b 1c3e c3fa 313e 3814 253e
00000050: 7750 183e 364f 283e 3edf 203e be76 413e
00000060: 07b9 a13d 8d9d 103e cb93 be3d 2a87 843e
00000070: 6173 c23d 18f3 963e ef76 853e 31b5 733e
0.15158044 0.16116457 0.3782356 0.13637926 0.12765792 0.10044313 0.17274702 0.4383903
0.14030567 0.106706224 0.13798362 0.20060988 0.12765568 0.17899214 0.25135046 0.14213525
0.13503914 0.1524479 0.17380814 0.16120994 0.14874445 0.16436467 0.1571016 0.18892953
0.07896619 0.14122601 0.09305533 0.25884372 0.09494663 0.2948234 0.26067302 0.23799588

features.0.1.conv.weight f4 [32, 32, 3, 3]
00000000: 53e2 f4bb c041 c6bd 0f07 c2bd 9a59 15bd
00000010: 15cb 2dbd 3b5c c13c 7a48 5f3c 17a0 35bc
00000020: 5fe2 db3c a8a5 633c efd7 b23d 6794 0d3d
00000030: 1f4a 58bd e9b6 abbd d663 78bd 9892 6abd
00000040: e441 663d 5112 34bc bf07 7dbd c3b5 c9bd
00000050: fc09 90bb dbcb 12bd 0fdf 70bd 9f54 833d
00000060: dc10 cc3c 7c9f c3bc a32a 0e3d 8a24 8b3c
00000070: 4f8a e9bb 5236 6bbc 4d12 833d faa8 a8bd
00000080: 796f 343d 8aaf a2bd e693 a2bd 93d0 f9bc
00000090: b791 f9bc cd1e 8fbd b243 8bbd 55f0 293d
000000a0: e9c5 d03c a366 763d 085c 5bbd 2d96 b6bd
000000b0: ee9a 3abc 3b9c 053d 3c5d b9bb 4626 5fbd
000000c0: e8bc 2cbd 3939 233d 8391 c7bc 5db8 b23d
000000d0: cab3 8dbc 5fd8 babd 8bfc 8dbd cb0c 663d
000000e0: 2fb2 b93d e4cf 50bd 30f1 113d a20f d3bc
000000f0: 4c3e b1bc 93ec 153d 3eb8 6fbd 20c6 4fbd
00000100: 3d74 0dbd 41ff a2bd c0df 68bd 1733 83bd
00000110: 0f33 bd3d b4c0 9fbd ac5e b93d 2810 b83d
00000120: 8c71 b7bd 9e6f 88bd 284d 063d 207c 233d
00000130: 9227 bd3d d965 a0bd fc7d 9cbd 3dce 3ebc
00000140: b0e1 62bd 91a2 0cbd dee2 53bd f577 8b3d
00000150: c826 1d3c b603 6d3d 8088 91bd 3183 55bd
00000160: 2f1f 033d 4292 a6bd 188b bb3d ee36 c2bd
00000170: 6fc4 8abd d12e 0dbd 4dc2 af3d 2b61 57ba
00000180: 3f74 1b3d 93d6 a03c b5f7 723d b96e 2f3d
00000190: ac27 833d 8af3 db39 2833 86bd c026 b53d
000001a0: 47c2 16bd 47b8 c03c b3f0 20bd a272 3ebd
000001b0: f4d0 a1bd 898b 7dba 829e 633d 9d0d afbd
000001c0: 1f0f a2bd c04d 09bb 74d2 aabb bb0c b3bd
000001d0: 62f4 07bb d572 c43d 8d70 aa3d 4095 6bbc
000001e0: 13de be3d d808 f1bc b914 a8bd d430 943c
000001f0: ff54 6c3d 7a90 27bd 2560 a7bd 8b11 03bd
00000200: a672 cc3d 90fe 833d 5253 7bbd a7ae 953c
00000210: 0491 c6bd 14cb 3cbc bc22 903d 105a 34bd
00000220: 0f18 7a3c 5a02 b4bd f9da b83d 3703 ae3c
00000230: d94c 9f3c a3cc c3bd 1fbd b33d 4250 be3d
00000240: c737 babd 4a69 a6bd 7c51 aabd 2126 74bd
00000250: 4548 8fbd 8a97 573c 48c5 ac3d fe5f d13c
00000260: 6d7a 8c3d 9e5f 183d a1ff 723d 294d c0bd
00000270: 4233 ef3c f6ea 2d3d a334 883d 9798 cc3d
00000280: c144 6cbd cefd a7bd a858 1c3c 58b3 3d3d
00000290: a08d d3bb b605 cb3d 4a15 94bd b3dc c7bd
000002a0: 5f30 2bbd 25b8 9f3d 6ee7 223c 9100 1dbd
000002b0: 51bc 95bc f63d d0bb a981 853c c81c 0dbd
000002c0: de34 803d a10c b83d 4bf6 cdbd 493f 95bd
000002d0: 79a5 ec3c 2e66 a5bd 1c60 c33d 27ff 413d
000002e0: 0683 aabd 9e02 b03d ead9 fc3c 0e4f bebd
000002f0: b218 cb3d d94d 87bd c486 043d ae9e 133c
00000300: 1a17 bebd c2bf 563c bf52 93bd edc1 68bd
00000310: d973 643d d7a3 913c 32d5 cebd 6c64 02bd
00000320: 6220 70bd a036 533d 8be1 91bd 694e b53d
00000330: dc60 68bd 0642 873d 5914 44bd 18d5 6dbd
00000340: 8957 d23d 7dc2 7cbd b4af c13d ed29 43bd
00000350: 6451 38bd 525b 8cbd a69b 87bd 2e40 be3d
00000360: d663 b9bd 2364 763c 1f31 423d b607 bfbd
00000370: 94e7 843d d5de 2cbd e3cf 1b3d cc1d ac3d
00000380: 3f3e 9abd 1c95 403d 4f0d 8e3b 8a13 69bc
00000390: 5541 d43c 9d91 653d fc70 c73d 9ea9 233d
000003a0: e1c1 e83c e321 97bd 98fc b13d 474a aebc
000003b0: da2a c4bc 1b78 043c fd6d 7d3d a64c cd3d
000003c0: 851c c9bd ed93 203d 4f11 38bd 2f9c 8bbd
000003d0: 9d18 9abc 24d8 8c3c 5ce2 9ebc 4c8b 0fbc
000003e0: 6556 52bd 8353 0e3d 5e40 de3c 2d9b 4bbd
000003f0: 6231 c23d 8069 cf3d c9d4 623d e8fe 09bd
-0.007473269 -0.096805096 -0.094740026 -0.036462404 -0.042430002 0.02360355 0.01362812 -0.011085532
0.02684134 0.013894476 0.08732592 0.034565356 -0.052805062 -0.08384497 -0.060642086 -0.05726871
0.056215182 -0.010990695 -0.061774965 -0.098491214 -0.0043957215 -0.035838943 -0.058806475 0.064126246
0.024910383 -0.023879759 0.03470863 0.016985197 -0.0071270834 -0.014356213 0.06399975 -0.08235355
0.04405162 -0.07943638 -0.07938366 -0.030494964 -0.03046499 -0.06988297 -0.06800021 0.041488964
0.025484996 0.060156476 -0.053554565 -0.089153625 -0.011389477 0.032619696 -0.0056568664 -0.05447986
-0.042172343 0.039849494 -0.024361378 0.08726571 -0.017297644 -0.09123301 -0.069329344 0.056164544
0.09067189 -0.05097951 0.035630405 -0.02576429 -0.02163615 0.036602568 -0.058525316 -0.050726056
-0.03453468 -0.07958842 -0.05685401 -0.06406229 0.09238254 -0.07800427 0.0905126 0.089874566
-0.08957204 -0.06661914 0.032788426 0.039913297 0.09236063 -0.07831926 -0.07641217 -0.011645851
-0.055391014 -0.034334723 -0.05173003 0.06809989 0.009591766 0.057864867 -0.071061134 -0.052127067
0.03201216 -0.08133365 0.091573894 -0.09483133 -0.06775748 -0.034468476 0.08581982 -0.0008216078
0.037952658 0.019633567 0.059318263 0.042830203 0.06404051 0.00041952386 -0.06552726 0.088452816
-0.03680637 0.02352537 -0.03929205 -0.04649604 -0.07901183 -0.00096719764 0.055571087 -0.085475184
-0.0791304 -0.0020950884 -0.0052130762 -0.087426625 -0.0020745029 0.09592215 0.083222486 -0.014378846
0.09319701 -0.029423162 -0.082070775 0.01808969 0.057698246 -0.040909268 -0.08172635 -0.031999152
0.09982805 0.06445038 -0.061358757 0.018271757 -0.09695628 -0.011523027 0.07037875 -0.044031203
0.015264525 -0.08789511 0.09026141 0.021241767 0.019445824 -0.09560516 0.08776306 0.09292652
-0.0909267 -0.08125551 -0.08316323 -0.059606675 -0.06996206 0.013158688 0.08436066 0.025558468
0.06859288 0.037200563 0.059325818 -0.09389717 0.029199246 0.042460404 0.06650665 0.09990042
-0.057682756 -0.08202706 0.009542622 0.046313614 -0.006456092 0.09913199 -0.07230623 -0.09758892
-0.041794177 0.07798795 0.009942872 -0.03833062 -0.018278273 -0.0063550426 0.016297178 -0.034451276
0.062600836 0.08986784 -0.10056742 -0.07287461 0.028887497 -0.0807613 0.09539816 0.047362473
-0.08325772 0.08594249 0.030865628 -0.09292422 0.0991682 -0.06606645 0.032355085 0.00901
-0.0928175 0.013107242 -0.07193517 -0.056825567 0.055774543 0.01777832 -0.100992575 -0.03183405
-0.058624633 0.051565766 -0.07123097 0.08852846 -0.056732997 0.0660439 -0.047870968 -0.05806455
0.10270602 -0.061708916 0.09457341 -0.047647405 -0.044999495 -0.068533555 -0.066214845 0.09289585
-0.09052245 0.015038523 0.047410127 -0.093276426 0.064894825 -0.042204697 0.038040053 0.08404121
-0.07531404 0.0470172 0.0043350826 -0.01422585 0.025910059 0.05604707 0.09738347 0.03995668
0.028412761 -0.0737951 0.086907566 -0.021275653 -0.023946214 0.008085276 0.06187247 0.10024385
-0.09819893 0.039203573 -0.04493838 -0.06816899 -0.018810565 0.017192908 -0.019395046 -0.008761238
-0.051351923 0.03474761 0.027130302 -0.049708534 0.09482075 0.101275444 0.05537871 -0.033690363

features.0.1.conv.bias f4 [32]
00000000: 4bc0 2cba 4ebd 4fba c6a2 f239 5cb4 423a
00000010: 80b6 323a 5b1d 35ba be90 0fba 7ca9 0dba
00000020: eed5 9ab9 52eb 493a aa7a d539 c2a7 043a
00000030: b7bd 3739 7e11 ef39 2987 9338 93b1 35ba
00000040: 21f2 bb39 6a98 49ba a14d 0e3a 7092 21ba
00000050: 62aa 203a f0fe 7638 453f 52ba 7187 0039
00000060: b276 5db9 dd92 a639 9944 49ba e7e7 42ba
00000070: 529b 013a 21f2 bbb9 2c37 01ba 5946 1f3a
-0.0006589933 -0.0007924632 0.00046279113 0.00074273883 0.0006817356 -0.00069089764 -0.00054765854 -0.0005403978
-0.0002953256 0.0007702607 0.00040717918 0.0005060398 0.00017522914 0.00045598665 7.034682e-05 -0.00069310627
0.0003584782 -0.0007690253 0.0005428438 -0.00061634835 0.00061289046 5.88884e-05 -0.0008020292 0.00012257487
-0.0002112042 0.0003177141 -0.00076777634 -0.0007435069 0.0004944104 -0.0003584782 -0.0004929181 0.0006075851

features.0.2.normalize.weight f4 [32]
00000000: 2ab4 f13e 0aa2 013f 90c5 3d3f 1768 1b3e
00000010: 0e9e 3d3f 63ad 7e3e 25d0 643e ce8f 873d
00000020: 48f6 cb3e b5e5 603f 7c43 6b3f 898f eb3d
00000030: 911f 7c3f 54f5 c33e c634 393f 4e18 3e3d
00000040: ee93 0a3f 3e25 6b3f e265 643f bfb1 643f
00000050: c368 293f d2c4 a63e 8f09 e43d 4a91 f53e
00000060: f437 3e3f 13d7 0c3e 82a1 eb3e 7d5f 3c3f
00000070: 3dd5 3a3e fe9e 873d f551 163f 1f22 7a3f
0.47207767 0.50637877 0.7412958 0.15176426 0.740693 0.2487083 0.22345026 0.066192254
0.39836335 0.87850505 0.9189985 0.115019865 0.98485667 0.38273108 0.7234615 0.046409898
0.5413197 0.918537 0.8921796 0.8933372 0.6617548 0.32572037 0.11134636 0.4796241
0.7430413 0.1375392 0.46021658 0.73583204 0.18245406 0.06622122 0.58718807 0.97708315

features.0.2.normalize.bias f4 [32]
00000000: 6712 833a 5e12 83ba 6b12 833a 6612 833a
00000010: 6612 83ba 6712 83ba 6912 833a 6612 83ba
00000020: 6b12 833a 6612 83ba 6812 833a 6b12 833a
00000030: 5b12 833a 6912 833a 6b12 83ba 6012 83ba
00000040: 6912 83ba 5912 83ba 6212 83ba 6812 833a
00000050: 6612 83ba 6912 833a 6612 83ba 6112 833a
00000060: 5f12 833a 6612 83ba 6c12 833a 4c12 833a
00000070: 6812 833a 6a12 83ba 6912 83ba 6712 833a
0.0009999991 -0.0009999981 0.0009999996 0.000999999 -0.000999999 -0.0009999991 0.0009999993 -0.000999999
0.0009999996 -0.000999999 0.0009999992 0.0009999996 0.0009999977 0.0009999993 -0.0009999996 -0.0009999983
-0.0009999993 -0.0009999975 -0.0009999985 0.0009999992 -0.000999999 0.0009999993 -0.000999999 0.0009999984
0.0009999982 -0.000999999 0.0009999997 0.000999996 0.0009999992 -0.0009999995 -0.0009999993 0.0009999991

features.0.2.normalize.running_mean f4 [32]
00000000: 345f bd3e 4801 7f3e a2d5 8fbe 23f7 db3d
00000010: a8cf f3bd 89cb 233f f384 b93e 48e3 643e
00000020: 072c e23d 9fd6 8a3d 7122 073f 8ba6 f83e
00000030: 7701 843e 24dc cabe 7544 213f 6006 453f
00000040: de04 dbbe 1a81 a53d db33 6f3e 163e 543e
00000050: 31e6 80bd b811 973e d150 0c3e 3726 e23d
00000060: 7065 99be 3174 e0bc 6a74 05be 714b 33bd
00000070: 4115 a93e 854d 32bf 9eda 97be abf7 483f
0.36986697 0.24902833 -0.28092676 0.10740497 -0.11904842 0.63982445 0.36234245 0.22352326
0.11043554 0.06779217 0.5278693 0.48564562 0.25782368 -0.3962108 0.6299508 0.7696285
-0.4277715 0.08081265 0.23359625 0.20726809 -0.062939055 0.29505706 0.13702704 0.11042445
-0.29960203 -0.027399154 -0.1303269 -0.04377312 0.33024028 -0.69649535 -0.2965898 0.7850291

features.0.2.normalize.running_var f4 [32]
00000000: ed42 573e 1ac5 853e cee0 4c3e b1d4 833e
00000010: 86c6 203e 7ed6 753e 70f0 1d3e c496 963e
00000020: 81b0 823e a656 583e 7f03 1f3e a5e3 5d3e
00000030: 10c2 663e 2238 a73e f9c2 813e f7f3 903e
00000040: 1ee8 563e 962a 3f3e 7cfe 673e e30c 713e
00000050: 7e0d 2a3e 4c0b ae3e 1601 4e3e d684 553e
00000060: 4ee0 3b3e b7ff 423e f184 693e 8112 633e
00000070: e3ca 923e 4e32 a73e f52e 863e e1eb 8c3e
0.21021624 0.2612694 0.20007631 0.25748208 0.1570073 0.24007604 0.15423751 0.294119
0.25525287 0.21126804 0.15528677 0.21668871 0.22534966 0.32660013 0.25344065 0.2831113
0.20986983 0.18668589 0.22655672 0.23540072 0.1660671 0.33992994 0.20117602 0.20851454
0.18347284 0.1904286 0.2280462 0.22175027 0.28670415 0.32655567 0.262077 0.2752371

features.0.2.conv.weight f4 [32, 32, 3, 3]
00000000: a1fe 97bd 268d 9c3d 699a 55bc 8f53 d03d
00000010: 0347 18bd 55bc 6d3c a6c9 c13d ee6c 9d3d
00000020: 4c55 b4bd 0c5e 9abd 12c4 c43d 2d6c d6ba
00000030: 5f55 7cbd b493 c0bd a293 1fbd 2af9 85bc
00000040: 9999 0bbd 6b5b a93d 5347 73bd 665a d0bd
00000050: 1ab1 783d d89e 9bbd ed5e bc3d 71d2 953d
00000060: 0942 cbba 14e2 b43d 6929 8c3d c381 9e3d
00000070: 70bf d13c 6a78 c9bd ab32 85bd 2ee1 aabd
00000080: 876f 883d 28a8 adbd 88f8 b9bd 824b 88bd
00000090: c7f5 a6bd cc4d b63d b214 e13c 28ab b03c
000000a0: aa3f a6bc f80a 37bd be8a 95bd 9521 63bd
000000b0: 1ff1 3c3d 8a20 98bd 467f e7bb 710f a03c
000000c0: 1931 67bd 6d40 09bd 71ee 9c3d 326c 87bc
000000d0: 220f 9d3b 8431 c4bc 8144 27bd 75db 6e3d
000000e0: dd39 e03c 89b3 41bd 1356 9fbd e093 cc3d
000000f0: 19ba 9ebd 6a6f 563d 8df5 82bd 30ae 21bd
00000100: 640f c53c 43d8 c63d 5773 3fbd 5ca7 00bd
00000110: 4cc3 513d 9601 f13c 1c89 9cbd fa47 0abd
00000120: 2498 50bd 0472 a2bc 92c9 3c3d e23f 8c3d
00000130: ac2a 0ebd 50ae 43bd 7160 223d adec a2ba
00000140: fc68 95bc 53d3 0b3d a6d3 403d 0a9a 9e3d
00000150: c4f9 80bd 3f61 af3d f164 ccbd 52db 473d
00000160: dac2 a83d 714e 9dbd c0b6 edba feb9 16bd
00000170: bea4 bb3d 922f 203d d5b0 b43d 04c4 aa3d
00000180: f3de 793d dace 063d bf61 81bd d310 8dbd
00000190: 83f8 a93d 6ade 723b 6389 9f3d 6ae1 21bd
000001a0: 653e 8a3d 0cab 0dbd e271 12bb 96ed 013d
000001b0: 97b4 003d 1dfa 923d 43c0 7abd 619d 943c
000001c0: 51f1 51bd c078 1fba 2c5a 89bc cc5e af3c
000001d0: 9414 a63c bbfd 93bd 9f57 c03d 2a99 66bd
000001e0: c0fd b7bd de6a 63bc 56e0 5ebd 63d8 3dbc
000001f0: 3fe5 40bc 9e36 803d 7703 ef3a 2de7 a8bd
00000200: 90e7 063d 86af 5ebd 1428 64bc 1804 5c3d
00000210: 3938 4e3d 2f0f d03c 8cda f6bc 2902 0c3d
00000220: 4076 9cbd 1501 e8bc bce6 05bd 3150 b73d
00000230: 381f c3bd 6c4c 303c 3df1 923d 92aa e53c
00000240: 823d 323d d8a9 6dbd a38c 66bd 1080 d13d
00000250: c29f bf3d ac54 403d 3226 ebbc 9732 79bd
00000260: 3e16 de3c 2a9d 713d 54db 0fbd b6de 913d
00000270: 4716 003d b5d0 993d df32 2b3d b39e 59bd
00000280: 0bf3 c33d 3610 903d e3c0 fcbc 3c99 bf3c
00000290: fc5f a73d 1313 84bc 9ffe 563d cc58 823b
000002a0: f9b7 bb3d 040d 3ebd 25da cb3d d5f9 1d3d
000002b0: 4594 56bd c53a cb3d 948f c43d 759e d13c
000002c0: 06a0 5f3d e8b2 113c f3ee 2b3d f1d3 26bd
000002d0: 924c 333d 08b3 cc3d 3370 263d 1b0f a63c
000002e0: 76bf 8f3d f2d8 403d f861 fc3c 5c7c 883c
000002f0: 8d77 25bd 4ea3 8ebd 5afd 03bd 0ca9 c0bd
00000300: 7639 603c a602 bfbd d846 713b 33d2 d3bc
00000310: e5b9 7b3d f736 a53b ae0a 3fbd 1822 39bd
00000320: 1565 e9bc e19b 863d 9837 55bd a72d 113d
00000330: c74d fbbc 31d3 b6bc 72c2 a63d 76d1 5ebd
00000340: ad87 9bbd 6082 1cbd ba93 59bd 936d 9bbb
00000350: f23b a1bc 4272 6d3d 90ac 05bd fd56 183d
00000360: 4dde 78bd f645 afbd dce2 813c 9bb7 a3bd
00000370: 8f05 63bc f213 c1bc 1977 a5bc 8d5f a03d
00000380: 4e1f 6e3d 04a4 8e3d f7dd e33b 5591 213d
00000390: 1096 61bd d7b0 6abd 8b00 3c3d 4acb cebd
000003a0: 3aee 0c3d 4941 f0bc e6f8 80bb 837f 2fbd
000003b0: 0b7b e03c 1a3a bd3d 25e6 3d3d f0df d0bc
000003c0: a893 aabd 0fe1 103c 104d b73c 84cf 053d
000003d0: 4410 06bc 07e6 c63d e54f afbd cc03 22bd
000003e0: 82f8 75bd 1b06 a33d 5630 fc3c 24b5 273d
000003f0: 11ba 873d 588d 243d ded8 713c 3ea5 c9bd
-0.074216135 0.076441094 -0.0130373025 0.101721875 -0.037177097 0.014510234 0.094622895 0.07686792
-0.088053316 -0.07537469 0.0960771 -0.0016359143 -0.061604854 -0.09403172 -0.038959153 -0.016354162
-0.03408203 0.0826939 -0.059394192 -0.10173492 0.060715772 -0.075986564 0.09197793 0.07315529
-0.0015507351 0.088321835 0.06843836 0.07739594 0.02560398 -0.0983742 -0.06503805 -0.08343731
0.06661897 -0.08479339 -0.09080607 -0.06655027 -0.08152347 0.08901557 0.027475689 0.021565989
-0.02029403 -0.044688195 -0.073018536 -0.05545195 0.04612839 -0.07428081 -0.0070647327 0.019538613
-0.056443308 -0.033508707 0.076626666 -0.016531084 0.0047930637 -0.023949392 -0.040836815 0.05831476
0.027371341 -0.04729036 -0.07780089 0.099891424 -0.07750339 0.052352346 -0.06394491 -0.03947276
0.02405519 0.097092174 -0.046740856 -0.031409606 0.05121164 0.029419702 -0.07643339 -0.03376005
-0.050926343 -0.019829758 0.04609067 0.06848122 -0.034708664 -0.04777366 0.039642755 -0.0012430154
-0.018238537 0.03413708 0.047076844 0.07744224 -0.06297639 0.0856347 -0.099801905 0.048793145
0.0824029 -0.07680977 -0.0018136129 -0.03679847 0.091622815 0.039107867 0.088227905 0.08338168
0.061003637 0.032912113 -0.06317472 -0.068879746 0.08299353 0.0037058839 0.07789876 -0.039521612
0.06750182 -0.03458695 -0.0022345711 0.03172072 0.031422224 0.071766116 -0.06121851 0.01814145
-0.051255528 -0.0006083362 -0.01676663 0.021407507 0.020273484 -0.072261296 0.093917124 -0.056298412
-0.08983946 -0.01388046 -0.054413162 -0.011587235 -0.0117734065 0.062604174 0.0018235286 -0.08247218
0.03293568 -0.05436661 -0.013925571 0.05371484 0.050346587 0.025397865 -0.030133508 0.034181748
-0.07639742 -0.028320828 -0.03269075 0.08950842 -0.09527439 0.010760408 0.07174919 0.028035436
0.04351569 -0.058023304 -0.056286465 0.10229504 0.09356643 0.04695575 -0.028704736 -0.06083926
0.027110215 0.058987774 -0.035121277 0.07122557 0.031271245 0.07510511 0.04179656 -0.053129863
0.09567841 0.07034342 -0.030853694 0.023388498 0.081726044 -0.016122377 0.05248892 0.0039778706
0.091659494 -0.04639913 0.09953717 0.038568337 -0.052387495 0.09923319 0.09597698 0.025588254
0.05459597 0.008892752 0.041975927 -0.040729467 0.043774195 0.09995085 0.040634345 0.020270875
0.0701894 0.047081895 0.030808434 0.016660862 -0.040397216 -0.06964742 -0.032224037 -0.09407243
0.013685575 -0.09326677 0.0036815908 -0.025857067 0.06145658 0.0050419527 -0.046641044 -0.04519853
-0.028490582 0.065727 -0.05205497 0.035443928 -0.030676736 -0.0223175 0.08142556 -0.054398976
-0.075942375 -0.038210273 -0.0531194 -0.004743287 -0.019681904 0.057970293 -0.03263527 0.037192333
-0.060758878 -0.08558266 0.015855245 -0.07994004 -0.013856306 -0.023569081 -0.020198392 0.07830725
0.058135323 0.06964877 0.0069539505 0.03944524 -0.05507475 -0.057297554 0.045898955 -0.10097368
0.034406878 -0.029328005 -0.003935921 -0.042846214 0.027402421 0.092395976 0.04636206 -0.025497407
-0.083289444 0.008842721 0.022375613 0.032668605 -0.008182589 0.09711843 -0.085601605 -0.039554402
-0.06005145 0.07960149 0.030784767 0.040944234 0.06627286 0.04017386 0.014761178 -0.098459706

features.0.2.conv.bias f4 [32]
00000000: eed5 9ab9 d277 31b9 6132 24ba fea8 3539
00000010: 61fd 6439 4a9f 3a38 194d 8e39 3ec4 b738
00000020: 4f61 6cb9 1da5 2439 6276 223a 8211 eeb8
00000030: a6cc a0b9 0f21 d139 c0ae dab8 8ca3 7037
00000040: a6cc a039 a20a 25ba c2a7 043a 62aa 203a
00000050: 8983 f339 6b05 9eb8 c669 0e39 aed8 df39
00000060: 4fcc 55b9 3b1e d6b7 61fd 64b9 bb51 d339
00000070: 97eb b0b9 21b6 66b8 8d83 91b9 d4f2 12b9
-0.0002953256 -0.00016924672 -0.00062636106 0.0001732446 0.00021838165 4.4494205e-05 0.00027141793 8.762673e-05
-0.00022542964 0.00015701768 0.000619745 -0.000113519854 -0.00030670053 0.00039888217 -0.000104276 1.43431935e-05
0.00030670053 -0.0006295835 0.0005060398 0.00061289046 0.00046446573 -7.535036e-05 0.00013581579 0.00042695313
-0.00020389374 -2.5524865e-05 -0.00021838165 0.0004030595 -0.00033744864 -5.5005894e-05 -0.00027754568 -0.00014014106

features.0.3.normalize.weight f4 [32]
00000000: 74b9 d73e 06ac d23d 83c7 7a3e 4050 443f
00000010: c92f e7b9 4caf e73e 89cb 6e3f f2b5 e03e
00000020: 127a 873e a6cf 9e3e 5cbc 303f 70b1 dc3e
00000030: d740 7f3f 6a92 c33e b360 553d d329 553e
00000040: 9ec9 263f 7de5 353f 5083 e33e b9ba 453f
00000050: 7be4 203f eec2 ca3e 7a95 753f 46f6 c43e
00000060: 0e9f 963d 5eb8 e23e 4e3c 4e3f b64d 0c3f
00000070: 20ed ba3e 2ac3 1e3f 4ba5 343e a053 a83e
0.42133677 0.10286717 0.2449017 0.7668495 -0.00044095356 0.45250928 0.9327932 0.43888813
0.2646032 0.31017798 0.69037414 0.43104124 0.9970831 0.38197643 0.052094173 0.20816736
0.65151393 0.71053296 0.4443612 0.7723804 0.62848634 0.39601845 0.9593121 0.38469142
0.07354556 0.44281286 0.8056077 0.5480608 0.36509037 0.62016547 0.1764118 0.328763

features.0.3.normalize.bias f4 [32]
00000000: 6712 83ba 6a12 83ba 6b12 83ba 4612 833a
00000010: 6b12 83ba 6b12 83ba 6b12 833a af11 833a
00000020: 5712 83ba 6a12 83ba 6d12 83ba 6c12 83ba
00000030: 6b12 83ba 1b12 833a 5312 83ba 6612 833a
00000040: 6e12 83ba 6b12 833a 6b12 83ba 6b12 83ba
00000050: 6812 833a 6912 83ba 6712 83ba 6012 83ba
00000060: 6a12 83ba 6212 833a 6a12 83ba 6412 833a
00000070: 5f12 833a 6412 833a 6912 83ba 6c12 83ba
-0.0009999991 -0.0009999995 -0.0009999996 0.0009999953 -0.0009999996 -0.0009999996 0.0009999996 0.0009999777
-0.0009999973 -0.0009999995 -0.0009999998 -0.0009999997 -0.0009999996 0.0009999903 -0.0009999968 0.000999999
-0.0009999999 0.0009999996 -0.0009999996 -0.0009999996 0.0009999992 -0.0009999993 -0.0009999991 -0.0009999983
-0.0009999995 0.0009999985 -0.0009999995 0.0009999988 0.0009999982 0.0009999988 -0.0009999993 -0.0009999997

features.0.3.normalize.running_mean f4 [32]
00000000: b97b 0c3d 3085 4abd 60d1 6d3e ec0c 243e
00000010: 29f7 9dbe 6a10 5f3f d2b1 893e 6912 b63c
00000020: 6b59 14bf 5c6c 28bf 9c10 39be 5e29 a73e
00000030: 76f8 86be ce9f 243e 88e6 09bd 400a f53e
00000040: 9fbc 19bd 25b2 993e 4c33 133f 3d38 f7be
00000050: a2d7 81bd fb44 553f e007 a53b b258 543b
00000060: 8ad8 773d 46e8 4c3d 90e7 053f 9086 8f3c
00000070: b967 6b3e 0bde 2f3f e716 483f 8aa9 053f
0.03429768 -0.049443424 0.23224401 0.16020554 -0.3085263 0.8713442 0.2689348 0.022225576
-0.5794894 -0.65790343 -0.18072742 0.32648748 -0.26361436 0.16076586 -0.033667117 0.47859383
-0.0375334 0.30018726 0.5750015 -0.48285094 -0.06339957 0.8330838 0.005036339 0.00324015
0.060509242 0.0500262 0.5230646 0.01752022 0.22988786 0.68698186 0.78159946 0.5221182

features.0.3.normalize.running_var f4 [32]
00000000: d5b2 4c3e e641 8d3e fe3a 733e bc4a 523e
00000010: 1e1c 493e a3f1 023f a2dc 793e c072 0d3e
00000020: cc4a 833e 1ba9 6e3e af14 783e 5a3b 673e
00000030: 5c8d 7a3e 1242 3a3e 7ff3 933e 6a6c 493e
00000040: 9222 653e 978c ab3e 2511 693e d2bc 673e
00000050: 58ce 653e 00ad 7d3e ba32 2f3e 3f2f 2f3e
00000060: 2cb8 7b3e 9352 813e fdd0 913e d410 453e
00000070: 5745 8f3e e8d2 af3e 23d4 643e f8bd 873e
0.19990094 0.2758934 0.23752972 0.20536321 0.19639632 0.5114996 0.24400571 0.13813305
0.25643003 0.23306696 0.2422664 0.22581235 0.24467987 0.18189266 0.2889671 0.19670263
0.22376469 0.335057 0.22760446 0.22630623 0.22441995 0.24773026 0.17109194 0.17107867
0.24581975 0.25258312 0.28479758 0.192447 0.2798259 0.34340596 0.22346549 0.26512122

features.0.3.conv.weight f4 [32, 32, 3, 3]
00000000: 4f6a 3ab9 72e9 a5bd 59c0 c2bd 37a8 0cbd
00000010: bb11 b0bd 57fb 04bd 6785 b0bd 22d2 7b3d
00000020: c557 693c 16cf c6bc efd2 463d d0c3 96bd
00000030: 9fb0 713d ec1b 49bc 4a3b acbd 4ef8 883d
00000040: 9c40 8bbd 27a8 92bd 84da acbd dc4c 2cbd
00000050: a5fc 0cbd 7b31 65bb 6fc5 cabc c9d5 a13d
00000060: d25e b53d 9ceb cabc 0782 c1bd 118e 553c
00000070: 88f8 c5bd fe60 193d 89ea ecbc 8cf8 8dbd
00000080: e1ad 823c 1995 ac3d 047c 053c 5da2 6bbd
00000090: aaf5 833d 2da5 ba39 8b05 2c3d 3258 a2bc
000000a0: 8a60 aa3d d9cc b93d 0f05 843b a4b4 f7bc
000000b0: edb1 ecbb 9f61 8a3d ce80 55bd 7c04 afbc
000000c0: 2fd4 9dbc 000b b0bd 637b 063d dc28 27bd
000000d0: 7a69 65bb 69c7 c4bd dd33 1b3d 54cd 9ebd
000000e0: 103c 453d 9331 cebd 4d92 a1bd d6f4 5ebc
000000f0: f08f c03d ecfd 11bd 8a0c b33c d9e5 39bd
00000100: 7add a5bd 1a99 a83d 518e 7cbd e13d a1bb
00000110: f5c8 b83d 8ba6 c53c 3a51 2dbd 2b5e 283c
00000120: da0a 133d c660 a0bc 3e0d 3b3d 4bad 31ba
00000130: ea89 bc3d 2812 28bd e4b2 d13d f028 873b
00000140: 6342 693c 95fe 90bb 03aa 6c3d e01a c5bd
00000150: 3606 9dbd f401 113d bcfb 4d3d 71d3 cdbd
00000160: 8d86 02bd af40 8d3d 48c4 af3d a7c2 ad3b
00000170: ffe4 1e3d 4141 4e3d 79e0 833d 4567 133d
00000180: d328 adbd 5385 79bc d013 b1bd 6482 8d3d
00000190: 9689 0b3d e143 21bd b1a7 b83d 3998 32bd
000001a0: e38a 93bd 092d a5bd 4655 16bd 24b2 cc3c
000001b0: 4ee5 c43d 8388 b83c 4ee6 56bd 31bd 913d
000001c0: ddb8 a23d e639 633d 7003 2fbd 4007 7f3d
000001d0: a8b4 ebbc 49e3 d4bc e60b e3ba 0ccb 53bd
000001e0: 3ab7 ccbd f84f 92bd 1b42 adbd 1985 7c3d
000001f0: 5386 2e3d ae47 cf3c c10d 7fbd 7d62 72bd
00000200: 878f 95bd 96bc 373d ba6f 6dbc 1a30 6c3d
00000210: a609 6b3d d456 8dbd b033 e73c cb4c b53d
00000220: 5f81 2e3c 243a 15bd be56 623d 9b86 c63d
00000230: 1d06 91bd 730c 353d b449 b6bc 0d9c a03c
00000240: 0652 963d aebf 8f3d 310e b8bd 605e 08bb
00000250: 0432 8b3d f9a7 c23d c820 5d3d aa4a cd3c
00000260: 642b 463c 6e3b c1bd be34 153d d058 70bd
00000270: 967d 813c 8b43 b83d 11f4 003d c6d9 febc
00000280: 0ba8 7cbb 54e4 a5bc c51b 843d aa53 87bc
00000290: 88c7 d13c bed2 1d3b 9d39 c33d 4959 07bd
000002a0: 21d1 82bd 93ef f1bc 6d97 023d 7551 c8bd
000002b0: 2488 9bbd 7458 a83c 8b7c 70bd ea4e 4fbd
000002c0: afcb f63c 19e4 8e3d 938e 543d 613a 9cbd
000002d0: f2f0 963d c462 73bd 5f8f c33d 3a13 af3d
000002e0: 72c2 40bc fe4e f13c 1c56 b03c b6e4 fabc
000002f0: fc26 f63b 223e 84bd e0a3 173d b596 323d
00000300: f0d4 27bd f6f2 36bd 78bc d5bc 70c6 86bd
00000310: 23de 8abd eef9 813d 0ab9 bbbc b670 4cbd
00000320: e18e bc3d ae1a 56bd 4a2b b43d bd38 b1bd
00000330: 42c1 3e3d ca8e 623d bc5b c43d a142 d2bd
00000340: 81d0 963d 9df2 bbbd ecde cabc 66cf a7bd
00000350: f477 1c3c 1fb1 8d3c 5757 d33c c229 943c
00000360: 42f1 173d e889 b1bc af63 843d f3f0 e83b
00000370: 9f05 97bd 22e6 cc3d b0e8 943d a8d5 6fbb
00000380: 5b3b 353d 6d18 13bd b13b af3d d83b abbd
00000390: 524c cbbd b963 39bd 59f7 aabd ad3a 743d
000003a0: fc4a ecbb 71ec 21bd 9ead 71bd 8324 98bd
000003b0: 7938 633b 5e1e cebd 1c26 afbd 4408 a73c
000003c0: 2be0 ec3b b86c 5b3d d1ff e93b 0db6 9fbd
000003d0: ef9c 7e3d 75ef 933d b15a f43c 267d 593c
000003e0: 0771 c43c 58f1 e03c 7413 40bd b554 25bd
000003f0: f3a8 bb3c 1d90 d03d 5ac1 5dbb 15fc 243c
-0.00017777945 -0.08101167 -0.09509344 -0.03434011 -0.08597132 -0.03246626 -0.086191945 0.061479695
0.014242117 -0.024268668 0.048541006 -0.07361567 0.05900633 -0.0122747235 -0.08409746 0.06687985
-0.06799433 -0.07160979 -0.08440116 -0.042065486 -0.034420628 -0.003497212 -0.024752347 0.079021044
0.08855976 -0.02477055 -0.09448629 0.01303436 -0.09666544 0.037446015 -0.028920429 -0.06932172
0.015952053 0.084268756 0.008147243 -0.05752789 0.06443341 0.0003559975 0.041997474 -0.019817445
0.083191946 0.09072275 0.0040289233 -0.030237503 -0.007223359 0.06756901 -0.05212479 -0.021364443
-0.019266216 -0.08595848 0.032832514 -0.04081045 -0.0035005496 -0.09608347 0.037891258 -0.07754007
0.048152983 -0.10068049 -0.07889233 -0.013608178 0.09402454 -0.03564255 0.021856565 -0.045385215
-0.08098884 0.08232327 -0.06165916 -0.0049207066 0.090227045 0.024127265 -0.04231379 0.010276358
0.03589902 -0.019577395 0.045666926 -0.0006777837 0.092059925 -0.04103294 0.10239199 0.004124753
0.014237019 -0.00442488 0.057779323 -0.096242666 -0.076672 0.035402253 0.0502889 -0.10050095
-0.0318666 0.06897103 0.085823596 0.0053027454 0.038792606 0.0503552 0.06439299 0.035987157
-0.08455052 -0.015229541 -0.08646357 0.06909636 0.03406676 -0.039371375 0.090163596 -0.043602202
-0.07204225 -0.080652304 -0.036702417 0.024987288 0.09614049 0.022526031 -0.05246573 0.071161635
0.07945416 0.055475138 -0.042727888 0.062262774 -0.028772667 -0.025987284 -0.0017322272 -0.051707312
-0.09995885 -0.07144159 -0.08459874 0.06165037 0.04260857 0.025302734 -0.062268976 -0.059175957
-0.07302766 0.044857584 -0.01449197 0.05766306 0.05738225 -0.06901327 0.028222889 0.08852538
0.010650962 -0.0364324 0.055258505 0.09693643 -0.07081244 0.044201326 -0.022251941 0.01960566
0.073398635 0.07018982 -0.08987082 -0.0020808205 0.06796649 0.095046945 0.05398634 0.025060017
0.012095306 -0.094351634 0.036427252 -0.05867845 0.015806954 0.08997258 0.03148276 -0.031109702
-0.003855231 -0.020250477 0.06450609 -0.016519386 0.02560784 0.002408191 0.09532473 -0.033044133
-0.063875444 -0.029533183 0.031882692 -0.09781162 -0.07594326 0.02054999 -0.058712523 -0.050612368
0.03012642 0.069771 0.051893782 -0.076283224 0.073701754 -0.059420362 0.0954883 0.08548589
-0.011765109 0.029456612 0.021525435 -0.030626636 0.0075119715 -0.064571634 0.037021518 0.043600757
-0.040974557 -0.0446653 -0.026090845 -0.06580818 -0.067806505 0.063464984 -0.022915382 -0.049912177
0.092069395 -0.052271537 0.08797319 -0.086534 0.046571024 0.055311956 0.095878094 -0.10266615
0.07363988 -0.09177134 -0.0247645 -0.08193855 0.009550083 0.017296372 0.025798483 0.018086318
0.037095316 -0.021672204 0.06464326 0.0071088015 -0.07374119 0.10004832 0.07270944 -0.0036595855
0.04424606 -0.035911966 0.08556307 -0.08361024 -0.09926666 -0.04526112 -0.08347959 0.05962627
-0.0072110873 -0.03953213 -0.059003465 -0.07428839 0.0034671111 -0.10064386 -0.08552191 0.020389684
0.0072288713 0.05357048 0.0071410914 -0.07798395 0.062161382 0.07223407 0.029828401 0.013274467
0.023979677 0.027458832 -0.046893552 -0.040363986 0.02290771 0.101837374 -0.003383717 0.010069867

features.0.3.conv.bias f4 [32]
00000000: fad4 09b9 aa76 f0b8 4a9f 3a38 b680 2f3a
00000010: a62b 43b5 a1c4 7ab9 abeb 88b8 194d 8eb9
00000020: c63c b439 34fd 4d39 be90 0f3a a6cc a0b9
00000030: d4f2 12b9 fea8 3539 55de beb7 1538 77b9
00000040: 7187 00b9 aed8 dfb9 bc96 b139 5708 4639
00000050: c968 ebb9 9cc8 dbb9 79e8 ce39 7582 f9b9
00000060: ecc9 50b8 21b6 66b8 bba7 e739 fea8 3539
00000070: 868a 0d38 a6cc a039 e4e2 80b9 868a 0db8
-0.00013144678 -0.00011466195 4.4494205e-05 0.00066948996 -7.270668e-07 -0.00023915108 -6.528882e-05 -0.00027141793
0.00034377555 0.00019644649 0.00054765854 -0.00030670053 -0.00014014106 0.0001732446 -2.2753296e-05 -0.00023576648
-0.00012257487 -0.00042695313 0.00033872377 0.00018885858 -0.00044900764 -0.000419204 0.00039464587 -0.0004759018
-4.977912e-05 -5.5005894e-05 0.00044184722 0.0001732446 3.374603e-05 0.00030670053 -0.0002458311 -3.374603e-05

classifier.weight f4 [5, 800]
00000000: 772b 2abd c63f d6bc c90d 92bd 3335 b43c
00000010: d6f6 29bd 9a1d 31bd c056 13bc 2ccc 813d
00000020: 6d32 00bd c13e 27bc 8b28 763d d263 b3bc
00000030: 5db6 8abd 16fe 93bd 1ff6 0e3c 48ed fa3b
00000040: 881b 4abc 7991 823c 44c2 4cbd 63cb 9939
00000050: b791 9c3c dd33 00bd 3812 0b3d 345f 803d
00000060: 33cd 8dbd ecf4 623c ecfe 2ebd 4982 a63c
00000070: b887 3ebd cdd2 14bc 9354 86bd 5305 7f3d
00000080: 4d21 9ebd d52b 99bd bbe4 a53d 7a73 9f3d
00000090: cc66 9e3d dc0c ae3d f557 9abd 6fed 7bbd
000000a0: bba4 7a3d 6592 72bd d62d b3bc 4dca 393d
000000b0: 906f 633c 52f5 a23d 66be 88bd 2f80 b13c
000000c0: e294 df3c 44b0 eebc d07a 85bd f532 96bd
000000d0: d87d 70bc 414a 28bd bd44 963c 00f4 f8bc
000000e0: f31a 4bbc 80dc 943d 38b3 543c ece2 e6bb
000000f0: 2622 423d 0b48 d4bc 6941 843d 533a 363c
00000100: 24db 10bd 34e7 9a3d dc26 953d 9d89 393d
00000110: 7b16 94bc 1c68 9f3d 0e79 48bc ca50 96bd
00000120: f8de 4b3d 52f9 723d 530c 863d 1ab8 b1bd
00000130: 046e 8ebd 6fdc a9bd 1bd2 e3bc c8f2 963c
00000140: 0785 a1bd 65c4 9f3d 6500 55bc 38b6 683d
00000150: ab74 9abc 8dfd 59bd 0cd5 623c 5f8d a63a
00000160: 37f0 de3c 2449 5f3b 1454 e1bb 1a3f a13d
00000170: 8900 533d ea29 233d 19c7 4bbc e052 3d3d
00000180: d902 ba3c f557 753d ddce 5f3d 8273 3f3d
00000190: 45b4 783d 956e 8b3c 8bd5 8ebc 9a28 fa3c
000001a0: e372 abbd 2e8c 713d b5f6 433d 7994 a0bc
000001b0: 5c3f e5bc 446f 33bd 0bff a8bd bf86 9abd
000001c0: 7c8c 1b3d 7005 adbd 8381 d1bc 92f6 f93c
000001d0: b7d9 ca3c ae22 9dbd b1d1 ad3c 2d37 45bd
000001e0: 1c61 853d 6421 9d3d a5fd 0b3d 94df c3bc
000001f0: eb1a 80bc 31a2 b7bc f747 8abd bcfa f33c
00000200: d710 8ebb cbfa 14bb a812 a03d 7855 003d
00000210: 7ccd 473d 3417 8c3d f60d b3bc c296 c439
00000220: a3ce fbbc 783d a9bd c95e 6e3d faf7 84bd
00000230: 5a5d ef3c cbe6 293d d364 e5bc c992 03bd
00000240: f3c1 343d bfe0 553d 5c4b 3dbb 6949 74bd
00000250: 9d9b b03c d969 563d 66d1 1dbc 3e2a 3a3b
00000260: 409e bdbb dd95 49bd 3de0 6bbd 8cd5 2ebd
00000270: c328 50bd cfc2 213d 7feb 3dbc 9913 8d3d
00000280: 2a59 82bd 90d9 f0bc 564f 383d 93b1 42ba
00000290: 5112 b5bc 26cb dc3b df87 ca3c dae2 b33b
000002a0: 040e 91bd 41a8 6f3d f8a1 3bbd 157c 8b3d
000002b0: fc7d a6bd fb12 f43b 6381 a7bd d716 39bb
000002c0: db36 8fbc 7687 613c 092b 853c 55a4 713c
000002d0: 4bcb 48bd d4f4 d5bb a300 a93d 58b9 7c3b
000002e0: 70a9 31bb 95c6 613d d95d 3dbd e341 2e3d
000002f0: fa86 9fbd a9e2 1f3d 905b 7dbd 8734 7ebd
00000300: a4e1 863d 37f1 923d acf8 0abd 770d fabc
00000310: ff65 97bd 43ab 183d 5626 a73c ad89 2d3d
00000320: 51db 02bd c913 073d 2dfe 59bd afd4 943d
00000330: e23c 173d c9b0 3fbd 5761 493d 4be8 a63c
00000340: e5c7 af3d fda5 41bc b91e 5b3d 7e7b a13d
00000350: 7b1e 28bc bf8c 93bd ae2b 893d 14c6 ac3d
00000360: 7959 503a ecfe 6abc ed9a f63b 9605 75bd
00000370: 9d5b 9abb 643f b03d 7b74 683d 365a 633c
00000380: d7be 44bd 7399 a63d e633 a93d 35f3 37bd
00000390: 180d 42bd 0398 833d 02b3 073d decd 1f3a
000003a0: 67ac db3c 5279 27bd 7fc0 603d 3ef7 a73c
000003b0: f432 62bd c212 4cbd 4010 49bd a5c1 5c3d
000003c0: 555d 5bbc 2584 9f3c 88f2 39bc cd2d 33bd
000003d0: 3799 b8bc 9cd1 99bc 62ed bcbb 865b 4ebd
000003e0: 5bd6 96bd a3d5 08bc de2d 8dbd c0ea e73c
000003f0: a4df 57bd 35b0 633c 9daa 83bd 9f8e 63bd
-0.041545358 -0.026153456 -0.071315356 0.021998024 -0.041495167 -0.04324112 -0.008992851 0.06337771
-0.03129809 -0.010207833 0.06009726 -0.021898184 -0.06773064 -0.072261974 0.008725672 0.0076576807
-0.0123356655 0.015938507 -0.049989954 0.0002933397 0.019112451 -0.03129946 0.03395292 0.062681586
-0.06923904 0.013852339 -0.04272358 0.020325797 -0.04651615 -0.009083462 -0.065591 0.062260937
-0.07721195 -0.074790634 0.081002675 0.07785697 0.07734451 0.084985465 -0.07536308 -0.06150573
0.061192255 -0.059221644 -0.021872442 0.045358945 0.013881579 0.079569474 -0.066769406 0.021667568
0.027292673 -0.029136784 -0.06517565 -0.07333938 -0.014678441 -0.04108644 0.018343324 -0.030389786
-0.012396562 0.072686195 0.012982182 -0.007046094 0.047395848 -0.025913259 0.064577885 0.011122304
-0.03536524 0.0756363 0.072828025 0.045297254 -0.018077126 0.07783529 -0.012235893 -0.07339628
0.049773186 0.0593198 0.065453194 -0.08677693 -0.069545776 -0.082939975 -0.027810147 0.018426314
-0.07886701 0.07801131 -0.013000582 0.056814402 -0.01885446 -0.05322032 0.01384474 0.0012706927
0.027214153 0.0034070695 -0.006876478 0.07873364 0.051514182 0.039834894 -0.012437605 0.046221614
0.022706436 0.059898335 0.05464064 0.046741016 0.060718793 0.017020503 -0.01743581 0.030536938
-0.08371522 0.058971576 0.0478427 -0.019602047 -0.027984314 -0.043807283 -0.082517706 -0.07545232
0.037975773 -0.08448303 -0.025574451 0.030513082 0.024762018 -0.0767263 0.021218153 -0.048148323
0.06512663 0.076723844 0.03417744 -0.023910321 -0.015637835 -0.022416206 -0.067520075 0.029782645
-0.0043355036 -0.0022732492 0.078160584 0.03133151 0.04877995 0.06840363 -0.021857243 0.00037496357
-0.03073818 -0.08263677 0.058195863 -0.0649261 0.029219318 0.041479867 -0.028002178 -0.032122407
0.044130277 0.052216288 -0.002888403 -0.059640322 0.021558577 0.052347038 -0.009632444 0.0028406526
-0.005786687 -0.049215186 -0.057586897 -0.042684123 -0.050820123 0.039492425 -0.011591791 0.068885036
-0.06364663 -0.029400617 0.044997536 -0.00074269733 -0.02210346 0.0067380844 0.024722992 0.0054896893
-0.070827514 0.05851007 -0.045808762 0.06810776 -0.08129498 0.0074485517 -0.081789754 -0.0028242373
-0.017482212 0.013765207 0.016255872 0.014748652 -0.049022 -0.00652943 0.082520746 0.0038562622
-0.002710905 0.055121023 -0.04623208 0.042543303 -0.077894166 0.03903452 -0.0618549 -0.062061813
0.06586006 0.07174914 -0.03392856 -0.030523999 -0.07392501 0.037272703 0.020404022 0.042367626
-0.031947438 0.032977853 -0.053220917 0.07267129 0.036923297 -0.046799455 0.049165096 0.020374438
0.08583049 -0.01181936 0.053496096 0.078848824 -0.010261173 -0.072045796 0.06697784 0.08436218
0.0007947903 -0.014343005 0.007525793 -0.05981978 -0.004710628 0.08605841 0.05675171 0.013876488
-0.04803356 0.08134737 0.08261852 -0.044909675 -0.04737577 0.06425478 0.0331297 0.0006096045
0.026815606 -0.040887184 0.05487108 0.020503636 -0.055224374 -0.049822576 -0.049087763 0.05389561
-0.013388951 0.019472191 -0.011349328 -0.04374485 -0.022533996 -0.018776707 -0.005765603 -0.050380252
-0.07365104 -0.008351716 -0.06893514 0.02831018 -0.052703515 0.0138969915 -0.06429026 -0.055555936

classifier.bias f4 [5]
00000000: 5f12 83ba 6b12 83ba 6c12 83ba 6d12 833a
00000010: 6912 833a
-0.0009999982 -0.0009999996 -0.0009999997 0.0009999998 0.0009999993
