trainResults/miniImagenet_SIGN-MAML_lr_0.0035_ways_5_shots_1_steps_5_seed_1_iter_60000.pt (torch, 143549 bytes, 26 tensors)

features.0.0.normalize.weight f4 [32]
0.54330236 0.46318677 0.668615 0.69533086 0.70650816 0.5972019 0.34208855 0.7058343
0.64969325 0.44637644 0.6279677 0.70867056 0.96016175 0.41745615 0.40862957 0.23940839
0.39547616 0.82450736 0.52697146 0.60043436 0.706675 0.40833184 0.5797349 0.6184032
0.50205463 0.7441173 1.160212 0.71583223 0.42800796 0.71273553 0.4978281 0.7654528
00000000: dd15 0b3f d126 ed3e 5a2a 2b3f 3401 323f
00000010: b8dd 343f 39e2 183f 3b26 af3e 8fb1 343f
00000020: 4c52 263f 748b e43e 7ec2 203f 6f6b 353f
00000030: 29cd 753f d0bc d53e e537 d13e 7927 753e
00000040: da7b ca3e ea12 533f 9ae7 063f 11b6 193f
00000050: a7e8 343f df10 d13e 8269 143f ac4f 1e3f
00000060: a786 003f 797e 3e3f d481 943f c840 373f
00000070: dc23 db3e d675 363f 53e3 fe3e b7f4 433f

features.0.0.normalize.bias f4 [32]
-0.0070384843 -0.5543066 -0.059873287 0.37676013 -0.05208595 1.0974265 0.13304192 0.19513004
-0.40326363 -0.40716922 -0.3769323 -0.37304944 -0.10195496 -0.25023878 -0.55167097 2.0433955
-0.22171341 0.39686167 -0.41480657 -0.35237658 -0.02148062 -0.0055070217 -0.23101196 0.010470472
-0.54648715 -0.15773846 0.0056364583 -0.09158347 -0.32444203 -0.5479004 -0.13809833 -0.6065569
00000000: 16a3 e6bb 0ae7 0dbf b13d 75bd b4e6 c03e
00000010: 1458 55bd 7978 8c3f 243c 083e 2bd0 473e
00000020: 9278 cebe 7c78 d0be 45fd c0be 5600 bfbe
00000030: c3cd d0bd 4c1f 80be 4f3a 0dbf fec6 0240
00000040: d708 63be 7431 cb3e 8761 d4be b46a b4be
00000050: 20f8 afbc 3f74 b4bb 668e 6cbe 588c 2b3c
00000060: 95e6 0bbf 3186 21be 0ab2 b83b 1d90 bbbd
00000070: 441d a6be 3343 0cbf a669 0dbe 5047 1bbf

features.0.0.normalize.running_mean f4 [32]
147.79207 14.286829 23.89157 -84.95622 11.841722 -19.263819 28.572788 -135.1333
-546.9407 -67.810196 -9.739399 -7.4796968 -15.596297 496.22733 -16.783949 1.9213494
291.835 -2.2687702 29.760326 -363.5438 34.282417 -64.306015 -274.4736 -34.503967
-183.02078 8.891773 -13.356636 -34.807198 -28.858843 65.65526 -27.759752 95.99836
00000000: c5ca 1343 da96 6441 ef21 bf41 96e9 a9c2
00000010: b177 3d41 4d1c 9ac1 1295 e441 2022 07c3
00000020: 34bc 08c4 d29e 87c2 94d4 1bc1 ad59 efc0
00000030: 6f8a 79c1 191d f843 8745 86c1 c7ee f53f
00000040: e1ea 9143 8833 11c0 2615 ee41 9bc5 b5c3
00000050: 3221 0942 ae9c 80c2 9f3c 89c3 1004 0ac2
00000060: 5205 37c3 b444 0e41 c8b4 55c1 923a 0bc2
00000070: e9de e6c1 7e4f 8342 f913 dec1 29ff bf42

features.0.0.normalize.running_var f4 [32]
15851.396 8761.466 7558.438 14904.7 4871.5273 11987.53 9642.338 13209.877
109214.16 22165.562 828.41125 14997.91 11810.935 107625.39 10737.604 14702.975
43364.215 21357.348 4075.94 50251.5 11124.463 24185.543 68116.92 20777.389
60047.188 1279.6725 17093.164 14720.016 5435.9316 7076.8896 6223.613 10221.711
00000000: 96ad 7746 dde5 0846 8133 ec45 cde2 6846
00000010: 383c 9845 1f4e 3b46 5aa9 1646 8267 4e46
00000020: 144f d547 202b ad46 521a 4f44 a457 6a46
00000030: bd8b 3846 b234 d247 6ac6 2746 e6bb 6546
00000040: 3764 2947 b2da a646 0abf 7e45 804b 4447
00000050: dad1 2d46 16f3 bc46 760a 8547 c752 a246
00000060: 308f 6a47 85f5 9f44 548a 8546 1000 6646
00000070: 74df a945 1e27 dd45 e77c c245 d8b6 1f46

features.0.0.conv.weight f4 [32, 3, 3, 3]
0.043633617 -0.08163787 -0.05784977 -0.07813931 -0.35990512 -0.10889012 -0.1988844 0.10861952
-0.16247189 0.29009953 0.0042075966 0.30019993 0.2953574 0.05042754 0.2889005 0.33905488
1.3355073 0.24104123 -0.3219549 -0.4958201 -0.41063556 -0.02967389 -0.21006274 -0.35009688
0.085829586 0.84410936 -0.112394534 0.15096033 0.45428306 0.16852945 0.015133373 -0.25487047
-0.31566602 -0.583416 -0.74531937 -0.7466496 0.43359515 0.4515995 0.2771892 0.31908554
0.32511473 0.13390246 0.16228953 0.030890334 -0.026717134 -0.18082772 -0.19366711 -0.2518601
0.10349604 0.034080867 0.14901282 0.019987905 0.04636502 0.11127027 0.4456852 0.075838104
-0.5899492 -0.04198201 -0.08623019 0.039990094 -0.39309463 -0.08901436 0.5547011 0.6892244
0.20340826 -0.7300957 -0.11036643 0.10671179 -0.0046209567 -0.4809352 -0.11210229 0.6527616
0.5945258 0.092640854 -0.7736674 -0.2804784 0.013579907 0.2008098 -0.3803465 -0.14450383
0.76561946 0.15010306 0.6194751 0.5937856 0.39617488 0.5047391 0.28601426 -0.046248488
0.052600954 -0.09927509 -0.34794927 -0.78489774 -0.663443 -0.4327587 -0.45967317 -0.36527234
-0.20329684 -0.21006699 -0.018179804 -0.20615496 -0.5049245 -0.29017258 -0.08652167 -0.0368446
0.1739247 0.2815033 0.37665725 0.36134812 -0.04155502 -0.019865634 -0.052103646 0.37829205
-0.63544774 0.4059837 -0.3235793 0.75663686 -0.2946216 0.055517685 -0.069037706 0.023579957
0.3414228 -0.6516575 0.2800378 -0.45613188 0.7758844 -0.43470818 0.04315105 -0.054416705
0.11371225 0.2551616 -0.6045623 0.4641827 -0.3263724 0.7357056 -0.53510034 -0.4672699
-0.7933032 0.07907661 -0.37927887 -0.61792433 -0.021797897 0.25640252 0.3056708 1.0504627
-0.25523928 -0.31334698 0.08955048 -0.26993605 -0.30938178 0.25011507 0.17197035 0.010738807
0.69104296 0.10527917 0.15004966 0.26995227 0.09901788 -0.0039297994 -0.030898122 -0.103705294
-0.21037732 0.18278812 -0.08449732 0.712503 -0.08500394 -0.7227561 0.2524171 -0.48556435
-0.23218007 0.65768856 -0.0029200094 -0.069690704 0.75198007 0.09002023 -0.6612816 -0.033653412
-0.67761177 0.08750767 0.6519616 -0.016997695 0.22606763 0.44205534 -0.01048407 -0.075183764
-0.019619558 -0.25366208 0.023646863 0.26324514 -0.25065294 -0.7138822 0.099943705 -0.53621215
0.36608806 1.010112 0.43852296 -0.40782622 0.13552275 -0.4001021 -0.6473759 0.0010129948
-0.856594 0.10705946 0.589341 0.13726826 -0.66982365 0.21268488 -0.57471967 0.19743517
0.18881314 0.091661155 -0.09092761 -0.04579625 -0.20341125 0.12005109 0.15761293 0.03216668
-0.67999315 -1.1961955 -1.1220775 -0.34589177 -0.46312502 -0.55553097 -0.18674928 -0.20022321
-0.42571253 -0.31300193 -0.40639952 -0.41006666 0.15057682 -0.034168225 -0.09516403 0.15035498
0.059851773 0.10455377 0.19153965 -0.11937044 -0.044978157 0.29864573 0.07987262 0.18640245
0.16873065 0.13916002 0.1641561 -0.35858414 -0.2717093 -0.54093385 -0.42767793 -0.5972059
-0.46926728 -0.17852655 -0.37245333 -0.50721735 0.1284254 0.28138462 0.113454424 0.17135945
00000000: 2ab9 323d c131 a7bd e1f3 6cbd 8107 a0bd
00000010: 7c45 b8be c901 dfbd 5aa8 4bbe e973 de3d
00000020: 085f 26be ed87 943e e1df 893b ceb3 993e
00000030: 1639 973e 1c8d 4e3d c4ea 933e 9a98 ad3e
00000040: e7f1 aa3f 83d3 763e 46d7 a4be 22dc fdbe
00000050: d33e d2be a816 f3bc b01a 57be e63f b3be
00000060: 6cc7 af3d 8d17 583f 1b2f e6bd 5895 1a3e
00000070: ca97 e83e fc92 2c3e f8f1 773c 627e 82be
00000080: fa9e a1be c05a 15bf 40cd 3ebf 6e24 3fbf
00000090: 2f00 de3e 0d38 e73e beeb 8d3e 2e5f a33e
000000a0: 7075 a63e ba1d 093e 3a2f 263e ba0d fd3c
000000b0: e4dd dabc e72a 39be ac50 46be cff3 80be
000000c0: bbf5 d33d 6198 0b3d d196 183e adbd a33c
000000d0: 3fe9 3d3d abe1 e33d da30 e43e 0251 9b3d
000000e0: e906 17bf 54f5 2bbd 7499 b0bd a7cc 233d
000000f0: b343 c9be 294d b6bd e400 0e3f 0371 303f
00000100: 414a 503e 8de7 3abf cb07 e2bd b68b da3d
00000110: 656b 97bb 233d f6be e395 e5bd 621b 273f
00000120: d832 183f 7dba bd3d 110f 46bf dd9a 8fbe
00000130: 427e 5e3c 16a1 4d3e c7bc c2be d0f8 13be
00000140: a3ff 433f 9eb4 193e ec95 1e3f 5502 183f
00000150: 6fd7 ca3e 9536 013f 7670 923e 0e6f 3dbd
00000160: 1974 573d bd50 cbbd 6826 b2be 0fef 48bf
00000170: 67d7 29bf 8c92 ddbe 485a ebbe fa04 bbbe
00000180: 0c2d 50be cd1b 57be d0ed 94bc 491a 53be
00000190: bb42 01bf 8091 94be 4632 b1bd 5dea 16bd
000001a0: 5119 323e 3321 903e 38d9 c03e 9f02 b93e
000001b0: 9935 2abd 41bd a2bc a26a 55bd 7faf c13e
000001c0: b4ac 22bf 18dd cf3e 30ac a5be f4b2 413f
000001d0: a4d8 96be 8366 633d a463 8dbd c12a c13c
000001e0: f8ce ae3e 07d3 26bf 1d61 8f3e 1e8a e9be
000001f0: 5ca0 463f 1292 debe 28bf 303d 0de4 5ebd
00000200: f8e1 e83d 8ba4 823e 98c4 1abf 5ba9 ed3e
00000210: 491a a7be 3457 3c3f 56fc 08bf 003e efbe
00000220: eb15 4bbf ebf2 a13d d730 c2be 4a30 1ebf
00000230: 8191 b2bc 3147 833e e280 9c3e 9075 863f
00000240: b9ae 82be 046f a0be 3e66 b73d 0f35 8abe
00000250: 4a67 9ebe 150f 803e ff18 303e d2f1 2f3c
00000260: 31e8 303f 9b9c d73d 9ea6 193e 2f37 8a3e
00000270: e3c9 ca3d 8cc5 80bb 0f1e fdbc 7163 d4bd
00000280: 276d 57be cf2c 3b3e ee0c adbd 9966 363f
00000290: 8c16 aebd 8b06 39bf d03c 813e e49b f8be
000002a0: 9dc0 6dbe 475e 283f a15d 3fbb 00ba 8ebd
000002b0: c481 403f 875c b83d c049 29bf 29d8 09bd
000002c0: f777 2dbf 3937 b33d f5e6 263f c03e 8bbc
000002d0: 467e 673e 1455 e23e 60c5 2bbc f2f9 99bd
000002e0: 32b9 a0bc ffdf 81be 11b7 c13c 11c8 863e
000002f0: 9555 80be fcc0 36bf 49af cc3d 3345 09bf
00000300: e56f bb3e 5a4b 813f 1586 e03e 99ce d0be
00000310: 7ac6 0a3e 2fda ccbe 6dba 25bf 77c6 843a
00000320: bf49 5bbf fd41 db3d 0ddf 163f 0d90 0c3e
00000330: 9079 2bbf 11ca 593e d420 13bf 722c 4a3e
00000340: 3b58 413e d8b8 bb3d 4138 babd d994 3bbd
00000350: 0a4b 50be 59dd f53d 4965 213e 35c1 033d
00000360: 0814 2ebf ef1c 99bf 3ca0 8fbf ba18 b1be
00000370: b91e edbe 4737 0ebf 343b 3fbe 5007 4dbe
00000380: fef6 d9be ca41 a0be 9913 d0be 42f4 d1be
00000390: cf30 1a3e fbf3 0bbd 5ce5 c2bd a8f6 193e
000003a0: 2227 753d 4920 d63d f822 443e 7d78 f4bd
000003b0: 043b 38bd 18e8 983e 4294 a33d 49e0 3e3e
000003c0: bac7 2c3e f77f 0e3e 8918 283e 5798 b7be
000003d0: 7b1d 8bbe a47a 0abf 9af8 dabe 7ce2 18bf
000003e0: cd43 f0be aacf 36be 34b2 bebe ffd8 01bf
000003f0: f381 033e a511 903e cb5a e83d da78 2f3e

features.0.0.conv.bias f4 [32]
-0.0013461998 0.00030379885 0.0022457028 -0.0028728584 -0.0032684805 -0.0024286213 -0.0015418718 0.0022435694
0.0009024973 -0.0004457054 -0.0019576817 -0.001115017 -0.0024128016 5.842526e-05 0.0008954738 -0.00051488524
0.00024301169 -0.00035113835 0.00010793152 -0.0014246985 0.0012571373 0.00106381 0.0019739543 -0.00048801643
0.00060941675 0.0005820499 0.00045071862 -0.0012238964 -0.00024427957 -0.0020197884 0.003103049 0.0017635358
00000000: f872 b0ba 3147 9f39 a42c 133b 9146 3cbb
00000010: 0134 56bb 8129 1fbb a218 caba d908 133b
00000020: 9295 6c3a 91ad e9b9 734c 00bb c325 92ba
00000030: 1820 1ebb a50d 7538 3bbe 6a3a 5df9 06ba
00000040: f4d0 7e39 fe18 b8b9 4b59 e238 f3bc baba
00000050: 87c6 a43a 8a6f 8b3a 755d 013b 75dc ffb9
00000060: 44c1 1f3a b594 183a 6e4e ec39 266b a0ba
00000070: a612 80b9 6d5e 04bb 865c 4b3b 7126 e73a

features.0.1.normalize.weight f4 [32]
0.4031399 0.90205 0.49575853 0.74909735 0.54064596 0.54414904 0.872718 0.449156
0.49328446 0.30083025 0.36214572 0.7154681 0.30876854 0.40619844 0.4167538 0.782604
0.46957466 0.9626862 0.4677977 0.65721625 0.61712515 0.27276316 0.59538424 0.37886542
0.6629165 0.7918475 0.897243 0.6791385 0.6178138 0.55553883 0.28063166 0.7613039
00000000: 5a68 ce3e c0ec 663f 10d4 fd3e d8c4 3f3f
00000010: c667 0a3f 5a4d 0b3f 726a 5f3f c6f7 e53e
00000020: c88f fc3e 6c06 9a3e 2a6b b93e eb28 373f
00000030: e916 9e3e 3ef9 cf3e c160 d53e bc58 483f
00000040: 176c f03e 9a72 763f 2e83 ef3e 533f 283f
00000050: eafb 1d3f 9da7 8b3e 1a6b 183f a6fa c13e
00000060: e5b4 293f 85b6 4a3f b8b1 653f 05dc 2d3f
00000070: 0c29 1e3f cb37 0e3f f4ae 8f3e d0e4 423f

features.0.1.normalize.bias f4 [32]
-0.3948532 -0.6354366 -1.1108631 -0.6537666 -0.2758301 -0.31033453 -0.8623738 -0.4375275
-0.57053906 -0.043247573 -0.37365302 -0.55754083 0.05867624 0.21853575 -0.23460473 -0.5225628
-0.36236086 -0.740854 -0.7293189 -0.45098194 -0.29698297 -0.22522321 -0.63410133 -0.11288345
-0.48286366 -0.48707423 -0.63803387 -0.58426595 -0.49949062 -0.20691215 -0.2535953 -0.34614685
00000000: 332a cabe f9ab 22bf c330 8ebf 3f5d 27bf
00000010: 9a39 8dbe 2be4 9ebe 88c4 5cbf 9b03 e0be
00000020: d90e 12bf 5e24 31bd 734f bfbe ffba 0ebf
00000030: 7f56 703d d6c7 5f3e 393c 70be adc6 05bf
00000040: 5d87 b9be 9ca8 3dbf a5b4 3abf 1be7 e6be
00000050: 270e 98be eaa0 66be 7754 22bf 702f e7bd
00000060: e839 f7be cb61 f9be 3056 23bf 7492 15bf
00000070: 3cbd ffbe c7e0 53be 3ed7 81be 293a b1be

features.0.1.normalize.running_mean f4 [32]
-1.9953227 -15.805649 -0.24118021 -2.9042764 -7.2841134 -0.002188912 -7.235218 0.24473205
0.21053694 3.9514205 5.652859 -7.7737274 -6.942211 -0.012342429 -13.573866 -8.76772
-8.080009 1.2753155 -0.5388059 -12.6238365 -12.659864 -2.6845684 -2.9140475 -4.533226
-0.3071106 -12.856646 0.53689307 -8.864049 -2.9123552 -2.0706956 -3.425214 -16.86804
00000000: bc66 ffbf f0e3 7cc1 f2f7 76be aadf 39c0
00000010: 7517 e9c0 d973 0fbb e886 e7c0 0a9b 7a3e
00000020: ff96 573e 13e4 7c40 39e4 b440 60c2 f8c0
00000030: 9826 dec0 e637 4abc 8e2e 59c1 9548 0cc1
00000040: b847 01c1 8a3d a33f 2fef 09bf 3cfb 49c1
00000050: ce8e 4ac1 f8cf 2bc0 c17f 3ac0 3010 91c0
00000060: 9a3d 9dbe d2b4 4dc1 d371 093f 25d3 0dc1
00000070: 0764 3ac0 4786 04c0 b536 5bc0 bff1 86c1

features.0.1.normalize.running_var f4 [32]
5.5139165 17.092937 6.9756274 10.087578 30.551613 10.492018 15.856155 13.117281
11.385128 13.630091 15.240283 22.602411 34.01246 38.136703 26.905714 13.802706
23.934628 17.65057 4.9406595 28.60291 21.24228 14.474046 12.533929 36.066696
25.330183 33.440975 23.488155 25.896091 20.877897 20.563948 15.265729 80.24391
00000000: 0172 b040 56be 8841 5738 df40 b866 2141
00000010: b469 f441 4edf 2741 d0b2 7d41 62e0 5141
00000020: 7c29 3641 da14 5a41 33d8 7341 bdd1 b441
00000030: c20c 0842 fc8b 1842 e73e d741 e2d7 5c41
00000040: 1e7a bf41 5e34 8d41 e219 9e40 c2d2 e441
00000050: 30f0 a941 b195 6741 f98a 4841 4c44 1042
00000060: 37a4 ca41 8fc3 0542 bee7 bb41 322b cf41
00000070: ef05 a741 f782 a441 6d40 7441 e27c a042

features.0.1.conv.weight f4 [32, 32, 3, 3]
0.24402572 0.15899938 0.12923498 -0.02665928 -0.4386639 -0.3269652 0.13359131 -0.18946035
-0.15184394 0.3457561 0.016485779 0.0020982975 0.09081396 -0.32435313 -0.1602498 0.5065791
0.69851774 0.6419423 0.033164933 0.18988797 0.091325335 -0.046158236 -0.164505 -0.03967966
-0.012268006 -0.12168512 -0.010101821 -0.58451545 -0.40224198 -0.38428354 -0.22405697 0.28399986
0.44557333 -0.302808 0.400044 0.46897286 0.045032542 0.010290118 0.06229616 0.02758346
0.10664898 0.09458854 -0.084515005 0.060896046 0.014992869 0.09835816 0.2263572 0.085025795
-0.049794324 0.21073347 -0.16565384 0.045686014 -0.10599854 -0.30036902 0.13436307 0.00894481
0.05675428 0.044992037 0.009655038 -0.0317736 0.048553534 -0.028305134 0.07151789 -0.22094205
-0.2111846 -0.056518875 -0.12832679 -0.032509208 0.15806033 -0.17186579 -0.08019826 0.006060713
-0.117976904 -0.101324886 0.093914784 0.08534576 -0.15210198 -0.22047089 0.008223995 -0.25921556
-0.30019644 -0.1790937 -0.29681876 -0.061229546 -0.04970008 -0.15561542 -0.057074964 0.1711033
0.35217828 0.3912084 -0.3423431 -0.45928296 -0.26791093 -0.16823053 0.5671401 0.27805942
0.3056343 1.2894727 0.8785271 0.10670277 0.27510723 0.34271094 -0.15914166 -0.14227389
-0.13142774 -0.09985971 -0.34889194 -0.57312065 0.08194539 0.00089724566 -0.034081135 0.013045202
-0.07564742 -0.10430249 0.033668548 -0.12589069 -0.043482844 -0.18176372 -0.008264941 -0.113705434
-0.0023055219 0.061434712 0.013920811 -0.118240796 -0.006436597 -0.08708219 -0.9704593 -0.6445093
-0.281636 -0.6352309 -0.5524495 -0.33274156 -0.65632373 -0.2064582 -0.21001895 -0.36921918
-0.2066066 -0.48611856 -0.18369482 0.1091107 -0.26153862 -0.13264656 0.37719846 0.17432664
-0.36121655 -0.34330207 -0.2479764 -0.34338564 -0.255006 -0.07167354 -0.085515544 -0.07334128
0.06037442 0.015905214 0.09869537 -0.037344508 0.12030218 0.22298571 0.18141957 0.13487515
0.1290547 0.029078467 -0.0800887 -0.2116209 -0.2991292 -0.18230273 -0.33425498 -0.34969312
-0.055083174 -0.10788353 -0.2105496 -0.2764014 -0.17362815 -0.11296066 -0.048538048 0.105070904
0.18937418 0.10762342 0.046906706 0.08647477 0.14132845 0.11805353 0.09654218 -0.014535527
-0.05161293 0.026959585 -0.02339841 -0.12646794 -0.055605076 -0.39203754 -0.48193088 -0.45798352
-0.24321406 -0.43787155 -0.46190068 0.10223922 0.111517236 0.14409435 -0.48413998 -0.37092316
-0.18476129 -0.46226135 -0.49111828 -0.19808783 -0.5090786 -0.3697437 -0.4701864 0.08403324
0.007481876 0.015093936 0.035407703 -0.22165334 -0.03813733 -0.027670205 -0.14314811 0.1741487
-0.689063 -0.591929 -0.50432295 -0.59703285 -0.337501 -0.39479095 -0.27117914 -0.03709737
-0.17091404 0.0063548093 -0.2447315 0.094065286 -0.013813955 0.00855233 0.6775602 -0.13552672
-0.033604544 0.70877486 0.1979696 0.18512079 0.10242082 0.08315508 0.16617152 0.027276905
0.1251931 0.14293359 0.040891282 0.061274126 0.065087564 0.0028610611 0.18048552 0.24672134
-0.07978601 0.3276264 0.27183324 -0.039104946 -0.7465489 -0.21187289 -0.09206081 -0.2683457
00000000: e1e1 793e bcd0 223e 2d56 043e 9064 dabc
00000010: 8e98 e0be fc67 a7be 29cc 083e e501 42be
00000020: fa7c 1bbe f206 b13e 2f0d 873c 9783 093b
00000030: abfc b93d 9d11 a6be 8618 24be 2baf 013f
00000040: 0fd2 323f 5556 243f f4d7 073d fe71 423e
00000050: c708 bb3d 6b10 3dbd 0074 28be 2487 22bd
00000060: bfff 48bc 0c36 f9bd 1c82 25bc cea2 15bf
00000070: a9f2 cdbe d0c0 c4be 316f 65be 6e68 913e
00000080: 3022 e43e a609 9bbe 91d2 cc3e 361d f03e
00000090: 0b74 383d e297 283c 422a 7f3d b5f6 e13c
000000a0: c86a da3d a3b7 c13d 3416 adbd 226e 793d
000000b0: a7a4 753c 0170 c93d 2fca 673e 0122 ae3d
000000c0: 22f5 4bbd 84ca 573e 29a1 29be 4221 3b3d
000000d0: c315 d9bd f8c9 99be 7996 093e 418d 123c
000000e0: 2d77 683d 9249 383d 2a30 1e3c 0925 02bd
000000f0: 12e0 463d 2be0 e7bc f977 923d a23e 62be
00000100: c740 58be 5680 67bd 1968 03be 6028 05bd
00000110: 91da 213e 96fd 2fbe fc3e a4bd f298 c63b
00000120: e09d f1bd 6c83 cfbd 6556 c03d c2c9 ae3d
00000130: 9fc0 1bbe 1fc3 61be efbd 063c e7b7 84be
00000140: 59b3 99be 5764 37be a1f8 97be d5cb 7abd
00000150: 5092 4bbd a659 1fbe 70c7 69bd b435 2f3e
00000160: b650 b43e 784c c83e 9847 afbe 2327 ebbe
00000170: 9f2b 89be a044 2cbe 1830 113f ce5d 8e3e
00000180: 197c 9c3e 710d a53f 27e7 603f fb86 da3d
00000190: dbda 8c3e cf77 af3e 08f6 22be 3fb0 11be
000001a0: fe94 06be 3f83 ccbd f7a1 b2be 09b8 12bf
000001b0: fcd2 a73d 2335 6b3a a998 0bbd 8bbb 553c
000001c0: 09ed 9abd 8b9c d5bd 08e8 093d 7de9 00be
000001d0: 111b 32bd 4520 3abe ad69 07bc 65de e8bd
000001e0: 3d18 17bb f7a2 7b3d 1d14 643c 3b28 f2bd
000001f0: 17ea d2bb 2658 b2bd 0570 78bf 90fe 24bf
00000200: 9832 90be 7e9e 22bf 556d 0dbf 1a5d aabe
00000210: d504 28bf c769 53be 350f 57be 4c0a bdbe
00000220: ae90 53be 88e4 f8be 7f1a 3cbe 6e75 df3d
00000230: 64e8 85be 80d4 07be 2820 c13e af82 323e
00000240: 60f1 b8be 4ac5 afbe 87ed 7dbe 3ed0 afbe
00000250: 2590 82be 94c9 92bd c622 afbd f433 96bd
00000260: 2b4b 773d a74b 823c cc20 ca3d 8ef6 18bd
00000270: fd60 f63d 5e56 643e 0dc6 393e b61c 0a3e
00000280: ea26 043e f735 ee3c 8b05 a4bd 26b3 58be
00000290: 7627 99be 91ad 3abe 7823 abbe fa0a b3be
000002a0: e59e 61bd 0af2 dcbd 509a 57be 7c84 8dbe
000002b0: 94cb 31be eb57 e7bd d5cf 46bd 6a2f d73d
000002c0: 4eeb 413e ab69 dc3d 3f21 403d af19 b13d
000002d0: 68b8 103e 0dc6 f13d e8b7 c53d 6b26 6ebc
000002e0: 1468 53bd 59da dc3c 06ae bfbc d080 01be
000002f0: 26c2 63bd 25b9 c8be a5bf f6be d17c eabe
00000300: 1b0d 79be b330 e0be 3f7e ecbe cc62 d13d
00000310: 2663 e43d 788d 133e 32e1 f7be a4e9 bdbe
00000320: 1032 3dbe 85ad ecbe db73 fbbe 89d7 4abe
00000330: fa52 02bf 0c4f bdbe 46bc f0be 9f19 ac3d
00000340: 862a f53b 8e4c 773c ab07 113d 18f9 62be
00000350: e435 1cbd a0ac e2bc 6b95 12be 0954 323e
00000360: 6f66 30bf a988 17bf 4f1b 01bf 25d7 18bf
00000370: eecc acbe 0a22 cabe fed7 8abe 69f3 17bd
00000380: 1704 2fbe 013c d03b e59a 7abe 4da5 c03d
00000390: ed53 62bc 121f 0c3c 9674 2d3f 84c7 0abe
000003a0: eba4 09bd 4572 353f 8bb8 4a3e 4e90 3d3e
000003b0: 02c2 d13d 364d aa3d de28 2a3e d173 df3c
000003c0: 9f32 003e 2f5d 123e 9e7d 273d 94fa 7a3d
000003d0: a14c 853d a480 3b3b 32d1 383e 85a4 7c3e
000003e0: d966 a3bd a6be a73e ba2d 8b3e 822c 20bd
000003f0: d41d 3fbf 35f5 58be 618a bcbd 9c64 89be

features.0.1.conv.bias f4 [32]
0.0028571533 -0.016616536 0.031237813 -0.031131182 0.044561207 0.035343457 -0.0031742647 -0.004175835
0.019687032 -0.013185257 0.001773355 0.048441105 0.012673565 -0.01640023 0.028201321 -0.024349745
-0.0058019217 -0.03343567 -0.018933592 0.00949373 -0.013394922 0.012202443 -0.048596263 0.020542707
-0.016682602 0.038377397 0.036023702 0.03125142 0.019831613 0.0144738825 0.00013352635 0.012657528
00000000: 143f 3b3b 671f 88bc 71e6 ff3c d206 ffbc
00000010: d085 363d 4dc4 103d 5307 50bb 71d5 88bb
00000020: b346 a13c fa06 58bc eb6f e83a 2e6a 463d
00000030: c9a4 4f3c c659 86bc 7506 e73c 1e79 c7bc
00000040: 0c1e bebb d7f3 08bd 9f1a 9bbc 978b 1b3c
00000050: 6076 5bbc c1ec 473c e00c 47bd 2e49 a83c
00000060: f4a9 88bc 9e31 1d3d 978d 133d 7d01 003d
00000070: e875 a23c dd23 6d3c 3503 0c39 8561 4f3c

features.0.2.normalize.weight f4 [32]
0.27176186 1.8761836 0.6547504 0.51708364 0.5061323 0.6978234 0.19176881 0.13076548
0.71752423 0.48664808 0.5926641 0.2994006 0.778977 0.2868208 0.51587313 0.14114124
0.9000991 0.6913007 0.9796191 0.7885969 0.5608537 0.19591528 0.38605016 0.5534082
0.7091599 0.35024923 0.8428989 1.2996875 0.38282433 0.29467222 0.6369171 0.77703345
00000000: 5f24 8b3e c926 f03f b99d 273f 985f 043f
00000010: e391 013f 8ea4 323f 0b5f 443e 63e7 053e
00000020: abaf 373f f029 f93e d6b8 173f 094b 993e
00000030: 096b 473f 2dda 923e 4310 043f 5487 103e
00000040: e56c 663f 15f9 303f 51c8 7a3f 7de1 493f
00000050: 1c94 0f3f 049e 483e 5ea8 c53e 29ac 0d3f
00000060: 818b 353f de53 b33e 39c8 573f 295c a63f
00000070: 8d01 c43e 47df 963e 000d 233f aaeb 463f

features.0.2.normalize.bias f4 [32]
0.13787015 -0.35854644 0.24597177 0.3647489 -0.14289159 0.09416492 0.1485615 -0.034791198
0.16012786 -0.14775318 -0.10020275 -0.32530364 -0.06031155 0.13890491 0.06406001 0.097277835
0.3402706 -0.016542124 -0.319924 -0.011758483 -0.092404954 -0.0017628112 0.4123336 0.08497663
-0.029300984 0.4669894 0.0136282155 -0.57902193 0.43390092 0.13071947 0.33330372 -0.09098501
00000000: d52d 0d3e 6693 b7be 06e0 7b3e 5ec0 ba3e
00000010: 2c52 12be 8ad9 c03d 8120 183e 3781 0ebd
00000020: 8ff8 233e 9c4c 17be 1937 cdbd 338e a6be
00000030: 3e09 77bd 173d 0e3e e531 833d 9a39 c73d
00000040: f337 ae3e 5983 87bc 14cd a3be a7a6 40bc
00000050: cf3e bdbd 210e e7ba 641d d33e 3a08 ae3d
00000060: 9e08 f0bc 3c19 ef3e e148 5f3c c83a 14bf
00000070: 4328 de3e 53db 053e c9a6 aa3e 5956 babd

features.0.2.normalize.running_mean f4 [32]
0.5287111 -0.8021235 -1.0596479 -0.31178668 -2.8424852 -1.2163491 -0.9617884 -0.12661439
-0.29195368 -3.106985 1.759499 -1.8878318 -2.3003116 0.2588743 -0.010664628 -0.9457887
-1.9031752 -1.1551617 -0.8746797 -1.3290892 -1.649083 0.49760967 -1.3320309 -1.7011417
-2.2721634 -1.2376649 -0.82127833 -1.493687 -1.2670412 0.09375241 1.4668256 -1.874467
00000000: 9c59 073f f757 4dbf 8ba2 87bf 81a2 9fbe
00000010: 47eb 35c0 54b1 9bbf c437 76bf 34a7 01be
00000020: f47a 95be d8d8 46c0 4337 e13f 79a4 f1bf
00000030: 4e38 13c0 2c8b 843e b1ba 2ebc 351f 72bf
00000040: 3f9b f3bf 57dc 93bf 02eb 5fbf 981f aabf
00000050: 2715 d3bf b2c6 fe3e fd7f aabf 03bf d9bf
00000060: 206b 11c0 ce6b 9ebf 4c3f 52bf 2331 bfbf
00000070: 682e a2bf 4301 c03d f1c0 bb3f 89ee efbf

features.0.2.normalize.running_var f4 [32]
1.0779396 2.4029803 2.5249476 1.3327359 4.958119 1.7919257 1.4811546 0.74935013
4.4500422 5.412283 7.4546633 2.5651066 2.7488177 0.84586334 1.0210288 1.6009692
1.8480886 3.3419151 2.5431578 2.3122158 2.738812 1.1451236 2.5988603 3.0615022
3.1707711 3.9937973 2.9162498 3.3445222 1.6390766 1.8137667 3.0220265 3.947277
00000000: edf9 893f 6eca 1940 be98 2140 1797 aa3f
00000010: e9a8 9e40 d25d e53f 7996 bd3f 69d5 3f3f
00000020: bf66 8e40 6c31 ad40 9a8c ee40 b52a 2440
00000030: a1ec 2f40 808a 583f 12b1 823f 8fec cc3f
00000040: 2b8e ec3f f0e1 5540 19c3 2240 58fb 1340
00000050: b248 2f40 6993 923f ba53 2640 a7ef 4340
00000060: eaed 4a40 609a 7f40 d6a3 3a40 a70c 5640
00000070: 43cd d13f 8229 e83f e268 4140 30a0 7c40

features.0.2.conv.weight f4 [32, 32, 3, 3]
0.029760178 0.1561953 -0.08868062 0.25167057 0.09853222 0.00617823 0.24139184 0.24448852
-0.05393671 -0.28636363 0.09716603 -0.11269435 -0.2330082 -0.13696356 -0.20845819 -0.2909211
-0.043442648 -0.048227772 -0.13023075 -0.044278927 0.22927402 -0.2171693 0.13413958 0.21546379
-0.12347252 0.10270039 0.12962492 0.1905936 0.30472398 0.09120415 -0.17320335 -0.15034984
-0.05173291 -0.27108744 -0.16273417 -0.16905524 0.19115222 0.18904553 0.15173382 0.10673367
-0.02044476 -0.06426016 0.05468093 -0.04085571 0.0591369 0.068893276 0.14330885 0.069051184
0.1071419 0.08012306 0.016952375 0.0005564226 0.11524217 0.085600175 0.21739028 0.20500585
0.16555296 0.029948816 0.11543651 0.18380445 -0.031238671 0.04708195 0.07163152 -0.069273375
-0.16516212 -0.037751693 -0.043411504 -0.16477117 -0.021089468 -0.047571152 -0.03815481 0.007868108
-0.034949787 0.15352616 0.060360663 0.058762223 0.21395071 0.07855444 -0.055529237 0.21767
0.11010872 0.044611864 0.068989 0.09430556 -0.11088177 0.044517536 -0.0254059 0.0083137965
0.030595453 -0.078171715 -0.124400504 -0.27315024 -0.056370154 -0.118589304 -0.10868583 -0.09059142
-0.021457361 -0.13939297 -0.09024211 0.12729684 0.0029648684 0.056971513 0.17437086 0.107949786
0.12719291 0.07742891 -0.0018612567 0.13671628 0.18492493 0.070565335 -0.07689328 0.26117355
0.004882655 0.0680382 0.3138673 0.27088404 0.21256511 -0.07661884 0.12798621 0.07859233
0.022618689 -0.10966853 0.163364 0.07693882 0.022706997 0.12871851 -8.488201e-05 -0.20831199
-0.21810947 -0.28015146 -0.19696826 -0.1446424 -0.20682155 -0.3410173 -0.25686732 0.0039725597
0.015699249 -0.23545572 -0.011682326 0.055968788 -0.18322282 -0.10306981 0.040465843 -0.07059799
0.17052293 -0.015225184 -0.044943195 0.22387236 0.06679671 0.052026063 0.033122487 -0.03454558
-0.056328297 0.108893044 -0.15703669 -0.021066839 0.17054184 0.0673692 0.033056997 0.15556706
0.07702023 0.12183713 -0.047156695 0.19346042 0.15886094 -0.07229223 0.0696453 -0.02524646
-0.11167434 -0.12409434 0.031389575 0.1490292 0.040472936 0.12861824 0.19378863 0.118419334
0.116615444 0.088164695 0.09831867 0.0717309 -0.052919675 0.0004463228 -0.079248846 -0.17865847
-0.082623415 -0.12064996 -0.13491327 -0.08534908 0.013792277 -0.13065854 -0.07111313 -0.20313664
0.01698563 -0.15511468 -0.02080655 -0.20121053 0.02211218 -0.004992333 -0.033666663 -0.27406293
-0.14529812 0.020042678 -0.017408775 0.0014128878 -0.14530644 -0.034185316 0.015373227 0.09466441
-0.08525944 -0.0004852067 -0.019308962 -0.2787467 -0.19353081 0.16112183 -0.10894261 0.15328945
0.1271545 0.06614998 0.10274835 0.112021655 0.08954406 0.006417675 0.085614406 0.16445999
0.16967954 0.2200844 0.225468 0.26589122 0.018210972 0.022320941 0.10111135 0.0716541
0.28354815 0.26999578 0.10965582 0.20475373 0.111558594 0.05832025 -0.09435483 -0.13157919
-0.20474297 -0.08440059 0.013068792 0.344757 0.102353655 0.047011808 0.06908948 0.069929525
0.05880728 0.20567223 0.17521493 0.13192289 0.20887002 0.1383552 0.11038764 -0.2565614
00000000: 9ecb f33c a9f1 1f3e 2f9e b5bd f7da 803e
00000010: 43cb c93d c072 ca3b 6c2f 773e 335b 7a3e
00000020: bdec 5cbd 419e 92be fcfe c63d 4ccc e6bd
00000030: b499 6ebe 2d40 0cbe 1076 55be 9cf3 94be
00000040: ebf0 31bd 7c8a 45bd 365b 05be d25d 35bd
00000050: cfc6 6a3e a161 5ebe e35b 093e 8aa2 5c3e
00000060: 29df fcbd 9554 d23d 65bc 043e f82a 433e
00000070: c804 9c3e 3ec9 ba3d 385c 31be 4ff5 19be
00000080: e3e5 53bd f9cb 8abe c9a3 26be d11c 2dbe
00000090: 68bd 433e 2795 413e 1c60 1b3e 2f97 da3d
000000a0: c57b a7bc d59a 83bd 1cf9 5f3d 5158 27bd
000000b0: 8939 723d eb17 8d3d 8ebf 123e b56a 8d3d
000000c0: 366d db3d 8f17 a43d b5df 8a3c e3dc 113a
000000d0: 1604 ec3d 254f af3d 8f9b 5e3e 0eed 513e
000000e0: b786 293e 3857 f53c fa69 ec3d 3c37 3c3e
000000f0: 3ee8 ffbc 01d9 403d 8cb3 923d 33df 8dbd
00000100: 4220 29be 85a1 1abd 43d0 31bd c6b9 28be
00000110: d2c3 acbc f8d9 42bd 3848 1cbd 3de9 003c
00000120: 8227 0fbd f635 1d3e be3c 773d a8b0 703d
00000130: e515 5b3e 26e1 a03d a072 63bd e2e4 5e3e
00000140: ae80 e13d eeba 363d 1b4a 8d3d 4623 c13d
00000150: fb15 e3bd 0558 363d 0920 d0bc 9736 083c
00000160: 51a3 fa3c 7e18 a0bd b1c5 febd 59da 8bbe
00000170: 64e4 66bd f3de f2bd ad96 debd ff87 b9bd
00000180: 59c7 afbc 08bd 0ebe dbd0 b8bd 1a5a 023e
00000190: 3d4e 423b f65a 693d 468e 323e c714 dd3d
000001a0: dc3e 023e 0c93 9e3d 69f5 f3ba 5aff 0b3e
000001b0: f65c 3d3e 8f84 903d 397a 9dbd 8ab8 853e
000001c0: aefe 9f3b 9d57 8b3d 37b3 a03e 50b1 8a3e
000001d0: abaa 593e 57ea 9cbd d10e 033e 04f5 a03d
000001e0: d44a b93c e599 e0bd e448 273e 1a92 9d3d
000001f0: 0604 ba3c c9ce 033e af02 b2b8 bd4f 55be
00000200: 1758 5fbe 0370 8fbe 0cb2 49be 231d 14be
00000210: 07c9 53be d299 aebe 1d84 83be 3f2c 823b
00000220: b69b 803c 4e1b 71be 3a67 3fbc 873f 653d
00000230: c39e 3bbe 4416 d3bd 83bf 253d ae95 90bd
00000240: 909d 2e3e 0d73 79bc 5b16 38bd cc3e 653e
00000250: b7cc 883d 4819 553d 72ab 073d ab7f 0dbd
00000260: 80b8 66bd 5103 df3d 3ace 20be 5d94 acbc
00000270: 85a2 2e3e ddf8 893d c666 073d f94c 1f3e
00000280: c8bc 9d3d bf85 f93d 6127 41bd 7d1a 463e
00000290: 71ac 223e f30d 94bd 32a2 8e3d aad1 cebc
000002a0: 84b5 e4bd 2c25 febd 5b92 003d 1c9b 183e
000002b0: f3c6 253d 80b4 033e 8770 463e d685 f23d
000002c0: 14d4 ee3d b18f b43d 4d5b c93d a6e7 923d
000002d0: 4dc2 58bd 6f00 ea39 384d a2bd 3ff2 36be
000002e0: 7736 a9bd 5417 f7bd b426 0abe 80cb aebd
000002f0: 01f9 613c 5acb 05be c3a3 91bd 0d03 50be
00000300: 7325 8b3c 62d6 1ebe 7f72 aabc 220a 4ebe
00000310: 9a24 b53c b996 a3bb 0ee6 09bd fa51 8cbe
00000320: 08c9 14be 8b30 a43c d99c 8ebc a630 b93a
00000330: 36cb 14be e705 0cbd fddf 7b3c 6adf c13d
00000340: 809c aebd 5763 feb9 d42d 9ebc e3b7 8ebe
00000350: f12c 46be 1ffd 243e 4e1d dfbd e9f7 1c3e
00000360: ca34 023e a479 873d ba6d d23d 9c6b e53d
00000370: e062 b73d 5c4b d23b 9b56 af3d 3368 283e
00000380: 79c0 2d3e ce5d 613e 15e1 663e e522 883e
00000390: 2d2f 953c 68da b63c 7813 cf3d 63bf 923d
000003a0: 392d 913e e33c 8a3e 3b93 e03d f6aa 513e
000003b0: d578 e43d 37e1 6e3d 1b3d c1bd b2bc 06be
000003c0: 24a8 51be 37da acbd 7d1e 563c fd83 b03e
000003d0: cb9e d13d 748f 403d c97e 8d3d 3637 8f3d
000003e0: e7df 703d be9b 523e 8b6b 333e cb16 073e
000003f0: 06e2 553e fcac 0d3e ea12 e23d 045c 83be

features.0.2.conv.bias f4 [32]
-0.10892591 0.024701988 0.0068487497 0.012852916 0.04947462 -0.0048033046 -0.035115402 -0.05462246
-0.021470625 -0.00011813355 -0.017051866 -0.02250213 0.03003377 -0.058452617 0.054634802 -0.008591395
-0.021193102 -0.012627462 0.044659052 0.013122828 0.014159509 -0.01351312 -0.020308629 0.015608992
-0.015382078 0.0049716877 0.10763108 -0.016163338 -0.012837085 -0.0038954907 0.03641895 0.09079997
00000000: 8c14 dfbd d35b ca3c 7a6b e03b 0995 523c
00000010: e6a5 4a3d 0a65 9dbb 2bd5 0fbd cdbb 5fbd
00000020: 2ae3 afbc 77be f7b8 5bb0 8bbc 6356 b8bc
00000030: 6109 f63c 036c 6fbd bec8 5f3d ecc2 0cbc
00000040: 289d adbc 6ae3 4ebc 69ec 363d 2101 573c
00000050: 49fd 673c 2266 5dbc 485e a6bc dcbc 7f3c
00000060: 1c05 7cbc 8ae9 a23b af6d dc3d fa68 84bc
00000070: a352 52bc 7d4b 7fbb 092c 153d 56f5 b93d

features.0.3.normalize.weight f4 [32]
0.23616289 0.1900202 0.40967935 0.23173344 0.0037356005 0.08264112 0.13879776 0.1804665
0.041020367 0.21934971 0.09329778 0.20068187 0.287679 0.040213455 0.023251815 0.035993226
0.39144143 0.29202744 0.37105384 0.22006425 0.2116 0.19006437 0.5697831 0.055256967
0.17756258 0.2501571 0.2925892 0.28219426 0.47192094 0.25264654 0.014293904 0.41794276
00000000: afd4 713e a894 423e 7ec1 d13e 884b 6d3e
00000010: fad0 743b bf3f a93d 0021 0e3e 36cc 383e
00000020: f904 283d 369d 603e e812 bf3d 8c7f 4d3e
00000030: a94a 933e ddb6 243d 977a be3c a26d 133d
00000040: 036b c83e 9f84 953e c5fa bd3e 8658 613e
00000050: acad 583e 3ca0 423e 4edd 113f 2155 623d
00000060: f7d2 353e 9714 803e 40ce 953e c47b 903e
00000070: 9f9f f13e e35a 813e fb30 6a3c 98fc d53e

features.0.3.normalize.bias f4 [32]
-0.48500893 -0.3991791 -0.2492971 -0.43064952 -0.023396485 -0.42518535 -0.5975432 -0.42970496
-0.21973832 -0.33054158 -0.61164546 -0.41641563 -0.5196178 -0.35484675 -0.1443488 -0.19824523
-0.2514999 -0.49692214 -0.2023466 -0.50438577 -0.4639978 -0.3958384 -0.8704243 -0.36469734
-0.29069534 -0.40519676 -0.478924 -0.5698109 -0.2719704 -0.50775194 -0.1807153 -0.24403931
00000000: 1753 f8be 3461 ccbe bd47 7fbe 187e dcbe
00000010: fca9 bfbc e5b1 d9be 97f8 18bf 4a02 dcbe
00000020: 1503 61be bf3c a9be cc94 1cbf 6e34 d5be
00000030: ac05 05bf 79ae b5be 2cd0 13be cc00 4bbe
00000040: 98c4 80be 946c febe f233 4fbe 6d1f 01bf
00000050: 1f91 edbe 55ab cabe 20d4 5ebf 9cb9 babe
00000060: 05d6 94be f375 cfbe 8735 f5be 21df 11bf
00000070: b43f 8bbe 08fc 01bf 6e0d 39be 71e5 79be

features.0.3.normalize.running_mean f4 [32]
0.8504427 2.482906 -0.21328719 2.8087397 -1.3161504 -2.476642 -1.7543896 2.5868876
-1.9481891 1.7974101 -4.7056108 1.1032866 0.5401281 -1.8571358 -1.7151836 -1.3449743
0.19663103 1.1784977 0.13638584 2.9764428 1.565227 2.230369 -3.1348114 -0.5727794
1.7073236 0.6874361 1.7113264 -0.23238987 -0.21465522 -0.9744851 -1.5842481 -0.21337923
00000000: 9db6 593f efe7 1e40 f567 5abe 64c2 3340
00000010: 9e77 a8bf 4d81 1ec0 d78f e0bf 918f 2540
00000020: 435e f9bf 8911 e63f 5d94 96c0 7f38 8d3f
00000030: d645 0a3f a0b6 edbf 238b dbbf 1e28 acbf
00000040: a559 493e 03d9 963f bba8 0b3e 0a7e 3e40
00000050: 5c59 c83f 5ebe 0e40 c0a0 48c0 aca1 12bf
00000060: 9489 da3f d0fb 2f3f be0c db3f 9cf7 6dbe
00000070: 94ce 5bbe db77 79bf a4c8 cabf 1680 5abe

features.0.3.normalize.running_var f4 [32]
1.2139999 2.0461183 0.31473273 1.5085825 0.25157252 1.2148714 2.259544 1.4889873
0.8276321 1.5337905 3.168853 1.2749345 0.6334049 1.2094969 0.4640636 0.38652083
0.26942745 0.790843 0.3137296 3.0571036 1.3297492 1.3828015 3.2169862 1.0284195
1.4313736 0.8121263 2.8046062 0.67741823 0.34347555 0.8797368 0.4330654 0.30050585
00000000: 5964 9b3f 9af3 0240 a624 a13e 3b19 c13f
00000010: 1dce 803e e880 9b3f 5e9c 1040 2397 be3f
00000020: b3df 533f 3f53 c43f 7dce 4a40 0e31 a33f
00000030: d326 223f cbd0 9a3f bf99 ed3e 0fe6 c53e
00000040: 65f2 893e b074 4a3f 2ba1 a03e 96a7 4340
00000050: 3935 aa3f a4ff b03f 1ae3 4d40 40a3 833f
00000060: 4037 b73f 82e7 4f3f ab7e 3340 486b 2d3f
00000070: 07dc af3e 6e36 613f c0ba dd3e e7db 993e

features.0.3.conv.weight f4 [32, 32, 3, 3]
-0.19678564 -0.12610298 -0.05129551 -0.11271029 -0.12081432 -0.009956007 0.09044689 0.06764516
0.0079515185 -0.05687412 -0.08244341 -0.07682951 -0.014432764 -0.0007937627 0.051316243 -0.0034469478
0.006690399 0.123561665 -0.14711979 -0.048682164 0.093927555 -0.05684924 0.020051366 0.1517313
-0.029342912 -0.0006256195 0.039839685 0.030434642 0.04810169 0.16935098 -0.065065436 -0.090234734
-0.007161341 -0.008374618 0.10570749 0.1021951 -0.009115833 -0.0035806496 -0.07607612 -0.07072931
-0.027949775 -0.0429067 -0.05288084 -0.20145047 -0.17658554 0.023591738 -0.10884933 -0.007566958
0.018426789 -0.22604132 -0.08315242 0.036742907 -0.11138331 -0.118116684 0.08496452 -0.014488865
0.028078858 -0.23556323 -0.16631036 -0.27836716 0.048012406 -0.10728803 -0.105332226 0.00967609
-0.04024379 0.033111848 0.041554775 0.037925757 0.026087815 0.026049262 -0.04820776 -0.009066599
-0.26143017 -0.25771177 0.055361073 -0.14294428 0.10153024 0.006629016 -0.1579396 -0.1321658
-0.0744403 -0.05325308 -0.19659577 -0.2478637 0.007212017 -0.19723259 -0.12815784 -0.021849656
-0.21407022 -0.00014539708 -0.07524332 -0.0866432 -0.17131966 -0.11892374 -0.009860509 -0.11354918
-0.0807674 -0.036139578 -0.36632112 -0.0197482 0.12908347 -0.048410445 -0.031707898 -0.1008967
-0.14162041 -0.057199072 0.073665194 0.053286254 -0.027549522 0.06870294 -0.047423698 -0.10107518
0.02361584 -0.026192525 -0.1677401 0.030492192 -0.07336933 -0.09929252 0.051386416 0.11370548
-0.19101636 -0.057643436 -0.08058959 0.09831416 -0.050218586 -0.026826149 -0.046992976 -0.18976963
-0.10580877 -0.046677824 -0.07603059 -0.0036975 0.08437252 -0.054620057 -0.2565869 0.1502181
0.07160023 0.001569544 0.03291466 -0.024592154 -0.2006205 0.024207907 -0.041562594 -0.016194422
0.13742413 0.0142054865 -0.06004296 0.13450362 -0.008395689 0.057614025 0.21638577 -0.06468704
0.03944755 -0.0024488228 -0.025071135 -0.026517393 0.04646329 -0.06356774 -0.023244813 -0.11502301
-0.09739968 0.034551658 0.055486538 0.12781091 0.1017414 0.15411477 0.08245829 -0.02465791
0.104472846 -0.062887475 0.034370996 -0.08932714 -0.034162108 0.12096929 -0.021009792 -0.041619413
-0.034601606 0.111555904 -0.009478397 -0.06626963 0.13093732 -0.103593655 0.15820518 0.04317713
-0.07393028 -0.023240527 0.035516176 0.01534675 -0.056611177 -0.01884099 0.1340779 0.0731241
0.041215297 0.023645278 -0.04716035 0.13921207 0.17687757 -0.0016876699 0.123364955 0.15818791
0.3230562 -0.043109413 0.159065 -0.037125774 0.013892481 -0.021034332 0.19342889 -0.09629468
0.079166695 -0.122264616 0.009099112 0.0014535231 0.019696923 -0.00010276755 0.1040069 0.11918386
0.0066775368 0.100066125 0.13681935 -0.007034677 0.0046647117 0.027856277 -0.032013565 0.086332776
0.1173843 0.09189063 0.17646097 0.15077333 -0.047829915 0.07892011 0.11434407 0.04995593
-0.10288322 0.020097606 0.14538392 0.15313649 0.29641214 0.032675125 -0.028562164 -0.0005443098
0.13165076 0.038532205 0.026434656 0.0028898623 0.23256628 0.24340737 0.0071424283 0.24681875
0.13313928 0.060532697 0.106040746 0.15419239 -0.0016649732 0.06148195 0.26912647 0.012030924
00000000: 2d82 49be 2421 01be 3e1b 52bd a7d4 e6bd
00000010: 806d f7bd 851e 23bc 383c b93d 8c89 8a3d
00000020: 1647 023c d6f4 68bd 17d8 a8bd ca58 9dbd
00000030: 6677 6cbc 8314 50ba fb30 523d 30e6 61bb
00000040: 223b db3b e60d fd3d 92a6 16be f366 47bd
00000050: 175d c03d c0da 68bd c342 a43c 735f 1b3e
00000060: 8c60 f0bc 9d00 24ba f02e 233d 1252 f93c
00000070: 4706 453d 586a 2d3e 0741 85bd fdcc b8bd
00000080: afa9 eabb b235 09bc 2b7d d83d aa4b d13d
00000090: 935a 15bc 55a9 6abb cccd 9bbd 87da 90bd
000000a0: edf6 e4bc f0be 2fbd 9499 58bd 0849 4ebe
000000b0: d7d2 34be 7643 c13c 66ec debd 3ff4 f7bb
000000c0: c7f3 963c 6077 67be d14b aabd bb7f 163d
000000d0: ef1c e4bd 29e7 f1bd e101 ae3d b462 6dbc
000000e0: a205 e63c 7d37 71be 434d 2abe 2486 8ebe
000000f0: a8a8 443d d4b9 dbbd 6cb8 d7bd 7788 1e3c
00000100: acd6 24bd 4aa0 073d 5735 2a3d 0a58 1b3d
00000110: 1db6 d53c 4365 d53c 8075 45bd 138c 14bc
00000120: 2dda 85be ccf2 83be 4bc2 623d fc5f 12be
00000130: 16ef cf3d 3738 d93b ebba 21be 7956 07be
00000140: 2874 98bd e71f 5abd 6750 49be fbcf 7dbe
00000150: c952 ec3b 57f7 49be cf3b 03be 0dfe b2bc
00000160: 3935 5bbe bb75 18b9 2b19 9abd fd71 b1bd
00000170: 6c6e 2fbe 4a8e f3bd f98d 21bc 798c e8bd
00000180: 6169 a5bd 1807 14bd 718e bbbe fac6 a1bc
00000190: 752e 043e 084a 46bd 24e0 01bd eea2 cebd
000001a0: f104 11be 9349 6abd c7dd 963d b042 5a3d
000001b0: 89af e1bc 21b4 8c3d 5a3f 42bd 8100 cfbd
000001c0: 0276 c13c b591 d6bc 10c4 2bbe c3ca f93c
000001d0: a942 96bd e059 cbbd 907a 523d 6bde e83d
000001e0: cb99 43be 861b 6cbd 280c a5bd ef58 c93d
000001f0: 01b2 4dbd 83c2 dbbc b57b 40bd f852 42be
00000200: 45b2 d8bd 3f31 3fbd edb5 9bbd c251 72bb
00000210: 80cb ac3d 48b9 5fbd 5c5f 83be c6d2 193e
00000220: 24a3 923d 28b9 cd3a 86d1 063d 7c75 c9bc
00000230: 766f 4dbe a94f c63c 8a3d 2abd 2aaa 84bc
00000240: e9b8 0c3e 21be 683c 9bef 75bd 51bb 093e
00000250: 128e 09bc affc 6b3d 3b94 5d3e a47a 84bd
00000260: c193 213d 6e7c 20bb fb61 cdbc 013b d9bc
00000270: 4a50 3e3d ce2f 82bd e86b bebc 2f91 ebbd
00000280: 7c79 c7bd 0a86 0d3d da45 633d dde0 023e
00000290: cc5d d03d 43d0 1d3e e4df a83d 63ff c9bc
000002a0: dcf5 d53d 26cb 80bd 9ac8 0c3d 26f1 b6bd
000002b0: 91ed 0bbd bfbe f73d ba1c acbc 1e79 2abd
000002c0: 6aba 0dbd 6c77 e43d 474b 1bbc 5fb8 87bd
000002d0: 6f14 063e e928 d4bd 8a00 223e 81da 303d
000002e0: c268 97bd eb62 bebc 6979 113d ef70 7b3c
000002f0: 1fe1 67bd 6b58 9abc b84b 093e 17c2 953d
00000300: 5fd1 283d beb3 c13c 362b 41bd 9c8d 0e3e
00000310: 651f 353e ce34 ddba c4a6 fc3d 03fc 213e
00000320: 9f67 a53e 7f93 30bd efe1 223e 3211 18bd
00000330: 4a9d 633c 3150 acbc 3912 463e 2536 c5bd
00000340: 2622 a23d df65 fabd 7114 153c 2484 be3a
00000350: 715b a13c e984 d7b8 9201 d53d ab16 f43d
00000360: 3dcf da3b 78ef cc3d 5f1a 0c3e 2683 e6bb
00000370: 70da 983b d932 e43c a820 03bd 3dcf b03d
00000380: 2e67 f03d 2831 bc3d 2fb2 343e 5364 1a3e
00000390: 4de9 43bd dea0 a13d 392d ea3d 979e 4c3d
000003a0: 70b4 d2bd bca3 a43c 86df 143e d0cf 1c3e
000003b0: 55c3 973e 5ad6 053d 33fb e9bc 03b0 0eba
000003c0: 75cf 063e f2d3 1d3d 7e8d d83c d863 3d3b
000003d0: db25 6e3e c83f 793e 080b ea3b 0ebe 7c3e
000003e0: aa55 083e 22f1 773d e42b d93d 9ce4 1d3e
000003f0: 3b3b daba 7fd4 7b3d f2ca 893e 5a1d 453c

features.0.3.conv.bias f4 [32]
-0.055567928 -0.07127749 -0.54444057 -0.14614262 0.0003336959 0.019411629 -0.012646575 0.07359495
0.0099336505 0.020566497 0.068309635 -0.035786506 -0.38152686 0.024247997 0.0037003215 0.0009775762
-0.39554647 -0.063203126 -0.50236577 -0.0068950583 -0.04695566 0.0023756817 0.09796021 -0.0018041137
-0.10438412 -0.05310491 -0.055238422 -0.14804998 -0.4049198 -0.12678954 0.010430511 -0.387148
00000000: 329b 63bd eff9 91bd 7560 0bbf 69a6 15be
00000010: e8f3 ae39 2305 9f3c 9533 4fbc f3b8 963d
00000020: c0c0 223c 127b a83c ece5 8b3d df94 12bd
00000030: 7d57 c3be bca3 c63c 1881 723b 0422 803a
00000040: 1185 cabe a470 81bd 0b9b 00bf f1ef e1bb
00000050: 9454 40bd 53b1 1b3b 5d9f c83d 0378 ecba
00000060: 57c7 d5bd 8984 59bd af41 62bd 6a9a 17be
00000070: a651 cfbe 1ed5 01be bce4 2a3c 4338 c6be

classifier.weight f4 [5, 800]
-0.034506787 0.011317648 -0.2028065 0.00070540095 -0.14458673 -0.075712666 -0.04222441 0.13511108
0.08868382 -0.086691335 0.005944265 0.16934742 0.118907236 0.07278467 0.130157 0.1358554
0.13342828 0.10365406 0.17641765 0.018861238 0.013760368 0.012956869 0.036421668 0.07940655
-0.05747703 -0.23138094 -0.13555242 0.26820314 -0.23941034 -0.2915372 -0.11925414 -0.06495741
-0.18260047 -0.1839044 -0.1638523 0.0747116 -0.25111258 -0.24714743 -0.1619872 0.04923732
-0.20458116 -0.1846175 -0.22398232 -0.3186818 -0.20919606 0.030492006 0.0861802 -0.00091126334
-0.08019331 -0.05784179 -0.050277475 -0.061413378 -0.028992698 -0.15036863 -0.14310825 -0.041125152
-0.10379942 -0.12452633 -0.106440924 -0.0074102012 0.013082405 -0.04460129 -0.115088426 -0.13775317
-0.048743185 -0.012949874 -0.029520845 -0.05673723 -0.041190933 0.021382116 -0.04447311 -0.021170659
-0.03956388 0.0041312333 -0.073763415 -0.0020745094 0.24863537 -9.1496084e-05 0.08370435 0.10721592
0.03222014 0.14461218 0.26259485 0.0786318 -0.055704348 0.03884341 0.18746829 0.36987585
0.25795487 0.2307191 -0.059579745 0.10206102 0.23351663 0.06696091 -0.007112229 0.1024576
0.15575545 0.08891771 0.15446249 0.090331025 0.047712654 0.020154892 -0.028452031 0.0036616712
-0.09682185 0.051965285 0.04003146 -0.036244888 -0.07007038 -0.049312133 -0.08518287 -0.0715601
0.029190924 -0.093065664 -0.03616891 0.037030037 0.016036734 -0.084200114 0.020593314 -0.04014957
0.075265154 0.09007408 0.047130965 -0.008710666 -0.0017364133 -0.11804542 -0.16467817 -0.094665006
-0.093066394 -0.06273314 0.0793918 0.039170682 0.06580216 0.10121347 -0.0010355371 -0.026025543
0.009209276 -0.0460377 0.09074012 -0.03630078 -0.01154275 0.04689142 -0.016529925 -0.027017962
0.03848808 0.05864287 0.014420116 -0.0482132 -0.0073824553 0.035205077 -0.18783452 -0.19456737
-0.20608883 -0.11925301 -0.16552337 -0.06627511 -0.0330788 -0.05465997 -0.15908132 0.009442143
-0.120564274 -0.13654691 -0.16816524 -0.12776554 0.03010819 -0.26318023 -0.1570016 -0.21619639
-0.21048312 -0.101763904 -0.24468823 -0.089507654 -0.112712495 -0.09247619 0.0035027633 0.18210018
-0.038071714 -0.2193297 0.15095592 -0.14696504 0.024428932 0.122841395 0.34241644 0.19639978
0.07477326 0.1753319 0.25897178 0.555898 0.373345 0.21328813 0.04838869 0.22043924
0.4164368 0.3767368 0.13308652 0.27599743 0.06662366 0.19473812 0.08741557 -0.07857446
-0.014749433 0.043463048 -0.023098093 0.10883426 0.09400826 -0.026526686 0.03322476 0.025290646
0.084775366 -0.021951748 0.05151192 0.08844309 0.02488416 -0.05526906 0.047813136 0.06422256
-0.018804053 -0.036488462 0.0139412815 -0.09481211 -0.039111525 0.06423978 0.022199258 0.0074029444
-0.0499999 -0.20127237 -0.1424195 -0.15145206 0.046441607 -0.27946925 -0.08088297 -0.1642412
-0.19837683 -0.10837251 -0.15062909 -0.08877291 -0.2041839 -0.2274021 -0.25725427 -0.41996622
-0.1477631 -0.1789327 -0.089880876 -0.16603813 -0.12581366 0.026296478 -0.02910437 -0.11909567
-0.07536635 -0.011607526 0.0133482395 0.009346292 -0.03411859 0.03562886 0.03685267 0.0046522524
00000000: fd56 0dbd a86d 393c 82ac 4fbe a8ea 383a
00000010: 8b0e 14be 3e0f 9bbd 81f3 2cbd 8f5a 0a3e
00000020: dd9f b53d 3a8b b1bd 1cc8 c23b 6969 2d3e
00000030: a385 f33d 2110 953d e047 053e ae1d 0b3e
00000040: 6ca1 083e 9448 d43d d4a6 343e e282 9a3c
00000050: 2b73 613c 0c49 543c e32e 153d e79f a23d
00000060: 096d 6bbd 20ef 6cbe 41ce 0abe ec51 893e
00000070: fc27 75be 5d44 95be 843b f4bd 6408 85bd
00000080: 9efb 3abe 6f51 3cbe e6c8 27be 6502 993d
00000090: d491 80be 3714 7dbe f9df 25be 12ad 493d
000000a0: b97d 51be 5f0c 3dbe 9f5b 65be 432a a3be
000000b0: 7e37 56be 5fca f93c 3f7f b03d d9e1 6eba
000000c0: 643c a4bd 83eb 6cbd c1ef 4dbd 988c 7bbd
000000d0: 1882 edbc 3cfa 19be f88a 12be d972 28bd
000000e0: ca94 d4bd a907 ffbd b3fd d9bd 46d1 f2bb
000000f0: 9557 563c d8af 36bd 7bb3 ebbd 2b0f 0dbe
00000100: efa6 47bd b52b 54bc b3d5 f1bc 4c65 68bd
00000110: d3b7 28bd 8c29 af3c 7029 36bd 176e adbc
00000120: bc0d 22bd 4c5f 873b 4611 97bd 7ef4 07bb
00000130: 459a 7e3e 96e1 bfb8 306d ab3d 0594 db3d
00000140: 44f9 033d 3715 143e d572 863e b609 a13d
00000150: 3e2a 64bd 441a 1f3d b0f7 3f3e 5e60 bd3e
00000160: a912 843e a141 6c3e e409 74bd 5e05 d13d
00000170: fc1e 6f3e cd22 893d b30d e9bb 4ad5 d13d
00000180: 5b7e 1f3e 7d1a b63d 6a2b 1e3e 79ff b83d
00000190: 586e 433d df1b a53c 3c14 e9bc a6f8 6f3b
000001a0: 894a c6bd 8dd9 543d 07f8 233d 8575 14bd
000001b0: 0f81 8fbd 85fb 49bd 5b74 aebd 1a8e 92bd
000001c0: ce21 ef3c 3699 bebd da25 14bd cfac 173d
000001d0: 785f 833c 1c71 acbd 4fb3 a83c e073 24bd
000001e0: 9e24 9a3d c278 b83d 660c 413d 2eb7 0ebc
000001f0: 5d98 e3ba ccc1 f1bd 65a1 28be badf c1bd
00000200: 9899 bebd 3c7a 80bd 2b98 a23d 7071 203d
00000210: 48c3 863d 0249 cf3d dcba 87ba 8533 d5bc
00000220: 81e2 163c 0792 3cbd f5d5 b93d 20b0 14bd
00000230: cd1d 3dbc 3811 403d c469 87bc c654 ddbc
00000240: ada5 1d3d 8233 703d 5a42 6c3c 347b 45bd
00000250: 86e8 f1bb 3333 103d b157 40be ab3c 47be
00000260: f308 53be ec3a f4bd f57e 29be 3fbb 87bd
00000270: a37d 07bd 22e3 5fbd 37e6 22be 38b3 1a3c
00000280: 67ea f6bd f4d2 0bbe 8233 2cbe f8d4 02be
00000290: 73a5 f63c 8fbf 86be 07c5 20be 9662 5dbe
000002a0: e388 57be 9869 d0bd 8d8f 7abe ca4f b7bd
000002b0: cfd5 e6bd 2864 bdbd 9e8e 653b 7878 3a3e
000002c0: 16f1 1bbd f797 60be 3094 1a3e 017e 16be
000002d0: 2f1f c83c 4594 fb3d 3551 af3e 061d 493e
000002e0: b922 993d 358a 333e f397 843e 554f 0e3f
000002f0: 1327 bf3e 3468 5a3e 3833 463d d3ba 613e
00000300: 3437 d53e a5e3 c03e d547 083e 894f 8d3e
00000310: fc71 883d 6e69 473e ef06 b33d a6eb a0bd
00000320: 9ba7 71bc 4f06 323d 3638 bdbc 7fe4 de3d
00000330: 6787 c03d 7e4e d9bc b016 083d 542e cf3c
00000340: b59e ad3d 27d4 b3bc 2afe 523d a721 b53d
00000350: ded9 cb3c cf61 62bd b5d7 433d 1e87 833d
00000360: f50a 9abc ed74 15bd f969 643c da2c c2bd
00000370: 6833 20bd 2590 833d 38db b53c 6694 f23b
00000380: b2cc 4cbd 581a 4ebe 6bd6 11be 4016 1bbe
00000390: 8e39 3e3d 9816 8fbe f8a5 a5bd d82e 28be
000003a0: 4c23 4bbe 68f2 ddbd 833e 1abe 92ce b5bd
000003b0: 9615 51be 19dc 68be d5b6 83be d005 d7be
000003c0: 364f 17be 223a 37be 7713 b8bd e605 2abe
000003d0: 4cd5 00be b66b d73c 4a6c eebc 6ee8 f3bd
000003e0: ac59 9abd 7e2d 3ebc 93b2 5a3c 3121 193c
000003f0: efbf 0bbd 91ef 113d d3f2 163d ec71 983b

classifier.bias f4 [5]
-0.28324983 0.08420877 0.016516976 0.0036005608 0.18277963
00000000: 1f06 91be a675 ac3d 9c4e 873c 63f7 6b3b
00000010: 952a 3b3e
