trainResults/miniImagenet_FO-MAML_lr_0.1_ways_5_shots_1_steps_5_seed_1_iter_60000.pt (torch, 143549 bytes, 26 tensors)

features.0.0.normalize.weight f4 [32]
00000000: b4ad 1c3f 0948 1c3f 05c7 cb3e 51d2 303f
00000010: 12e5 c23e 6343 1c3f bc0d 363f 7ed6 0d3f
00000020: d1bb 213f a11e e93e 20dd e43e c8d1 cf3e
00000030: 1b89 543f 14ac fb3e 3057 053f 3a1c 363f
00000040: 8746 fa3e 81f6 373f d4d6 f13e 3635 1d3f
00000050: dc7f 173f f613 e33e a57f e23e 45e6 743f
00000060: 40ef c23e ba36 233f 3e4d 303f d3f0 383f
00000070: ecea 5e3e 680f 493f 9127 323f 77eb 7f3f
0.6120255 0.61047417 0.39800277 0.6907092 0.38065392 0.61040324 0.71114707 0.55405414
0.6317721 0.4553118 0.44699955 0.40589738 0.83021706 0.49154723 0.5208616 0.7113682
0.48881933 0.7186051 0.47234213 0.6140932 0.5917947 0.44351166 0.4423801 0.95663863
0.38073158 0.6375538 0.6886786 0.7224247 0.21769303 0.78539133 0.69591624 0.99968666

features.0.0.normalize.bias f4 [32]
00000000: 7835 eebe 978a e93e 38cf 733d 3e64 d2be
00000010: 407d 143d 773d aebd 93f0 0abd 7656 ea3d
00000020: 7e72 90be 8d3f 7bbc a229 e9be c323 73be
00000030: 8a80 173f b400 8dbe e632 f2bd c654 db3e
00000040: c67d 38be 3d7b 0cbf bb99 5f3c 5826 a0be
00000050: cbce 0e3d ed78 3ebe dedd fd3c 4845 3f3f
00000060: 49c3 9e3d 52c4 afbe 90f7 17be 1500 dcbe
00000070: 611a f43f e6df 493e 8e60 21be c8f0 2b3f
-0.46525168 0.45613548 0.05952379 -0.41092104 0.03625226 -0.08507817 -0.033920836 0.11442272
-0.2821235 -0.015334976 -0.45539576 -0.23744111 0.5918051 -0.275396 -0.11826114 0.42838115
-0.18016729 -0.54875547 0.013647492 -0.31279254 0.034865182 -0.18600817 0.030989584 0.7471509
0.077520914 -0.34329468 -0.14840531 -0.42968813 1.907055 0.19714317 -0.15759489 0.6716428

features.0.0.normalize.running_mean f4 [32]
00000000: a26f 1f42 319f 8040 e688 4c41 dd01 17c3
00000010: 1fec bf41 5b3c f242 1d70 bd41 451a dcc2
00000020: 698c d8c2 1f9a 11c1 5aa5 c4c1 a8ed a1c3
00000030: 0b3b d0c1 b120 1843 0ad3 32c3 417b adc1
00000040: 425d af43 dd83 5cbe 2119 e5c0 82ff 81c3
00000050: f860 1742 2d13 2fc2 01c5 43c2 6ed1 7cc2
00000060: 02ba d641 b38e 67c1 3120 90c1 3c23 95c3
00000070: 610f 9741 f4d9 4dc1 81dd 5041 e938 53bf
39.859016 4.0194325 12.783422 -151.00728 23.990294 121.11788 23.679743 -110.05131
-108.27424 -9.100127 -24.580738 -323.8567 -26.02883 152.1277 -178.82437 -21.685183
350.72858 -0.21534677 -7.1593175 -259.99615 37.844696 -43.768726 -48.942387 -63.20452
26.840824 -14.472339 -18.015718 -298.27527 18.88251 -12.865711 13.054078 -0.82508713

features.0.0.normalize.running_var f4 [32]
00000000: 98fd 6f45 e97b 3c46 fc63 9d45 e3e9 8246
00000010: 2148 9945 9f29 2046 c0fd 2c46 3964 1a46
00000020: d0e3 4346 da71 a245 daab 5946 0748 3847
00000030: eb3d e745 ccdc a046 a7c9 c346 7d5c ee45
00000040: eaf7 2f47 1872 9945 8dd8 8145 ec49 f346
00000050: 14b8 3546 9c58 7a46 a43a ba45 cac4 6846
00000060: d69a 6045 83af 8944 df68 ce45 6508 0447
00000070: eaca ec45 bb78 4246 c33f ca45 1041 0945
3839.8496 12062.978 5036.498 16756.943 4905.016 10250.405 11071.4375 9881.056
12536.953 5198.2314 13930.963 47176.027 7399.7397 20590.398 25060.826 7627.561
45047.914 4910.2617 4155.069 31140.96 11630.02 16022.152 5959.33 14897.197
3593.6772 1101.4847 6605.109 33800.395 7577.3643 12446.183 6471.97 2196.0664

features.0.0.conv.weight f4 [32, 3, 3, 3]
00000000: f359 7bbe 70e8 a73c 83ce 30bd 64f7 36be
00000010: 4c43 b5bd a21d 223e b4d0 37be 0100 523c
00000020: b51b 6b3e 3094 73be fdd8 503e ae91 c43e
00000030: 9c89 d8bd 53a7 513e 8545 033f bc80 9b3c
00000040: b53f a43e f02d c33e f83c e6be 2c8d 7abe
00000050: 06ba a6be 9146 d63d 8576 a3bd 9b7b e3be
00000060: e9e6 903e 39f8 9a3e 52c2 96be eab9 24be
00000070: ab5d 933e d733 0c3e bc54 9dbc d013 2b3c
00000080: 5ab4 24bd cb5b d7be b9e4 6cbf 16e6 39bf
00000090: 9477 a33e cdca 093f c7b8 9c3e a6fb 973e
000000a0: 1886 173f f692 7d3e 9116 4d3e 1cfb 82be
000000b0: aaa4 4cbe a1f8 eabd dce7 cd3d 2903 62bd
000000c0: 478a 1d3c e79a 333e bd3a 343e b596 f3bc
000000d0: 6fd7 8abe ff85 34bd 23ee e13e bb77 bc3e
000000e0: c833 26bf 21b6 96be 0f0e 0ebe 50f8 ea3e
000000f0: be76 8dbe 4c66 8cbe b0be 9a3e 35f3 0f3f
00000100: f04d a73e b51d 5cbf 962f b4be 3a3f 69bb
00000110: 9db1 ae3e 0f8b 15be d00c 4ebe ae8b a83e
00000120: 5f2e a03e 4de9 f03d ef1c 1bbf 13fd 8dbe
00000130: b2fe a6bc 2e81 c43e d65c 8a3d 0a39 cbbd
00000140: c1ff 6e3e fb0c 803b 217e b33e d071 803e
00000150: 8aa8 993e 0a3c 943e 3c66 d0bb 2885 dcbb
00000160: ecd0 db3d a72d 49bd 6d1f 5ebe fb6f 05bf
00000170: 00c4 b5be 1987 97be 1d99 dcbe 477c 99be
00000180: 3492 1fbe 5a44 60be 99ae 193e 1fa7 d6be
00000190: 1ee5 37bf 460c abbe 420b 793d ee32 be3c
000001a0: c339 3d3e 3c02 3d3e 7e83 713e 582e 9d3e
000001b0: fe0d a0bd 725b 4fbd 02c2 ddbd 5e00 953e
000001c0: 61ee 34bf b369 da3e c8f6 bebe d490 473f
000001d0: 25d6 8abe 8c54 983d 0ba9 8b3c f2aa ac3c
000001e0: 3385 b43e 5a41 18bf e71f ad3e e317 d5be
000001f0: f108 463f 71a0 d4be 912e 5c3d b73b 25ba
00000200: 153b 8d3d 97c9 533e 4ee4 17bf 7ec9 d93e
00000210: bbb6 71be b99d 213f f8b6 0abf 9bde 463d
00000220: dc0f c3bd ef73 5e3d 6da9 ef3c 5749 8c3d
00000230: 4cf4 ccbd 02fc ee3c 3aae 2b3e 38c5 123f
00000240: 91f5 8abd 7f2d 20be ef70 a7be d82f cbbd
00000250: 0872 9ebc 7603 46bd 4a72 4abd ac42 afbd
00000260: 2156 413f b628 d83d c6da ed3d 5e3a 05be
00000270: 90b7 093e 736e 4c3d 9f1c acbe 7e78 a0be
00000280: 8c5c 84be 0e1b 8b3f 1162 0d3e 7ed2 343f
00000290: 073a 3c3e a057 46bf 2bb4 52be 4766 0dbf
000002a0: 5557 3bbe 7f30 0a3f 94b7 b03d cae8 2d3c
000002b0: 2575 1b3f 2e16 8e3e b9d5 41bf b5b6 dfbe
000002c0: 2fd9 2fbf 3c76 5b3e e08e 373f f5ec 853e
000002d0: 0b77 743e c63e 963e 5f16 713d 5cb3 56be
000002e0: 46d5 c5be a3e0 a4be c05c eb3d 02c6 b63e
000002f0: e505 5abd ae73 26bf fe37 21bc b908 babe
00000300: 8368 ac3e 777f 353f 5084 c13e fe96 a7be
00000310: 114f 2abd 2f2e c8be 3d00 12bf 5ecf 9b3d
00000320: c1c1 18bf 8c2a 8c3e 70e5 263f 8678 b33e
00000330: 0405 2abf f159 183e cc6b 0cbf 133d 9a3c
00000340: 72f7 f83d 216a 303d 1818 8fbd 1d6d ff3c
00000350: c8af e9bd 40db d03c 0822 b63d b4d5 c0bc
00000360: 42cd 3f3e e079 6bbe 34aa 79bf 993d 473e
00000370: 0562 85be ba61 05bf 1983 8e3d 5f2c eabc
00000380: 70df 053d 583c 8d3e 06ef 4d3e 7c52 c0be
00000390: 92aa c73e d605 043d 3181 f4bd 686b ef3d
000003a0: a58e 243c 7d76 943e 04e3 8c3e 5912 e0bd
000003b0: 193e e8be 6363 963e 1fae 3dbe 7c3f 02be
000003c0: 521e a2bc d64e d0bd 7efd 153e a3c6 0cbf
000003d0: d8f1 193f e7dc b3bb f7a9 c139 475c 6bbe
000003e0: 97f5 323e b540 fb3e 0f48 babe 4a55 6ebe
000003f0: 1b3c 38bf 1d63 223f 15cb 07bc 7827 a53d
-0.24546032 0.020496577 -0.043165695 -0.1786781 -0.088507265 0.15831617 -0.17950708 0.012817384
0.22959788 -0.23786998 0.20395274 0.38392395 -0.10573122 0.20473985 0.51277953 0.018982284
0.32079855 0.38120985 -0.4496839 -0.24467915 -0.325638 0.10462678 -0.0798159 -0.4443024
0.2830117 0.30267504 -0.2944513 -0.16086546 0.287824 0.1369165 -0.019205444 0.010441735
-0.04021106 -0.4206222 -0.92536503 -0.7261671 0.31927168 0.53825074 0.30609724 0.2968418
0.59188986 0.24763092 0.2002814 -0.25582206 -0.1998469 -0.114732035 0.10053989 -0.055178795
0.009615487 0.1753956 0.17600532 -0.029734949 -0.27117488 -0.0440731 0.44126996 0.36810097
-0.6492276 -0.29435828 -0.1387255 0.45892572 -0.27629656 -0.27421796 0.30223608 0.5623048
0.3267665 -0.8598283 -0.35192555 -0.0035590664 0.34119883 -0.14603828 -0.20122075 0.32919067
0.31285378 0.117632486 -0.60591024 -0.27732143 -0.02038512 0.38379806 0.06755988 -0.09922989
0.2333975 0.0039077974 0.35057166 0.25086832 0.30011398 0.28952056 -0.0063598435 -0.0067297406
0.10733208 -0.049115803 -0.21691675 -0.52123994 -0.355011 -0.2959526 -0.43085566 -0.2997763
-0.15583116 -0.21901074 0.1500801 -0.41924378 -0.7183398 -0.334078 0.060801752 0.023217645
0.18479066 0.18457884 0.23585317 0.3069942 -0.07815169 -0.05062432 -0.1082802 0.29101843
-0.7067624 0.42658767 -0.37297654 0.77955365 -0.27116504 0.07438001 0.01704838 0.021077607
0.35257873 -0.5947472 0.33813402 -0.41619787 0.77357394 -0.41528657 0.053755347 -0.00063031487
0.06896035 0.20682369 -0.5933274 0.4253654 -0.23604862 0.6313129 -0.5418544 0.048552137
-0.09524509 0.05430978 0.029255593 0.06849926 -0.100075334 0.029172901 0.16765681 0.5733218
-0.06785119 -0.15642355 -0.3270335 -0.09921235 -0.019341484 -0.048343144 -0.0494254 -0.085576385
0.7552205 0.1055464 0.11613993 -0.13010547 0.1344893 0.04991002 -0.33615586 -0.31341928
-0.25851858 1.0867631 0.1380694 0.70633686 0.1838151 -0.77477455 -0.20576541 -0.5523419
-0.18295033 0.5398025 0.08628765 0.010614583 0.60725623 0.27751297 -0.7571674 -0.43694082
-0.6869077 0.21431822 0.71702385 0.26157346 0.23873536 0.29344767 0.058859225 -0.20966858
-0.38639277 -0.32202634 0.114923 0.35697943 -0.053228278 -0.65020263 -0.00984001 -0.3633478
0.33673486 0.7089762 0.3779626 -0.32732385 -0.04157931 -0.39097735 -0.57031614 0.076079115
-0.59670645 0.2737621 0.65193844 0.3505289 -0.66413903 0.1487806 -0.54851985 0.01882795
0.121565714 0.043069962 -0.069870174 0.031179959 -0.11410481 0.025495172 0.0889321 -0.023539402
0.18730643 -0.2299571 -0.97525334 0.19457091 -0.26051345 -0.52102244 0.06958599 -0.02858561
0.03268379 0.275851 0.20110711 -0.3756293 0.38997322 0.032232128 -0.11938704 0.11690408
0.010043775 0.2899665 0.2751695 -0.109409995 -0.45359877 0.293727 -0.18523453 -0.1271953
-0.019789848 -0.10171287 0.14647481 -0.54990596 0.6013465 -0.00548898 0.00036938462 -0.2298442
0.17476498 0.49072805 -0.363831 -0.23274723 -0.71966714 0.63432485 -0.008288165 0.08064169

features.0.0.conv.bias f4 [32]
00000000: a9d8 9439 fa8e 8439 c83a 08bb bbfb 95b9
00000010: a4ec 703b c7c2 3b3a dd9a bc3a 214e 283b
00000020: 8ddb 2bb9 18c4 54ba 502c abb9 becd 8bba
00000030: 90c4 3eba 1dee 0439 b547 3b39 7093 1339
00000040: f4df 8b3a 778e c23a 156a e7ba d6d9 053a
00000050: 9973 e6b8 520d e93a f51b 8e3a 523b 28ba
00000060: aacb 8eb9 969b c5ba 3126 bd39 c3fd e73a
00000070: a48d cab8 481e 7a3a 4d75 1d3a b675 b2b9
0.00028390184 0.00025283528 -0.002078699 -0.00028607048 0.0036762143 0.0007162508 0.0014389415 0.0025681334
-0.0001638962 -0.00081163784 -0.00032648677 -0.0010666174 -0.0007277215 0.00012677205 0.00017860423 0.00014073937
0.0010671602 0.0014843483 -0.0017655516 0.00051060074 -0.000109887864 0.0017780459 0.0010842072 -0.0006417531
-0.00027236092 -0.0015076275 0.00036077344 0.0017699528 -9.658493e-05 0.00095412554 0.0006006554 -0.00034038507

features.0.1.normalize.weight f4 [32]
00000000: 89be 273f cdb3 163f 0be6 133f 26f7 3c3f
00000010: 0fa7 353f 967f 613f 29a5 1e3f 2b77 033f
00000020: ff02 803f 27e1 1f3f 38bd 153f 59ec 433f
00000030: c9f7 e13e d8ba 523f 319d 193f dfdb 403f
00000040: 2003 e03e b8f6 5c3f 3df2 0e3f 7257 0e3f
00000050: c2f4 e93e c540 013f 7cee 663f 7ff2 e53e
00000060: da91 173f 6680 343f 6606 743f fbdf 263f
00000070: 9ca6 c83e 3489 123f b0c7 273f 3957 383f
0.6552511 0.58868104 0.5777289 0.7381462 0.70958036 0.88085306 0.61970764 0.5135371
1.0000914 0.6245293 0.5849185 0.7653251 0.44134358 0.8231635 0.6000548 0.75335497
0.43752384 0.8631396 0.55838376 0.5560218 0.45694548 0.50489455 0.9020765 0.44911572
0.59206927 0.7050842 0.95322263 0.6518552 0.39189613 0.57240605 0.65539074 0.7200809

features.0.1.normalize.bias f4 [32]
00000000: 2f03 9fbe ae3d 02be b7e6 85be cb3e 93be
00000010: b419 e1be 0489 13be 8e78 d9be 1119 d1be
00000020: 99ff 0dbf 2235 cabe 23b1 07be 30ca c4be
00000030: 2ed2 b0be e000 d8be 283f e9be 5b02 04bf
00000040: f00e 213e 77e5 b7be 4f6a 03bf 83a5 3cbe
00000050: 3ef6 5fbc e7e2 91be 99f8 06bf 48a3 eebe
00000060: c4e8 78be 1121 fcbe 960a f7be 451d fcbc
00000070: 57a3 9fbe c5d5 b4be 5d1d 67be 4dc2 9cbd
-0.31057116 -0.12718841 -0.26152584 -0.28758845 -0.43964922 -0.14407736 -0.42474788 -0.40839437
-0.55468136 -0.39493662 -0.13251166 -0.38435507 -0.34535354 -0.42188168 -0.45555997 -0.51566094
0.15728354 -0.35917255 -0.5133409 -0.18422513 -0.013669549 -0.28493425 -0.5272308 -0.4660895
-0.24307543 -0.49243978 -0.48250264 -0.030775676 -0.31179306 -0.35319343 -0.22569795 -0.076542474

features.0.1.normalize.running_mean f4 [32]
00000000: 4cd0 7ac0 339e 1bc0 69b4 57c1 41a5 c1c0
00000010: 762b c03f 9d66 2bc1 0afd 98bf 39f6 8e40
00000020: 88cd 68c1 5264 713f 6bf8 7fc0 7b63 38c0
00000030: 6dcb 74c0 1700 e8c0 c0d7 6abf bd7a e9c0
00000040: 4eb9 18c1 a8c9 72bf 539e 85c0 561a bec0
00000050: ef14 5440 9983 88c0 eaba a2be 5e3f 9540
00000060: 65be ebbe 5b54 aac0 5f25 6fc1 61e3 f1c0
00000070: 6588 0bbf 821a 16c1 31ef ffc0 89e6 69c0
-3.9189634 -2.4315307 -13.481545 -6.0514226 1.5013263 -10.712552 -1.1952221 4.4675565
-14.550179 0.942937 -3.9995372 -2.8810718 -3.8249161 -7.250011 -0.9173546 -7.2962327
-9.54524 -0.94838953 -4.1755767 -5.940715 3.3137777 -4.266064 -0.3178323 4.6639853
-0.46043697 -5.3227973 -14.946624 -7.559006 -0.54504997 -9.381472 -7.997948 -3.6546957

features.0.1.normalize.running_var f4 [32]
00000000: 2bd3 6941 a844 4741 45bd d341 b640 de40
00000010: 05da 7941 48d0 7b41 d3a4 c340 91de 2b41
00000020: 028a 0042 72a9 2f41 5bc4 6141 1f25 f240
00000030: d664 1e41 d38b 6941 1ead ea40 d36e e141
00000040: a174 ee41 a1e2 3641 c3e2 c740 703f 3641
00000050: eb16 1b41 baf7 8a41 3a1c 8240 d6ca fe40
00000060: 35ff 3241 384c 8041 779e 4a42 e4a2 8941
00000070: 8d15 f140 61cd 8b41 8cbd c041 8f00 4e41
14.614055 12.454262 26.467417 6.9453993 15.615727 15.73835 6.11387 10.7418375
32.134773 10.9788685 14.110438 7.5670314 9.899618 14.596637 7.3336325 28.179113
29.806948 11.430329 6.246431 11.390488 9.693095 17.37096 4.0659456 7.9622602
11.187306 16.037216 50.65475 17.204536 7.5338807 17.475283 24.092552 12.875136

features.0.1.conv.weight f4 [32, 32, 3, 3]
00000000: 2765 aabe 85ce 243e 2c56 383e fe30 a9be
00000010: 0e53 1d3e 5fb8 b03e 90c7 91be 4cc8 713d
00000020: 0c37 db3d 2262 ea3d 18f0 a93d 09c9 8ebd
00000030: 8dea 3d3d 986e 5ebe 3c55 98be 6c7f 30be
00000040: 022f 77be eb84 01be e1f3 76be d19b 7fbe
00000050: 9642 c83d b415 5cbe 6a85 c1bd dccd 3e3e
00000060: c381 53bc 6cc5 113d 02c6 bcbd 6cbc bdbe
00000070: ec23 94be dfe3 863e beca a8be cb00 abbe
00000080: f2f0 483e 747c a7be 0fa7 36be 5ef7 ed3d
00000090: 94a0 c6bd cc39 9abe c188 70bd ffd6 8c3d
000000a0: 6115 15be 3fa8 3f3e d49a 34be 68e1 60bd
000000b0: 3692 89be 44af fc3c 8ac0 bbbe dfd2 7fbe
000000c0: 929b 0b3e 96e3 29be 247b 88be 6fa8 d83e
000000d0: edb7 53ba 4259 b3be f28e 8ebd a7e8 dfbd
000000e0: dd52 b4be 12ce 473e 3ef5 d8ba 3510 22be
000000f0: 11d7 09bd 0340 01be 0199 80be 83f9 e6bd
00000100: 920c c5bd 2dca e3bd 5d16 1bbe b9d5 29be
00000110: 4fb3 be3d 6b65 08be 7938 303c 34ba 503d
00000120: 4489 1abf 8db3 c6bd 2328 b53e 7013 01bf
00000130: 2a4d 723d a12e cc3d 0784 ebbe 0731 51be
00000140: 899a 27bb d721 77be 31e9 113d e95b b8bd
00000150: c87c 3cbc 41c5 4d3e cd9c 8ebd 0e07 d63d
00000160: 0113 0b3d 344e e43d 7bd3 18bd af5d 7ebd
00000170: 2036 dabc 2ab0 47be 8874 c0bb e1a6 bfbc
00000180: 82cf 12bd dfca 55bc 94ea b73d 42c7 adbe
00000190: a67c 523e 9051 c63e ed32 0abf aa36 5f3e
000001a0: 6061 6c3e 6c27 98be 8291 213e 1be5 783e
000001b0: 0681 94be 3a23 4c3e 8644 163f a4c1 afbe
000001c0: 11b5 073e f30e 263f c446 acbe 28ef 32be
000001d0: c2ae db3e 601a a23e d384 28be 7e37 3fbf
000001e0: 67de ac3e 9556 23be 2cf6 20bf 1815 c43e
000001f0: 93a2 493e a765 99be dffc e0be c66f 68be
00000200: cfcf cf3e 4f36 bebe de51 7dbe ddbf c13e
00000210: 5bba b5be fe6b eabb c8ab 0f3f 76b4 a0be
00000220: de1e 2d3e 42bc a63d 6a5c 98be 170f dc3e
00000230: b298 123f 1aa3 e5be 9899 e83e 540f 403f
00000240: 75df dc3d 8674 56be eb48 05be b264 4b3c
00000250: 132b 92be c9c6 bdbd ecc4 143e b40b 08be
00000260: dbe6 b0bd 5ef6 703c 4bb7 ba3e 4a50 863e
00000270: 708c 9d3d ded7 153e 8e60 e23d 6745 cebb
00000280: 7a1a aebe a07a dcbd e874 4abd 57f9 e43c
00000290: 5f2f a1be 818b a13d f3a1 8abe b32f 25be
000002a0: 1f98 f43d 9ba1 0f3d d551 cabd ef60 bcbe
000002b0: ccc4 0e3e 711b c23e dd6a 9ebe 1404 b83d
000002c0: 18ce 7f3e 600f b8bd 2249 cfbc ff13 a53e
000002d0: 8acf 5c3c aadb 8ebe 4a80 42be 9789 923d
000002e0: c278 4bbe 166c f3bc b74f a8bd 54a4 59be
000002f0: 562a a83c 428b eabd ba91 2bba 1fa7 4cbe
00000300: b822 dcbb 007f 823d 8a3b b7be f616 8bbd
00000310: 3bec e53c 087d 52be 74ba 71be 3b58 b9be
00000320: 6152 393e f28d bf3b fff0 babe 0422 9f3e
00000330: 77ea d8bc a91b 19be b327 acbd b70e 7e3e
00000340: 0e71 11bf 50cc 863d 03b6 fe3e 2ccb 80bf
00000350: 0474 443e c63a 043e a5bb 73bf ba4b 2cbe
00000360: 0be0 22be ea53 babb 3e1e 203e 5696 95be
00000370: 121f 6ebd b0d8 613d d1d8 19be 2883 dbbd
00000380: 3c64 93bc 1271 4e3e b44a 1e3e 8ecc 753d
00000390: 84e8 403c 97b5 ae3d 75d1 8e3d 347a cbbc
000003a0: 9f7c 963e fc05 b63d 6703 8c3e 9b0a 60bd
000003b0: d9be 993c ce64 ed3a 2263 fd3d 0b56 d33e
000003c0: dd59 5fbe e387 c0bd 946f 123e 027a 9dbe
000003d0: 5f46 b5be 11e7 f33e cd3b 53be 59b8 dbbe
000003e0: eaf0 c13e fcf1 5cbd dbf9 84be 0b5a ca3e
000003f0: 8fff 883e 1313 443e 7c83 8abe 81fb d73d
-0.33280298 0.16094406 0.18001622 -0.3304519 0.15363714 0.34515664 -0.28472567 0.05902891
0.10703859 0.114444986 0.082977474 -0.06971938 0.046366263 -0.21721876 -0.2975253 -0.17236108
-0.24139026 -0.1264836 -0.2411647 -0.24961783 0.09778325 -0.21492654 -0.09449275 0.18633217
-0.012909356 0.035588667 -0.092174545 -0.37057817 -0.28933656 0.26345727 -0.3296718 -0.33399042
0.19623163 -0.32712138 -0.17837165 0.11619447 -0.096985966 -0.3012222 -0.05872417 0.06876945
-0.14558937 0.18716525 -0.17637187 -0.054902464 -0.26869363 0.030845292 -0.36670333 -0.24982785
0.13633564 -0.16590723 -0.2665645 0.42316005 -0.00080764183 -0.35029036 -0.069608584 -0.10933047
-0.3521947 0.19512203 -0.001655258 -0.15826495 -0.03365237 -0.12622075 -0.25116733 -0.11278059
-0.09621538 -0.11122546 -0.1514525 -0.16585435 0.09311544 -0.13319938 0.010755652 0.050958827
-0.603657 -0.09702215 0.35382184 -0.50420284 0.05915562 0.09969831 -0.45999166 -0.20428859
-0.0025574288 -0.24134003 0.03562278 -0.090019055 -0.01150436 0.20094778 -0.06963501 0.10450564
0.03395367 0.111477286 -0.03731106 -0.062101062 -0.026637137 -0.19500795 -0.0058732666 -0.023395004
-0.035842426 -0.0130488565 0.08980289 -0.33941084 0.20555362 0.38734102 -0.53983957 0.21798196
0.2308402 -0.29717577 0.15778163 0.24306147 -0.29004687 0.19935313 0.5869831 -0.34327424
0.13252665 0.6486656 -0.3364774 -0.17474043 0.42906767 0.31660748 -0.16456918 -0.7469405
0.3376343 -0.15950997 -0.6287563 0.38297343 0.19690923 -0.29960367 -0.43942925 -0.22698888
0.40588233 -0.3715081 -0.24738261 0.37841693 -0.3549374 -0.007153987 0.5612149 -0.3138768
0.16906306 0.08141376 -0.29758006 0.42980263 0.57264245 -0.44851 0.45429683 0.7502339
0.107848085 -0.20942888 -0.13016097 0.012414144 -0.28548488 -0.09266431 0.14528245 -0.13285714
-0.08637782 0.014707176 0.36467966 0.2623313 0.07692802 0.14633128 0.110535726 -0.0062948945
-0.34004575 -0.10765576 -0.049427897 0.027950926 -0.31481454 0.078879364 -0.27076682 -0.16131477
0.11943077 0.03506623 -0.098788895 -0.36792704 0.1394226 0.3791156 -0.30940905 0.08985153
0.24980962 -0.089873075 -0.025303427 0.32241818 0.013477216 -0.27901965 -0.18994251 0.071551494
-0.19870284 -0.029714625 -0.082183294 -0.21254092 0.020528 -0.114523426 -0.0006544847 -0.19985627
-0.006718006 0.063718796 -0.35787612 -0.06791489 0.028066745 -0.20555508 -0.23606282 -0.36200127
0.18097831 0.0058457786 -0.3651199 0.3108064 -0.026478989 -0.14951958 -0.084060095 0.24810301
-0.5681313 0.06581938 0.4974824 -1.0062003 0.19184881 0.12913045 -0.952082 -0.16825762
-0.15905778 -0.005686273 0.15636536 -0.2921626 -0.0581351 0.05513829 -0.15024115 -0.107183754
-0.017992131 0.2016032 0.15458184 0.06000953 0.011774186 0.08530729 0.069735445 -0.024838544
0.29391953 0.0888786 0.27346346 -0.054697614 0.018767761 0.0018111707 0.12372424 0.41276583
-0.21811624 -0.09400918 0.14300376 -0.30757147 -0.3540525 0.47637227 -0.20628281 -0.42914084
0.37879115 -0.05394171 -0.25971875 0.39521822 0.26757476 0.19147901 -0.2705344 0.105460174

features.0.1.conv.bias f4 [32]
00000000: b073 1ebc 3f94 8bbc 10b5 9c3c 9120 9f3c
00000010: 5ecf 823d eb53 7c3d 268b c3bb 7749 953b
00000020: 0688 f43a f91a 9a3a 2cf1 053d 503f a93c
00000030: 54ed 97ba 7205 573d 4f38 d7bc 8343 e73b
00000040: 8d0d 02bb b4fa 793d 6dc9 033d 4c02 d4b9
00000050: 2b90 973b 4f7f 9d3b e18b d23c 0976 42bb
00000060: 816d 4b3c 5f45 8dbc 5bb2 d53c bbf1 ea3b
00000070: e528 213a b708 f43b ce55 883b 6c86 5a3c
-0.009671137 -0.017038463 0.019129306 0.019424709 0.063872084 0.061603468 -0.0059675155 0.004555877
0.0018656261 0.0011757306 0.032700703 0.020660073 -0.0011591115 0.052495427 -0.026271967 0.0070576086
-0.0019844503 0.061030105 0.032174516 -0.00040437502 0.0046253405 0.004806436 0.025701465 -0.0029672405
0.0124162445 -0.017244993 0.026086023 0.00716993 0.00061477564 0.007447328 0.0041606193 0.013337713

features.0.2.normalize.weight f4 [32]
00000000: 942c 013f 0d1d 1b3f 6428 2d3f 87d3 c13e
00000010: 4f5c 383f be22 e33e e4ea f63e f043 233e
00000020: fc4d 0d3f 8173 283f 64c2 3d3f ad06 103f
00000030: 8c17 563f a33d 4b3f 9960 3d3f 6ced cd3e
00000040: ebe0 253f 7c9d 123f 9d4a 233f 1ffb 1b3f
00000050: ca13 4d3f 3290 bb3e a713 f83e 508e 2b3f
00000060: 5d8d 683f 81cf e33e e800 9d3e f33c 5c3f
00000070: 1c55 813e e24b 963e 7270 283f 89b2 873f
0.50458646 0.605912 0.67639756 0.37856695 0.7201585 0.44362444 0.48226082 0.15943885
0.5519712 0.65801245 0.7412474 0.56260186 0.8362968 0.79390925 0.7397552 0.402202
0.6479632 0.5727155 0.63785726 0.60930055 0.8010832 0.3663345 0.48452494 0.67014027
0.90840703 0.4449425 0.30664754 0.860305 0.25260246 0.2935477 0.6579658 1.060136

features.0.2.normalize.bias f4 [32]
00000000: 1a81 d3be 147d b0be 68eb f9be 806d 9abe
00000010: 5173 b9be 6643 87be 3b74 18be e678 363f
00000020: be82 76be 1caf 32be 5673 e0be 4bbe 64be
00000030: a302 10bf 6c3b f2be 561a d6be 79f8 5cbe
00000040: dc83 8dbe 9e95 eebe 93d4 74bf 2938 e4be
00000050: dea9 08bf 7766 b7bd 84ef b9be 9cfa d1be
00000060: b460 c1be 789a 94be c2cd 05be 3e82 bbbe
00000070: 5f5c 133e ebbb 123e 461c 8dbe 6b58 08bf
-0.41309434 -0.34470427 -0.48812413 -0.30161667 -0.36220792 -0.26418608 -0.14888088 0.71278226
-0.24073312 -0.17449611 -0.43837994 -0.22338216 -0.56254023 -0.4731096 -0.41816968 -0.2157916
-0.27639663 -0.46598524 -0.9563686 -0.44574097 -0.53384197 -0.089550905 -0.36315548 -0.41011512
-0.3776909 -0.290241 -0.13066772 -0.36622804 0.14390706 0.14329498 -0.27560633 -0.53259915

features.0.2.normalize.running_mean f4 [32]
00000000: f11e 2cbd 759c cbbe fb6c b1be c6c0 91bf
00000010: 2b2d 67c0 df8c 4c3f 2dd9 dd3e 2c2c 52c0
00000020: 05fd c1bf 4ec7 7bc0 e92f 0c3f c6a9 9cc0
00000030: a93b 8ebf ba60 47c0 a61b adbf 3639 9a3f
00000040: a74c 20c0 f270 1540 4d0b 393f 07fc 5bbf
00000050: ffad d1bf ba56 88c0 d995 c3bf 6e60 1abf
00000060: efbb 7bc0 f79b d7bf ec8e 7dc0 d867 9240
00000070: 75f8 f43f 152a bbbe 3dac 10c0 ed59 9c3f
-0.042021696 -0.39767805 -0.34653458 -1.1386955 -3.6121318 0.7990245 0.43329754 -3.283946
-1.515534 -3.9340396 0.54760605 -4.8957243 -1.1111957 -3.1152787 -1.3524063 1.2048709
-2.5046785 2.3350186 0.7228287 -0.8593144 -1.6381224 -4.2605867 -1.5280105 -0.6030339
-3.9333456 -1.6844472 -3.9618483 4.5751762 1.9138323 -0.36555544 -2.2605126 1.2214943

features.0.2.normalize.running_var f4 [32]
00000000: 4a2c b040 8d0f 8e40 5e35 9b40 dc84 8940
00000010: 87d6 e540 d1e4 9440 d606 d640 053e af40
00000020: 5631 5f40 2ca1 db40 f755 9540 a9b2 bf40
00000030: 87b3 aa40 7e52 f940 051b 4141 a7ef 8040
00000040: 1aa0 ca40 a7de ed40 7bd6 4640 7d6d 8d40
00000050: 7cfc 8f40 956d e840 9229 9540 0315 9140
00000060: 53cc fa40 30bd 9b40 7e42 c640 f36b 2741
00000070: 7a84 b940 4a83 d740 4c57 ba40 a3c3 cd40
5.5054064 4.4393983 4.8502645 4.297468 7.1824374 4.6529317 6.6883345 5.4763207
3.4873862 6.8634243 4.6667438 5.990559 5.334415 7.79132 12.069097 4.0292544
6.3320436 7.4334292 3.1068408 4.4196153 4.499571 7.2633767 4.6613245 4.533815
7.837442 4.866844 6.1956167 10.463855 5.7974215 6.7347765 5.8231564 6.4301314

features.0.2.conv.weight f4 [32, 32, 3, 3]
00000000: 25de 9b3d 306e 1ebd daa1 0fbd b4a2 d43d
00000010: 8054 863d 74e7 0cbe 598c 7d3e 0ffd f43d
00000020: da10 ef3c 751a edbb 2d84 f83b 1fbd f13b
00000030: bcf2 353e 8052 503b 4ad2 f53d a694 423e
00000040: fe05 083e 2584 803e 9f4d 8abe 13b0 f0be
00000050: be66 853e a713 1dbe dd8e bcbe 03d0 1c3e
00000060: 593f 5a3d d93d a0bd d1fc dd3d a985 ae3e
00000070: 9618 c83e 84f6 433e 1ea4 753d 4218 a73e
00000080: 7247 fa3e 9cbd 9fbe b38e e1be e1a3 83be
00000090: 1cc4 a1bd d36c 94bd 9726 833b 691f a0bd
000000a0: 801a fdbd 1eee fbbb 79cf 0cbe f84f 23be
000000b0: 209c 1bbd 2192 8ebe a256 26bf 2ce4 2ebd
000000c0: 43fc e5bd 7b75 29bf 84c6 f93c 94da 193e
000000d0: e02e e0be d9c4 43be efc6 51be 6b52 dc3d
000000e0: a94f c13e 162c 12be 77dc 09bd f156 eb3e
000000f0: d34f d5be 462e 86be db9c 57bd b924 8e3e
00000100: 4f79 8e3e a1d3 14bd a8f4 bf3d 7dc6 243e
00000110: 01d9 443d 4080 353e c726 523e 7cfd a33d
00000120: eb79 913d c3c5 843d 577f 5d3f 79e3 09be
00000130: cb62 20be 438d 113f 0eb2 423d 46b1 f1bd
00000140: b676 c03e 263f 993d 92e2 b2bd abf8 fe3d
00000150: dd36 d6bd a276 cc3d 9f73 a43e d5b2 1bbe
00000160: a776 81be 6bad 6e3c 2c80 823d f774 59bd
00000170: aac7 f93d 7e1a 2b3e ea59 0d3e b48b 523e
00000180: 8dab 073e 0846 db3d 1dab d13d db8d c6bd
00000190: dbe4 d63d 16ee 9fbd 03f5 c43c 2a72 6c3d
000001a0: 47ae 9dbb 05e6 2c3e 8546 263e bdc5 333e
000001b0: a5c8 503e a697 fc3d b862 843c 0db5 9e3e
000001c0: 7321 5a3e f114 873e 1526 693e 59b2 f03e
000001d0: ffaa 183f e5de 00be a42e 22be a8a9 48bd
000001e0: adcb 5c3c e384 b43d a9a4 883d f899 1dba
000001f0: 0fb5 afbc 94e6 3b3e 3965 1fbf 9193 38bf
00000200: e077 d7be c882 cabe 4d36 04bf c254 33be
00000210: 343b 14bf 199e b8be f8f6 7dbe 1293 98be
00000220: b3fa 1abf 8f5f bbbe eb07 2fbf 9be2 38bf
00000230: eb6c 1cbf 7c4f d0be 3e6b 10bf 5f03 bdbe
00000240: 0e0d b53d 3749 3f3e dd97 fb3e ecec ef3c
00000250: 455b d73d a273 013f bb52 f9bd 46a8 fcbd
00000260: 492a da3e d554 473e 388d 8ebd 7330 083e
00000270: 11b7 7c3d 3f76 7cbd 480f 533e 232e 2cbe
00000280: b67e 3ebe 68f0 b93c 4a5a b0bc 2498 693e
00000290: 5669 2d3f e0fb c4be 0b3e 2bbe 1438 dc3e
000002a0: 4ceb 1cbf 7c89 04bf ee60 cc3c 5a4d c3bd
000002b0: 4db0 cfbc e7f0 a03b 98fe 403d 977e 9a3d
000002c0: 824f a63e c394 18bd f359 193d fbd6 af3e
000002d0: 8d04 c13e e59d cd3e 0fc8 b03e 2e47 533e
000002e0: d9c8 de3d 0883 1d3e 6a7a 80bd b49d fabd
000002f0: 91ca 31be 5736 80bc 4ae6 34bc 2203 8ebe
00000300: 99de e23d e613 7ebd 1f6f 12bd a73e a13d
00000310: 9e0c 25be 7a64 f0bd 5098 f13d d5b3 adbd
00000320: ffff 63bc 8e37 f53d a100 503d 7460 acbc
00000330: cc96 053e 9f5f 47bd 5ad9 c6bd 5b10 a1bd
00000340: f680 1bbe 7a77 e0bc 06e4 2fbe 7d30 c9be
00000350: 7128 82be 2efa d53c 28d3 44be 667c fabd
00000360: 2ed0 2ebe daa5 1bbe 93a5 30be 6679 fe3d
00000370: d393 393d 5b91 3d3b 9919 c9be 5e1d 9dbe
00000380: 4ff2 8abe 43ec 5abe 65c4 5dbe efd5 663e
00000390: 0d5d a6be 2307 bfbe b978 dc3d 6a0a a0be
000003a0: 658c f8bc 579f 543e 049d 493e a910 5cbd
000003b0: a685 513e bcbe 453e b2ae a9be 9c05 b5be
000003c0: a6d4 00be 9540 0bbf 87a2 fdbe 48e0 ce3d
000003d0: f430 eabd f413 17be 3968 283d 5133 073d
000003e0: 0add 8ebe cb8d a53e a7a8 e73e e3ce 363e
000003f0: 61f3 afbd 8e48 d7bd 6ec6 613e 634b a63c
0.0761073 -0.0386793 -0.035066463 0.10382596 0.06559086 -0.13760167 0.2476057 0.119623296
0.02918284 -0.00723582 0.007584116 0.0073772813 0.17768377 0.0031787455 0.12003 0.19002017
0.13283536 0.25100818 -0.27012345 -0.47009334 0.2605495 -0.15339528 -0.36827746 0.15313725
0.05328307 -0.078242965 0.108392365 0.3408635 0.39081258 0.19137007 0.059970967 0.32635695
0.48882633 -0.31199348 -0.44054183 -0.25710967 -0.07898733 -0.07247319 0.004002403 -0.07818491
-0.1235857 -0.007688298 -0.1375102 -0.15948474 -0.03799069 -0.27845863 -0.6497594 -0.04269807
-0.11229756 -0.66194886 0.030490167 0.15024787 -0.43785763 -0.1911806 -0.20486043 0.107579075
0.37756088 -0.1427463 -0.033657517 0.4596477 -0.41662464 -0.2620718 -0.052639823 0.27762392
0.27826926 -0.036334638 0.09372836 0.16091342 0.048058514 0.17724705 0.20522605 0.08007333
0.07103332 0.064830326 0.8652243 -0.1346568 -0.15662687 0.56856173 0.047533087 -0.1180139
0.3759057 0.07482748 -0.08734621 0.124497734 -0.10459683 0.09983565 0.32119462 -0.15204938
-0.25285837 0.014567713 0.06372103 -0.053090062 0.12196286 0.16709325 0.1380383 0.20561105
0.13249035 0.10706717 0.102377154 -0.096950255 0.104928695 -0.07809083 0.024042612 0.057726063
-0.0048120352 0.1688462 0.16237839 0.175559 0.2038904 0.12333612 0.016160354 0.30997506
0.21301822 0.26383165 0.22768433 0.47011068 0.5963592 -0.12585028 -0.15838104 -0.04898992
0.013476294 0.08814409 0.066720314 -0.0006012018 -0.02144864 0.18349677 -0.6226383 -0.7210017
-0.42083645 -0.39552903 -0.51645356 -0.17512801 -0.57902837 -0.3605812 -0.24801242 -0.29799706
-0.60538787 -0.36596343 -0.68371457 -0.7222077 -0.61103696 -0.40685642 -0.5641364 -0.36916634
0.088403806 0.18680273 0.491393 0.029287778 0.10515455 0.50567067 -0.12173983 -0.12336783
0.42610386 0.19465955 -0.06960529 0.13299732 0.061698023 -0.061636206 0.20611298 -0.16814475
-0.18603024 0.022697642 -0.021527428 0.22811943 0.67738855 -0.38473415 -0.16722886 0.43011534
-0.61296535 -0.51772285 0.024948563 -0.09536238 -0.025352621 0.0049115303 0.0471178 0.07543676
0.32482535 -0.037251245 0.037439298 0.34343705 0.37698784 0.40159526 0.34527633 0.20632622
0.108781524 0.15382016 -0.06273349 -0.12237111 -0.17362429 -0.015650911 -0.011041233 -0.27736765
0.110776134 -0.062030695 -0.035750505 0.07873278 -0.16118094 -0.117379144 0.117966294 -0.08481566
-0.013916015 0.11973487 0.05078185 -0.021042086 0.13045806 -0.048675176 -0.09709425 -0.07864448
-0.15185913 -0.02740072 -0.17176828 -0.39294806 -0.2542148 0.026120272 -0.19221175 -0.12230758
-0.17071602 -0.15199986 -0.17250662 0.12425499 0.04530699 0.002892575 -0.39277342 -0.30686468
-0.27137992 -0.21379189 -0.2165695 0.22542547 -0.32492867 -0.37310132 0.107652135 -0.31257945
-0.030340383 0.20763908 0.19688803 -0.053726826 0.20461139 0.1931104 -0.33141094 -0.35355842
-0.12581119 -0.5439542 -0.4953806 0.10101372 -0.11435118 -0.14753705 0.04111502 0.033007924
-0.27903014 0.32334742 0.4524586 0.17852359 -0.08591343 -0.105118856 0.22048351 0.020299619

features.0.2.conv.bias f4 [32]
00000000: 3f4f 6bbc d60d a2bc cac0 693c 5269 c5bb
00000010: 8cf5 cabb d367 383c 3d51 203c bdb2 483b
00000020: 1cb6 e9ba 207b 16bd d55a 443d 4a3b 03bc
00000030: 4720 643d dab5 b2bc 9dfb d93c 9cf0 11bb
00000040: 30c8 a63c bf77 2b3c 3236 4f3d 7b9f 923c
00000050: 7e00 733c 77b3 393d 36b4 a13c 5fcc 01bd
00000060: e9b0 643c 9eb5 d9bc a248 b63b cfb4 223d
00000070: 70b2 bd3c 5f03 c1bb 916a 81bd f896 e6bc
-0.014362155 -0.019781988 0.014267156 -0.006024518 -0.0061938222 0.011255222 0.009784994 0.0030624114
-0.0017830762 -0.036738515 0.047938187 -0.008009741 0.055694845 -0.02181523 0.026609236 -0.0022268659
0.020359129 0.010465561 0.050588794 0.017898312 0.01483166 0.045337167 0.019739252 -0.031689044
0.013958194 -0.02657586 0.0055628577 0.039723214 0.023156375 -0.0058902944 -0.06319154 -0.02814816

features.0.3.normalize.weight f4 [32]
00000000: af86 733d 0697 c33d 8fe4 053e f45c c23f
00000010: a3d2 11be 24f5 e63d 8562 973f 9f50 b13f
00000020: eb98 213e 2338 b13c 3d1b 193e 48d0 cc3d
00000030: 99c5 de3f e523 e43d a59e ee3b 3e21 8b3c
00000040: 8736 dc3d d538 c73f 893c c63d d6a6 1a3e
00000050: 47f2 183e 7fc5 893f 8b88 d63f 55ac d13c
00000060: abca 323c 41f5 ab3d 5336 ea3f 1a0d b93f
00000070: fdad a53f 580e fc3f 50fd a53c efc0 183d
0.059454616 0.0955029 0.1307547 1.5184617 -0.14240508 0.112772256 1.1826941 1.3852729
0.1578099 0.021633213 0.14951797 0.10000664 1.7404052 0.11139659 0.0072820955 0.016983625
0.10752588 1.5564219 0.09679515 0.15102705 0.14936171 1.0763396 1.676042 0.02559487
0.010912578 0.08396388 1.8297828 1.4457123 1.2943722 1.9691877 0.02026239 0.03729337

features.0.3.normalize.bias f4 [32]
00000000: 1a63 76be 39d8 87be 1418 67be 2f8c 07bf
00000010: d448 66bd c689 9abe f0de 75bf 5ee9 aabe
00000020: cc31 2cbe b618 3abe 5ce3 fabe b773 5fbe
00000030: fcc5 79bf b9c3 79be e5d5 83bd 2dc6 2abe
00000040: 6d24 f2be eb0e 6bbe f72b b5be eb08 17bf
00000050: 564c e8be a2c9 16be 1d29 4ebf 5b75 79be
00000060: 643f 08be 098d 6cbe a441 c8bf 35c6 85bf
00000070: 75cc 7bbf 9964 b1bf 1720 2fbe c7c1 9dbe
-0.24061242 -0.26532152 -0.22567779 -0.5294828 -0.056221798 -0.30183238 -0.960433 -0.3338117
-0.16815871 -0.18173489 -0.49001586 -0.21821485 -0.97567725 -0.24391069 -0.064372815 -0.1667716
-0.47293416 -0.2295491 -0.35385105 -0.5899798 -0.4537074 -0.14725354 -0.80531484 -0.24361174
-0.13305432 -0.23100676 -1.5645032 -1.0451113 -0.9835885 -1.3858825 -0.17102085 -0.30811903

features.0.3.normalize.running_mean f4 [32]
00000000: f381 17bf 10ee 89be 475f 1f3f 3582 803f
00000010: 6ebb 043b 0ffa d43e 4d09 d23f ae33 3abe
00000020: 7c63 f23e b1db a8bf 8ad3 b5bf fd7b 11be
00000030: 1784 03c0 33f9 043f cfd2 53bf 51d2 07c0
00000040: 4ce7 ecbf 7806 86bf 39ea 95bf d330 08c0
00000050: 46e3 f4bf 14c3 d33d c0ba 57be a8d4 513f
00000060: a439 22bf a1b4 7a3e 5c33 05be 72e1 28c0
00000070: 3ee4 0140 b7aa b33f 0fdb 51bf 9041 83bf
-0.5918266 -0.2693944 0.62254757 1.0039736 0.0020253318 0.4159703 1.6409088 -0.18183777
0.47341526 -1.3192044 -1.4205182 -0.14207454 -2.0549371 0.5194275 -0.82743543 -2.1222117
-1.8508086 -1.0470724 -1.1712104 -2.12798 -1.9131858 0.103399426 -0.21067333 0.8196511
-0.633692 0.24482967 -0.13007873 -2.63876 2.0295558 1.4036473 -0.8197488 -1.0254383

features.0.3.normalize.running_var f4 [32]
00000000: 2a51 d63f 306c 6d40 ddf6 6440 dcf2 8240
00000010: 7def 8d40 3f24 8540 9ae8 9c40 804f 5f40
00000020: 72c4 8540 30c3 193f bff6 583f 48f5 6f40
00000030: 4729 a740 10a8 6240 5198 023f e401 4e3f
00000040: 6f1a df3f d55b ad40 6501 093f 04bc 0840
00000050: 5ab0 3540 5ddf 3c40 067e 8e40 e1de 2f3f
00000060: 4b3c ab3e 9bc4 5a40 0d20 7c40 755d cc40
00000070: 6987 ad40 0b10 9640 d854 8b3e 463b 723f
1.6743519 3.7097282 3.5775673 4.092146 4.4354844 4.1606746 4.9033937 3.4892273
4.18023 0.6006346 0.84751505 3.7493458 5.2237887 3.5415077 0.51013666 0.80471635
1.7429942 5.41746 0.5351775 2.1364756 2.8388886 2.951133 4.4528837 0.6869946
0.33444437 3.4182498 3.9394562 6.3864083 5.4227796 4.6894584 0.27213168 0.94621694

features.0.3.conv.weight f4 [32, 32, 3, 3]
00000000: b391 56be 9138 6dbe 343a 5abe c269 febd
00000010: c93b a7be 2d2e 22be 2a13 33be 5ae1 b4bd
00000020: 8074 1abd e7bc 153e ede3 753e 3dd4 5f3e
00000030: 421a 283e 5c56 233e d62a e83d e837 043e
00000040: c182 4fbd bb04 eebd 19e4 113b 51f6 2fbd
00000050: 364e 7ebd 23c5 b03d 3d72 93bc b70b e03c
00000060: c3b1 433d 697c a5bc 77a9 57ba a879 e8bd
00000070: c1c9 e2bd 60e9 2a3d e7bd e7bd 846f acbd
00000080: def6 a7bd d575 bf3d 0aa9 5b3d 8e5f 2bbd
00000090: 39c3 6f3e b3ef 003e 58c3 873e 5416 403d
000000a0: 4ef2 5d3d b08f 113e 4871 9b3b 9bc5 debd
000000b0: 88c7 f1bd 9d9a 093d c27c 0cbe ab14 0ebd
000000c0: 93f0 7abd f3e9 7bbe 365e dbbd 93a5 33be
000000d0: 4de5 6abe 41d4 87be f57c e1bc 74f1 abbd
000000e0: 5bcb 703e 47c4 22be 2236 87be 68c9 393c
000000f0: 28f7 8d3d c23d bcbd 6aef 8a3d 8d50 273e
00000100: d896 293e a904 b13e 2483 ca3d afe9 a53d
00000110: 1c27 523e 3778 2e3e 6259 52bd 9b25 063e
00000120: 5728 af3c 3e39 83bd 9e9d 303d 7385 98bc
00000130: 61cc 5b3d 9d5e 4ebd 59c1 183e e681 933d
00000140: dfbb ad3c 3a6e 9b3c 0720 053e a228 b43d
00000150: 231d 04bd 0465 503d 6aca 583d d59e f2bd
00000160: e12c 54bd c975 5a3d 3762 ad3d 8fc2 e4bd
00000170: 7061 b4bb c1c1 05bd 3c93 86bb 6bbd 95bd
00000180: 85b5 f8bd c391 a2bd ecc2 81be 0f26 0a3e
00000190: 001f 093e 97cb 783d e0c6 053e 75ed 03bc
000001a0: f875 62bd 9b01 1c3d c795 b23d b867 383d
000001b0: c742 a23d 5455 a83d 398d 1d3e 72c5 7f3d
000001c0: b04f 083d 8c2a 503e b210 c73d 7638 d43d
000001d0: 1494 d73d 4c6f 8abd 63d1 d13c b7ad cb3d
000001e0: 88c7 6cbe b426 2abe 1c81 e1bd dae1 aa3d
000001f0: 1ceb f3bc 6b23 783c 2ea6 62bc cad2 89bd
00000200: 0000 d4bd 1333 a83c 16ef b7bd 1a24 c13c
00000210: a0c8 4b3d 43a5 aabd 8496 153d da3c bfbc
00000220: 8c3f 77be c66b 41be e952 e0bd e8d9 41be
00000230: 25b1 8dbe 441f 50be 9e2a 7ebe bbae 05be
00000240: 9c1f 7c3e a958 2c3e 94a7 293d 7d70 e33d
00000250: 0ab3 463e 8e02 243e 156f 403e 8398 803d
00000260: 5c85 213e ae36 593c 7034 693d d9e0 d3bd
00000270: 0db6 e73d 1d32 d83d 8528 4e3d e2e2 c03c
00000280: 3c98 1fbd 3aec 95bd 6dca b6bd cd12 01be
00000290: 25d2 2b3c 232f 2dbe 078d 9ebd b745 44be
000002a0: a2ff 1bbe 4aff c5bd 3d2e 27bd d21d 9d3c
000002b0: 1300 e3bc e3ec 183e a791 b0bc 40ed cfbd
000002c0: a2ec 10bc b16a cc3c 4bfd 9ebc eb40 eebd
000002d0: a28c 99bd d0a0 75be a394 60bd c144 393c
000002e0: 904b 37be 3ece c1bd 3d9f 83bc cb7f 27be
000002f0: 454b e0bb d026 cabd bcd1 31bb 2021 40bd
00000300: 464a e83c 03a4 bfbd 63e1 8abd 10c8 d0bd
00000310: edba 59bd 1929 093e b727 1bbe aa53 2abd
00000320: eacc 803d ec60 1abe 7f79 573d 4bd1 0ebe
00000330: 2314 5ebe ed0f e2bc b45f 053d e453 4cbe
00000340: 2253 1d3e d233 dc3c fa11 efbd 2929 d3bd
00000350: fd60 013d e1e1 cdbd 2e1c 8cbd ab13 e2bd
00000360: b731 833c cddc 85bd 6452 573c 516f da3b
00000370: e834 45bb 33b5 033e 59d7 123d a5d6 5a3d
00000380: ed5f 153d 7f38 64bd 3940 a23d 5519 99bd
00000390: e508 1abe ff0d 19be c157 48be 3537 13bd
000003a0: 98cd 51be 3fe7 61be 687d 873c c5e9 1fbd
000003b0: 2c20 423d a294 d1bd aa18 64be d285 0a3a
000003c0: 8b67 823d 66f8 113c 6177 953d 7af1 adbe
000003d0: 5400 99be 5909 1bbe e1e8 82be 5522 9bbe
000003e0: 73e5 67be bd6f 4abe fcab 62be be52 8ebe
000003f0: bc63 85bd 822a 4cbc 7c39 03be 2f0d 8abc
-0.20954017 -0.2316611 -0.21311265 -0.124225155 -0.326628 -0.15837927 -0.1748778 -0.08832045
-0.03770876 0.14622842 0.24012728 0.21858306 0.16416267 0.15950912 0.11336295 0.12911952
-0.050661806 -0.11621996 0.00222612 -0.042959515 -0.062086307 0.08631351 -0.017998809 0.027349336
0.04777695 -0.020200925 -0.00082268514 -0.11351329 -0.11073638 0.04172647 -0.11315518 -0.084197074
-0.08201383 0.093486466 0.053628005 -0.041839175 0.23414315 0.12591438 0.26516223 0.046896294
0.054186158 0.14214969 0.004743729 -0.10877534 -0.11805636 0.033594716 -0.13719466 -0.03468768
-0.061264586 -0.24600963 -0.10711329 -0.1754363 -0.22939034 -0.26529124 -0.027525404 -0.08395663
0.23515074 -0.15895186 -0.26408488 0.011339523 0.06931907 -0.09191467 0.06783946 0.16339321
0.16561449 0.34573868 0.09888294 0.08101212 0.20522732 0.17038046 -0.051354773 0.13100283
0.02138154 -0.064074025 0.043119065 -0.018618321 0.053661708 -0.0503832 0.14917506 0.072025105
0.021207748 0.018973459 0.13000499 0.087968126 -0.03225435 0.050877586 0.052927412 -0.11846701
-0.051800612 0.053334985 0.084659986 -0.111699216 -0.0055047795 -0.03265548 -0.004106907 -0.07311519
-0.12143997 -0.07937958 -0.25344026 0.1349108 0.13390732 0.060741033 0.13064146 -0.00805222
-0.055288285 0.03808747 0.08719974 0.04502079 0.07922893 0.082194 0.15385903 0.062444158
0.03327912 0.2032873 0.09719981 0.103623316 0.105262905 -0.067595094 0.025612539 0.09945243
-0.2312299 -0.16616327 -0.11010954 0.08343859 -0.029775195 0.015145163 -0.013833566 -0.06729658
-0.103515625 0.020532167 -0.08981149 0.023576785 0.049751878 -0.083323024 0.036520496 -0.023344446
-0.24145335 -0.18888769 -0.10953314 -0.18930781 -0.27674213 -0.20324427 -0.24820945 -0.13054936
0.24621433 0.16830696 0.04141958 0.1110544 0.19404235 0.160166 0.18792374 0.06279089
0.15773529 0.013257666 0.056934774 -0.10345621 0.1131402 0.10556433 0.05033161 0.023545686
-0.03896354 -0.07320447 -0.089253284 -0.12604828 0.010487114 -0.16912512 -0.077417426 -0.19167219
-0.15234235 -0.09667833 -0.04081558 0.019179258 -0.027709996 0.14934115 -0.021553827 -0.10152674
-0.00884548 0.024953218 -0.019407889 -0.11633476 -0.07497527 -0.23987126 -0.05482925 0.011307896
-0.17899919 -0.09463166 -0.016067142 -0.16357343 -0.0068449103 -0.09870684 -0.0027133068 -0.04690659
0.028355729 -0.09357455 -0.0678127 -0.10194409 -0.053156782 0.13394584 -0.15151869 -0.041583695
0.06289084 -0.15076035 0.052606102 -0.13947026 -0.21687369 -0.027595485 0.032561973 -0.19953877
0.15363744 0.026880179 -0.11673351 -0.10310585 0.031586636 -0.100528486 -0.06841312 -0.110389076
0.016014917 -0.06536255 0.013142202 0.006666102 -0.003009135 0.12862091 0.035849903 0.053427357
0.036468435 -0.05571794 0.07922406 -0.07475535 -0.15042455 -0.14946745 -0.19564725 -0.03594132
-0.20488584 -0.2206087 0.01653929 -0.0390413 0.047393963 -0.102334276 -0.22275034 0.0005284223
0.063674055 0.00890932 0.0729816 -0.33973294 -0.29883063 -0.15140285 -0.25568298 -0.3029963
-0.22646122 -0.19769187 -0.2213592 -0.27797502 -0.065131634 -0.0124613065 -0.12814897 -0.01685199

features.0.3.conv.bias f4 [32]
00000000: 99f7 a13b 2216 a0bb 524a b53c 306a bd3c
00000010: 4452 a33c a23e bb3c bd1f 1d3d b071 c03d
00000020: 0b24 6ebc 1e98 7c3c d0ab 463d a80f f93b
00000030: ea1f 983e 708b 9e3c d67b 883a 6f61 3e3c
00000040: 93e7 2f3d e39a e73d cfd6 693c 5ada 8b3d
00000050: 2a3f 2f3d 8961 f53b 6226 a03d f217 413c
00000060: 2cdf 5b3a 245d 183c e9f4 4c3e 57c2 bb3d
00000070: a1e3 7cbc 804f e6bc f299 c2ba c397 db3b
0.004942846 -0.004885451 0.022130165 0.023121923 0.019936688 0.022857014 0.038360346 0.09396684
-0.0145349605 0.015417127 0.048503697 0.0076007433 0.29711848 0.019353598 0.0010412883 0.01161991
0.042945456 0.11308839 0.014272406 0.06828757 0.042784847 0.0074884337 0.07819821 0.011785494
0.0008387442 0.00929955 0.20015301 0.09167927 -0.01543513 -0.02811408 -0.0014846905 0.006701441

classifier.weight f4 [5, 800]
00000000: bfe8 633c 1b08 9abd c1a2 30bd ff68 20bc
00000010: b575 81bd 65f4 0f3c c07d 603d 646b 96bc
00000020: 5be2 a5bd 5e15 193d c9d9 233d 665b 57bb
00000030: c8a0 15be c690 08be e930 d23c 981c 183d
00000040: 00ef 883b 1035 9d3c 9fe3 b43c d5f6 253d
00000050: 58f2 c03c ca39 5fbd 9b38 b53c bcb8 393c
00000060: 3171 b1bd d0ce 37be b035 74be 1de7 89be
00000070: 0ba0 c7bd 09c5 51be 3f26 2eba 1695 283d
00000080: be99 86be 06f5 45be c923 20bd b948 a4bd
00000090: fd69 b5bd 5871 72bd bd07 71bd 1b2f 78be
000000a0: 72c1 c33c 4a5a 06bd c9ef 2ebe 821e af3b
000000b0: 975c c03b 34ed 34bd 545d 39be 632b 82bd
000000c0: 812a 833d 9c2b 093e 9ce6 65be fcb4 f9bb
000000d0: aed8 99bd 4fdb 483c a615 dd3c 68ae d0bd
000000e0: d362 7abd e2c8 35bb 47e7 073d 5b3b b6bc
000000f0: 28f2 2cbd 752c 6d3d 64d5 863d 49a6 27bc
00000100: 85d1 4f3d 65ed 783d 5016 c23c e76a 953c
00000110: 8b04 e13a 69c3 d93d 6fe9 53bc 9e01 65bc
00000120: d48f fa3d 0296 c3bc 995b b53c 7bbe 1b3d
00000130: 0e20 6c3c f1c0 b2bc 22f2 043d 1744 ca3c
00000140: 0079 673d 0b42 2b3d 31ad 583d af24 603c
00000150: 28c3 cabc a6f5 3a3b d378 9f3d d020 723d
00000160: 5f04 583d 89a5 a3bc 7e6f a63d 8eff 123d
00000170: b238 833d dbd5 953d cd46 33bc 54c9 583d
00000180: 1814 683d fe9b 383d 4295 813d ed86 083d
00000190: 51a7 e93c 091f 913d 6139 eabc 1327 8fbd
000001a0: 032d f6bd bf35 853b 0162 b4bd 921f 4a3d
000001b0: 9776 f2bc a42a 853c df26 10bd 95d6 00bd
000001c0: 6a88 c03d 7616 413d 0a96 92bc 5224 5bbd
000001d0: 3e6a 49bc ebf7 a83d ef21 cdbb 9408 2abc
000001e0: 7ced 89b9 65a1 793d 4206 5b3d 9559 aa3c
000001f0: 0d51 19bd f2ca aebd 4bc6 7e39 ee3b 41bd
00000200: ba5c 7a3d bf71 a9bd 2bac e63c 82b7 1a3d
00000210: 1b43 e2bd 43b1 77bb f305 d3bc 2335 3a3d
00000220: 30fc 89bc b05b 48be 6548 0f3d 8ead cb3d
00000230: 9ee0 8d3d 6b18 13be d47a 17be 9a79 a73d
00000240: 7b27 5dbd 13b3 8dbd c906 e43b a1f8 83bd
00000250: ebc9 9e3d f197 303c 52ee efbd 8a1d a9bc
00000260: 6006 253d a6e8 77bd d821 bdbd 0653 a2bc
00000270: d6e5 193c 5d3f 383c ca14 e43c 24d4 2cbd
00000280: 97dc 693c f6f7 27bc 5d7b be3b 182b 003d
00000290: a9a2 64bd da7c 0c3d 80f4 053d 80a1 04bc
000002a0: 0656 c6ba 3b17 853c 8e3a 9a3c 81f0 1e3c
000002b0: 0a88 90bc 753d 883c 87e8 363d 54cf bd3c
000002c0: b0f4 a3bc 9bb7 0d3d a23d 233d 2b3c 603d
000002d0: 19f9 9d3d 5a22 4f3d 1919 283d 7fbd 0c3d
000002e0: daf7 683d a6ee ba3d e5f9 ed3b bee8 1b3d
000002f0: a7e5 d83c 62cf 363d cf3a af3c acf8 d43c
00000300: 655c eb3c 1cf4 383d 9b61 c43d 2b58 863d
00000310: 62fd 503d fa61 1a3d 7580 b53d 58fe 553d
00000320: b21a b1bd c945 c4bc 1ba1 92bd bf4e bcbd
00000330: 6f07 b03c fa08 823b ad0b 07bd 1fa8 233d
00000340: c3ad 97bd d085 f83b cb41 7bbd 1917 783b
00000350: f7ae f3bc 0c91 6e3d 5bff d9bc f5b1 86bc
00000360: b9b3 e7bc f1cd a1bd 74e6 30bc 4e83 953c
00000370: 59a5 ee3d 3f13 74bc 99d3 143c 5151 533d
00000380: c639 89bd 4620 fa3c ff01 1a3d 296e 9dbd
00000390: 0a41 9fbd e3c3 273d cd14 2f3d 0b6f 8f3c
000003a0: ccfe df3c 3428 47bd c018 613d 6ae8 aa3d
000003b0: 6cf5 bf3b 28f0 cdbb 8e5b 55bc db6f f83c
000003c0: 8dc8 c63c 1271 483d 2c65 c43c 53d4 92bd
000003d0: 3b24 7fbd 65ea 0abd ff6c 0bba c111 84bd
000003e0: cc1d bfbd c445 93bd f88a 923a 68d2 8bbb
000003f0: 8f7f 9c3c a7ea 2d3d d71c 253d de20 1abd
0.013910471 -0.07521077 -0.043123964 -0.009790658 -0.06321279 0.008786296 0.054807425 -0.018361755
-0.080998145 0.037373893 0.040002618 -0.0032860874 -0.14612114 -0.13336477 0.025658088 0.037136644
0.0041788816 0.019190341 0.022081194 0.0405186 0.023553059 -0.05449847 0.022121718 0.011335548
-0.08664168 -0.17949986 -0.23848605 -0.26934138 -0.09747323 -0.20485319 -0.00066432724 0.041157804
-0.2628917 -0.1933175 -0.039096627 -0.08021683 -0.08858106 -0.059190124 -0.05884527 -0.2423672
0.023895953 -0.03280095 -0.17083658 0.005344213 0.0058704126 -0.044171527 -0.18102008 -0.063559316
0.06404591 0.13395542 -0.22451252 -0.007620452 -0.075120315 0.0122593185 0.026987862 -0.10189515
-0.061129402 -0.0027738144 0.033179548 -0.0222451 -0.042223126 0.057903726 0.0658367 -0.010232517
0.050736923 0.060773272 0.02369228 0.018239452 0.0017167492 0.10632975 -0.012934073 -0.013977436
0.12234464 -0.02387524 0.022138404 0.038023453 0.014411939 -0.021820517 0.03245748 0.02469067
0.05651188 0.04181103 0.052899543 0.013680621 -0.02475126 0.0028527766 0.07786717 0.059113324
0.052738544 -0.019976394 0.08126734 0.035888247 0.06407298 0.0731618 -0.010942173 0.052926376
0.056659788 0.04507064 0.06327297 0.0333318 0.028522165 0.070859976 -0.028591814 -0.06989875
-0.12020304 0.004065245 -0.08807755 0.049346514 -0.029597564 0.016255684 -0.03519332 -0.03145464
0.09401019 0.04714056 -0.01789381 -0.053501435 -0.0122933965 0.082504116 -0.0062601487 -0.010378022
-0.00026307616 0.060944933 0.053472765 0.02079467 -0.03743081 -0.085348025 0.00024297198 -0.047176294
0.061123587 -0.082736485 0.028158268 0.037772663 -0.110479556 -0.0037794865 -0.025759673 0.04546083
-0.016843885 -0.19566226 0.03498115 0.09945212 0.06927608 -0.14364783 -0.14792949 0.081774905
-0.05399273 -0.06918921 0.0069588167 -0.064439066 0.077533565 0.010778413 -0.11715378 -0.020643968
0.040289283 -0.060524605 -0.09234971 -0.01981498 0.009393176 0.011245576 0.027841944 -0.0421945
0.014273784 -0.01025199 0.005813046 0.031291097 -0.055819187 0.034298755 0.032703876 -0.008095145
-0.0015131838 0.016246429 0.01882675 0.009700895 -0.017642993 0.016630867 0.04465535 0.02317015
-0.020014137 0.034598928 0.0398537 0.05474488 0.07713527 0.05056987 0.04103956 0.034360405
0.056876995 0.0912755 0.0072624558 0.038063757 0.026476694 0.04463137 0.021390347 0.025997482
0.02873058 0.045154676 0.09588929 0.065597855 0.051022895 0.037691094 0.08862392 0.052244514
-0.0864767 -0.023959057 -0.07159635 -0.09194707 0.02148792 0.0039683552 -0.03297012 0.039955255
-0.07406189 0.007584311 -0.061342042 0.0037855564 -0.029746516 0.058243796 -0.02661102 -0.016442278
-0.02828394 -0.07900608 -0.010797132 0.018251088 0.11652631 -0.014897167 0.009083652 0.05159122
-0.067004725 0.030532967 0.03759956 -0.07687027 -0.07776077 0.040958297 0.042744447 0.017509004
0.027343176 -0.048622325 0.054955244 0.08345111 0.005858114 -0.0062847324 -0.013022317 0.030326774
0.024265552 0.048935957 0.023974024 -0.07169404 -0.06229041 -0.033914942 -0.0005318671 -0.06448699
-0.09331855 -0.07191041 0.0011180332 -0.0042670257 0.019103793 0.04246011 0.040310707 -0.037629

classifier.bias f4 [5]
00000000: 69c9 113e 62eb 503b bae2 30be bc5b 9c3c
00000010: b272 67bc
0.14236988 0.003187858 -0.1727399 0.019086711 -0.014126467
