trainResults/miniImagenet_MAML_lr_0.14_ways_5_shots_1_steps_5_seed_1_iter_60000.pt (torch, 143549 bytes, 26 tensors)

features.0.0.normalize.weight f4 [32]
000000 1f 54 46 3f d2 0b 40 3f 58 d3 06 3f ab b3 21 3f
       0.7747211 0.75018036 0.52666235 0.63164777
000010 a5 cb 0b 3f b9 de 45 3f aa 6e 1c 3f 3a 70 16 3f
       0.5460761 0.7729297 0.6110636 0.58764994
000020 ab 90 59 3f c8 29 00 3f 98 40 d1 3e 09 c0 73 3f
       0.8498637 0.50063753 0.40869594 0.952149
000030 52 92 16 3f 26 b1 18 3f 7b 4e 1e 3f c4 24 12 3f
       0.5881702 0.5964531 0.618385 0.5708735
000040 1b 15 f9 3e 9a 1a 38 3f 47 c7 40 3f a7 0f e6 3e
       0.48648915 0.7191559 0.75304073 0.44933817
000050 a4 de 0e 3f 1e ba e4 3e 93 c6 1b 3f bb 16 ef 3e
       0.5580847 0.44673246 0.60849875 0.4669703
000060 27 e5 19 3f c9 85 1b 3f 7e f1 0e 3f c6 94 7e 3f
       0.60115284 0.60751015 0.5583724 0.9944576
000070 da 10 f8 be 4b 8d 25 3f 40 a5 00 3f 87 3e 02 3f
       -0.48450357 0.6466872 0.5025215 0.5087666

features.0.0.normalize.bias f4 [32]
000000 8d ac a5 be fe 19 84 3d a6 c9 59 be 0b 41 09 3e
       -0.32358208 0.0645027 -0.21268329 0.13403718
000010 d3 45 d2 3e 20 30 b7 3e 27 33 91 3f 11 ef f0 3d
       0.41068897 0.35778904 1.1343735 0.11764348
000020 5b d5 25 3e fa b7 6b 3f 7b 80 b9 3c 23 ec b6 3e
       0.1619467 0.920776 0.022644272 0.35727033
000030 7a 03 04 bf 79 68 ee 3e f6 a5 ca be ce bb 0f be
       -0.51567805 0.4656408 -0.39579743 -0.14036486
000040 c6 c3 7d be 9a c7 10 bf 3e be 0c bf bd 00 51 3b
       -0.24781713 -0.5655457 -0.54977787 0.003189131
000050 06 76 32 3e 37 22 8d 3d 47 ed 15 3e 29 be ca 3d
       0.17427835 0.068912916 0.14641295 0.098995514
000060 7e 72 70 3e 93 9b a5 be 76 33 48 3f d8 ec cc bd
       0.23481175 -0.32345256 0.78203523 -0.10006112
000070 b6 1c a3 3e 77 ff ba 3e 61 22 55 3d e2 2f 95 bd
       0.31857842 0.3652303 0.05203474 -0.072845235

features.0.0.normalize.running_mean f4 [32]
000000 fb 18 aa 42 22 af 4f 40 0f 9c e5 c2 74 1c f2 c1
       85.04879 3.2450643 -114.8048 -30.263893
000010 e3 6f 82 c2 90 2a b7 c1 e1 bb 58 c2 ce 37 01 c1
       -65.21853 -22.895782 -54.183475 -8.076124
000020 68 92 60 3f c1 37 b6 42 5b a6 1d c1 7d a7 d1 3f
       0.877234 91.108894 -9.853114 1.6379238
000030 40 88 8c 43 42 94 9e c1 28 d1 20 c3 ab 18 fe c2
       281.06445 -19.822392 -160.81702 -127.04818
000040 22 f5 10 43 29 2b a2 c0 0d cd 94 c3 b9 c8 ad bf
       144.95755 -5.0677686 -297.60196 -1.3576881
000050 c8 32 91 c2 ac 8d 55 c2 79 b3 72 40 c7 79 a3 41
       -72.59918 -53.38835 3.7922041 20.434462
000060 e9 44 45 42 e8 5b e8 c1 41 e9 3f c1 b5 2d 26 c1
       49.317295 -29.044876 -11.994447 -10.386159
000070 96 52 4d c1 9c ea 71 41 5a 69 b1 c1 d8 d9 88 42
       -12.832663 15.119778 -22.176441 68.425476

features.0.0.normalize.running_var f4 [32]
000000 62 35 ea 45 01 48 22 46 15 af 36 46 11 7b 00 45
       7494.673 10386.001 11691.7705 2055.6917
000010 1f bd b2 45 6a 0e a1 45 53 2c 10 46 f1 87 bf 45
       5719.64 5153.802 9227.081 6128.9927
000020 3e f3 3d 46 a1 bb fd 45 ca 54 0d 44 4e 73 82 46
       12156.811 8119.4536 565.3248 16697.652
000030 16 d6 f8 46 6d 3f ef 45 aa 42 d6 46 e3 a7 3f 46
       31851.043 7655.928 27425.332 12265.972
000040 02 a1 2c 46 27 fc c8 45 fb 72 f4 46 2d 4b 54 45
       11048.252 6431.519 31289.49 3396.6985
000050 32 49 eb 45 5d 15 8e 46 ec 17 a5 44 f5 98 a8 45
       7529.1494 18186.682 1320.7476 5395.1196
000060 00 e0 0b 46 0d 60 7d 44 ba 61 ee 45 46 59 75 46
       8952.0 1013.5008 7628.216 15702.318
000070 a0 fd 04 46 5a 70 1f 45 21 72 8f 45 68 ad 98 45
       8511.406 2551.022 4590.266 4885.676

features.0.0.conv.weight f4 [32, 3, 3, 3]
000000 86 1b 45 3d bc 8b 1f 3d 97 7e 2e be 85 b3 3f be
       0.04812195 0.03895162 -0.17040478 -0.18720825
000010 41 b8 89 be 26 f2 54 be c9 d1 59 be aa fe 34 3e
       -0.26898387 -0.20795497 -0.21271433 0.17675272
000020 31 e0 c5 bd f0 4e 0c 3e dc c0 81 3e f6 64 29 3e
       -0.09661902 0.13701987 0.25342453 0.1654242
000030 e5 32 13 3c 0a bc 26 3e 31 3d 11 3e d3 b5 22 3e
       0.008984302 0.16282669 0.14183499 0.15889673
000040 2c b2 98 3f 5d af a4 3e a4 12 2f be 9f 1f 98 bd
       1.1929374 0.32165042 -0.17096955 -0.07427906
000050 0b 05 ad be 41 24 49 bb d9 ae ca bd f2 1c e3 be
       -0.3379291 -0.0030691775 -0.09896631 -0.4435802
000060 80 16 40 3d 1e 69 c8 3e bd d8 72 be 37 81 5a 3e
       0.046896458 0.39142698 -0.23715492 0.21338354
000070 56 bd 06 3f 1e 2d d6 3e 29 a7 1f 3d 41 65 c0 3d
       0.52632654 0.41831297 0.038977776 0.09394313
000080 c7 72 91 bb f8 72 05 bf 84 b8 62 bf 17 92 19 bf
       -0.0044387314 -0.52128553 -0.885628 -0.5998854
000090 d3 46 c9 3e fd 4b ff 3e 30 54 bd 3e 38 4f df 3d
       0.39311847 0.49862662 0.36978292 0.10903782
0000a0 72 2e e7 3e 3a 3a 17 3e 44 4d e1 bd 90 bb c4 be
       0.45152622 0.14768305 -0.110010654 -0.3842435
0000b0 8b 8d 71 be 68 cb cc bd 7b 90 c4 bd 71 d3 41 be
       -0.2358915 -0.09999734 -0.0959787 -0.18928315
0000c0 73 84 d4 bc de ea d5 3c bb ee 55 bb e7 e1 72 3a
       -0.025942063 0.02611297 -0.0032643515 0.00092652295
0000d0 b7 0a f3 bd dc c3 ea 3c 83 ad 47 3d b9 15 87 bd
       -0.11867278 0.028657846 0.048749458 -0.0659594
0000e0 34 35 e9 bd 07 65 fb bd 7d 6b 71 3d 62 fd f4 bc
       -0.11387101 -0.12275129 0.0589404 -0.029905979
0000f0 a4 20 25 be 74 e2 8f bd 9d c1 3c 3e db f7 14 3e
       -0.16125733 -0.070256144 0.18433233 0.14547674
000100 21 2d 82 bd 4f 55 64 be 16 a1 fd bd 46 26 a4 3e
       -0.06356264 -0.22298168 -0.1238424 0.3206045
000110 50 d1 6e bd 62 bd bc bd 50 fa 13 3d a1 ea a1 3e
       -0.058305085 -0.092158094 0.03612739 0.3162432
000120 14 92 da be 92 42 89 be c4 67 23 be 9e 9a 81 bf
       -0.42689574 -0.26808602 -0.15957552 -1.012531
000130 cb 5b 84 3e d6 87 83 3e b8 10 fe be 24 8c 26 be
       0.25851282 0.25689572 -0.4962213 -0.16264397
000140 0e 7b 49 3f 16 c8 9d 3d 84 93 3c 3f 25 b9 05 3f
       0.7870339 0.07704179 0.7366259 0.52235633
000150 e5 6a 17 3e 44 0b 7f 3e 6e 3c 85 bc 86 e0 83 be
       0.14786871 0.24906641 -0.016264167 -0.25757235
000160 99 6f 29 be 29 89 d4 be df 3f ec bd fc 23 2c bf
       -0.16546477 -0.41510895 -0.1153562 -0.6724241
000170 38 3f 12 bf fd 68 45 be c3 fd b4 be ea 30 f2 bd
       -0.57127714 -0.19278331 -0.35349855 -0.11825736
000180 79 e1 3a 3e 67 e7 9f 3d 8f 6b 97 3e a2 f8 16 3d
       0.18250073 0.07807808 0.29574248 0.03685821
000190 e5 09 71 be e2 bb d7 bd 78 43 5a bd 8f 3d 80 bc
       -0.2353893 -0.10533883 -0.053287 -0.015654353
0001a0 03 43 96 3e bd 39 ef 3d f2 e1 ff 3d 53 5e f6 3d
       0.29348 0.116809346 0.124942675 0.1202971
0001b0 4a 78 f9 bd 8e 74 e0 3d 14 bf 53 be 85 71 94 3e
       -0.121811464 0.10959731 -0.2067836 0.2899286
0001c0 63 59 3c bf 33 e3 d8 3e 94 cc bd be ae 6b 19 3f
       -0.73573893 0.4236084 -0.37070143 0.5992993
0001d0 f9 5b 9a be 3b 56 8d bb 3c 4c f2 3d b3 68 a7 bd
       -0.30148295 -0.004313258 0.11830947 -0.08174267
0001e0 55 21 a2 3e b5 2e 3b bf 6f cd c0 3e 1e db d2 be
       0.31666055 -0.73118144 0.37656733 -0.41182798
0001f0 36 ec 26 3f 41 9c e1 be 94 d3 2d bd 2f c0 af 3d
       0.6520418 -0.44064525 -0.042438105 0.08581578
000200 0b 4e 5d bd 42 82 37 3e f2 c4 23 bf 1f 7c f5 3e
       -0.054029506 0.17920783 -0.6397239 0.4794626
000210 d5 b6 4d be 5a 6a 19 3f 9d 34 03 bf 1a 78 52 be
       -0.20089276 0.59927905 -0.51252156 -0.20553628
000220 22 35 f3 be f2 a5 d6 be 54 15 e1 bd d6 57 fa bd
       -0.47501475 -0.4192348 -0.10990396 -0.122237846
000230 25 95 c4 bd 10 5f 68 3e f0 78 dc 3e 56 01 65 3f
       -0.095987596 0.22692513 0.43061018 0.89455163
000240 d1 5e 02 be 2c 09 01 be 14 f1 92 be ad 89 65 be
       -0.12731482 -0.12601155 -0.28699553 -0.224158
000250 15 8c 05 be f6 33 5b bd 56 d2 bb bd ed 53 84 bd
       -0.13041718 -0.05351635 -0.09170978 -0.0646132
000260 65 21 ae 3e 6a 40 e6 3d 41 15 97 3e 0b cb 93 3e
       0.34009853 0.11242755 0.29508403 0.28865847
000270 57 a8 aa 3c 09 bd b0 3b c2 0f 1b be be 04 9d be
       0.020832224 0.0053936285 -0.1514273 -0.3066768
000280 a2 c1 5f be 6d 82 e5 3e 4d 19 28 3e e3 61 32 3f
       -0.21851209 0.4482607 0.16415901 0.69680613
000290 b1 50 79 bd c2 45 56 bf 05 6e 95 bd 8c a0 10 bf
       -0.06086797 -0.8370019 -0.07296375 -0.56494975
0002a0 e8 0e b3 bd 62 7c 06 3f 29 81 6c bd a7 fc 87 bd
       -0.087430775 0.52533543 -0.057740364 -0.066399865
0002b0 e3 2e f8 3e 69 65 c0 3d d0 0c 4d bf 2a 3a a8 be
       0.48473272 0.093943425 -0.80097675 -0.32856876
0002c0 d9 c7 15 bf 9c bf 11 3e 4e 8c 00 3f c4 13 8d 3d
       -0.5850807 0.1423325 0.5021409 0.068885356
0002d0 ab fe 22 3e 6b 10 9c 3e 61 03 11 3d f3 08 53 be
       0.1591746 0.30481276 0.035403613 -0.20608883
0002e0 79 dd 40 be 4f e5 16 be db 5d fa 3d 11 01 94 3e
       -0.18834485 -0.14735912 0.12224933 0.28907064
0002f0 f9 27 09 bd b0 a7 0e bf a8 49 c6 3e 67 76 90 be
       -0.033485387 -0.5572462 0.3872807 -0.28215334
000300 a0 76 19 bd 5d ce 53 3f dd 35 3c 3d a2 e5 ad be
       -0.037466645 0.8273676 0.045949806 -0.33964258
000310 61 35 b6 3e 96 7c aa be 8b f2 ad be cf 7a b6 3e
       0.355876 -0.33298177 -0.33974108 0.3564057
000320 e9 aa d7 be 1e 30 81 be 17 95 e6 3e 68 c0 1b be
       -0.42122582 -0.25232023 0.45035622 -0.15210116
000330 27 32 f8 be 4c 1b eb 3e e8 88 9d be b8 16 da 3d
       -0.48475763 0.45919263 -0.30768514 0.106488645
000340 ef e4 9f 3e b7 de e6 3d f6 8d 63 be 12 ca f2 3d
       0.3122935 0.11272948 -0.22222123 0.11854948
000350 d2 e0 83 be 40 94 44 3d 88 40 a2 3e 99 bc 59 3d
       -0.25757462 0.047992945 0.31689858 0.053158376
000360 2a f5 59 3e 5e 27 cb 3d 36 0f 04 be 9c d1 9d 3e
       0.21284929 0.09919618 -0.12896428 0.30823982
000370 b7 ce 03 3d 34 6e 73 be 17 e9 a9 3d c4 fc 05 3e
       0.03217956 -0.23772508 0.082964115 0.13084704
000380 f5 3c c2 bd 35 c3 23 3e e2 b3 f8 3d 1f 04 b4 be
       -0.09484283 0.15992434 0.12143685 -0.35159394
000390 22 ea 02 3f 6c 01 ab bd 52 d3 f6 be 51 0d ee 3d
       0.5113851 -0.083498806 -0.482081 0.11623634
0003a0 6e 07 2f bd d1 d7 fa bd 8a db 2c 3f d8 0d 8e bc
       -0.042731695 -0.12248195 0.6752249 -0.017340586
0003b0 cc ff 20 bf d9 a8 44 3f 6e 1e 86 be 2b 5d 0f bf
       -0.62890315 0.7682014 -0.2619509 -0.5600154
0003c0 f8 00 0d 3d 75 e0 84 bd 14 44 4d be 85 00 0a bf
       0.034424752 -0.06488124 -0.20045501 -0.5390704
0003d0 5c 85 0e 3f 2b df 3b bd aa 37 80 bd 61 89 4c be
       0.5567224 -0.045867126 -0.06260617 -0.19974281
0003e0 71 30 8e 3e c1 e3 18 3f fb ba 68 be 13 9f 6d be
       0.27771333 0.59722525 -0.22727577 -0.23205213
0003f0 49 e5 2d bf 3d bc 1d 3f 8d 8d 81 bd 3f b4 85 bb
       -0.67927986 0.61615354 -0.06325827 -0.004080325

features.0.0.conv.bias f4 [32]
000000 d2 e3 00 3c fe f5 57 3c 3a 40 bb ba 05 bd 87 bb
       0.007866817 0.013181208 -0.0014286109 -0.004142406
000010 79 fa 33 3b 6e 37 f8 bb de 61 4c 3b 8e 34 8b ba
       0.0027462526 -0.007574967 0.0031186263 -0.0010620521
000020 11 1a de b9 68 a6 06 bb c5 46 31 3c 1c a4 84 bb
       -0.0004236256 -0.0020545963 0.010820095 -0.0040478837
000030 55 d1 79 bb e3 38 c8 ba 51 64 07 ba ac 23 fd bb
       -0.0038119156 -0.0015275743 -0.00051647896 -0.0077251997
000040 19 a1 39 bb 59 7f 92 3a 0f 29 09 3d e2 57 1a bc
       -0.0028324781 0.0011176869 0.033486422 -0.009420367
000050 bb e2 25 bc bf 82 de 3b 59 b9 06 38 52 82 ba 3a
       -0.010124858 0.0067904885 3.2120708e-05 0.0014229512
000060 6a 37 0d 3b f0 af a1 3b 82 3e 73 3c fb cd d6 bb
       0.0021547922 0.0049343035 0.014846446 -0.0065553165
000070 8b 74 27 3b 4b eb 36 bc 15 19 a7 bb 30 85 e6 bb
       0.0025551643 -0.011164497 -0.0050994256 -0.00703492

features.0.1.normalize.weight f4 [32]
000000 a2 9f 34 3f d7 48 57 3f 28 27 36 3f 5a 12 58 3f
       0.7055608 0.8409552 0.711535 0.84403
000010 9f 94 30 3f 52 7f 57 3f 69 12 1c 3f 03 99 65 3f
       0.6897678 0.8417865 0.6096559 0.896866
000020 bf b5 27 3f f4 ed 6d 3f c8 78 02 3f 1d 3a 72 3f
       0.655117 0.9294121 0.5096555 0.94619924
000030 7b a2 ab 3e f1 53 3f 3f 63 99 3a 3f 28 b4 00 3f
       0.335224 0.7473746 0.728903 0.50274897
000040 b4 49 e7 3e 42 8c 41 3f b6 1c 34 3f 44 9b e5 3e
       0.4517342 0.7560464 0.7035631 0.4484502
000050 1a 69 43 3f bf 27 32 3f f9 01 38 3f 42 61 fb 3e
       0.7633225 0.695919 0.7187801 0.4909764
000060 6b 45 96 3e 90 e1 1a 3f 78 ac 42 3f 62 03 14 3f
       0.29349837 0.6050043 0.76044416 0.5781766
000070 af 4a 1d 3f 85 73 2f 3f c2 84 24 3f 05 ce 34 3f
       0.61442083 0.68535644 0.6426507 0.7062686

features.0.1.normalize.bias f4 [32]
000000 16 02 54 bd 47 67 b8 be 76 76 96 be 5a e7 bd be
       -0.0517598 -0.36016294 -0.29387254 -0.3709057
000010 32 96 ad be 7d aa 97 be 0d 05 81 bc 7b 45 70 be
       -0.33903652 -0.2962226 -0.015749479 -0.23464005
000020 13 5c 82 be f8 b5 02 bf 0d 41 e4 bd ff f5 30 bf
       -0.25460872 -0.5105891 -0.1114522 -0.6912536
000030 a6 9e 93 3f 1e 04 78 be 66 2a 6a be 5b 07 13 be
       1.1532791 -0.2422032 -0.22867736 -0.14358275
000040 53 3d 68 3d e3 83 38 be 0e 3a ad be 3c df d4 bd
       0.05669911 -0.18019061 -0.33833355 -0.10394141
000050 2d f5 be be bc 9b b5 bd a1 9b b8 be b0 d0 58 be
       -0.3729643 -0.088675946 -0.36056235 -0.21173358
000060 d8 ca a7 3f 40 cc 28 be f3 d6 c6 be 93 ca 19 be
       1.3108778 -0.16484165 -0.38835868 -0.15018682
000070 b9 92 f1 be 71 d2 1a be 29 b1 67 3e f5 49 d4 be
       -0.47182253 -0.1511934 0.22626175 -0.41462675

features.0.1.normalize.running_mean f4 [32]
000000 c6 36 c6 c0 18 4b ca c0 99 71 82 c1 bc 48 0d c1
       -6.194186 -6.3216667 -16.305468 -8.830257
000010 cc 86 2e 40 62 08 35 c1 24 13 bd 3f 78 08 a0 c0
       2.7269773 -11.314547 1.4771466 -5.001034
000020 11 ba d0 bf 43 44 b5 c0 4e 85 09 c0 d4 b6 e2 c0
       -1.6306783 -5.6645827 -2.1487613 -7.084818
000030 5a bb de c0 d6 0d ac c0 cb 82 6f c0 56 57 03 40
       -6.96037 -5.376689 -3.742358 2.0522056
000040 14 47 10 bf 46 ca 5d c0 ac 10 98 c0 14 f2 de bd
       -0.56358457 -3.4654708 -4.752035 -0.108860165
000050 b7 39 96 c0 f5 fa f5 c0 d0 ec a8 c0 95 7b 19 bf
       -4.6945453 -7.6868844 -5.278908 -0.59954196
000060 cc 6f 35 c0 3d 48 23 c0 1b 20 c4 bf a2 33 95 c0
       -2.8349485 -2.551284 -1.5322298 -4.662553
000070 32 fd 3f c0 6a 17 c8 bf a0 7b 6b c0 77 e5 46 c0
       -2.9998288 -1.5632145 -3.6794205 -3.1077554

features.0.1.normalize.running_var f4 [32]
000000 cc 49 04 41 9d 02 8a 41 99 f4 ee 41 bc 17 81 41
       8.268017 17.251276 29.869432 16.13659
000010 b9 6a 23 41 a5 0e 10 42 57 b5 14 41 ea 3e 61 41
       10.213555 36.0143 9.294272 14.07786
000020 3e 01 bb 40 74 ab 92 41 6d e1 56 41 c4 a7 ea 40
       5.8439016 18.333717 13.430036 7.332979
000030 1b 84 8e 41 af 44 b3 41 1c 75 42 41 69 5d a7 40
       17.814505 22.408537 12.153591 5.2301526
000040 ff b6 98 41 dc b7 50 41 ad dc 87 41 d2 b8 45 41
       19.089354 13.044888 16.982752 12.357622
000050 47 99 19 41 02 36 a9 41 1c c8 26 41 ff 4c 09 41
       9.599921 21.151371 10.423855 8.581298
000060 6e 5d c1 40 cb ee 2b 41 b5 df bd 40 57 c1 48 41
       6.042655 10.745799 5.933558 12.547202
000070 5d c9 40 41 ef f9 6a 41 a0 5e 8a 41 30 6c 26 41
       12.049161 14.686019 17.296204 10.401413

features.0.1.conv.weight f4 [32, 32, 3, 3]
000000 53 ce 31 be fc 1e 02 be 42 66 58 bb 5d b9 c5 bd
       -0.17363863 -0.12707132 -0.0033019935 -0.09654496
000010 8f 59 95 3d 3c 52 22 3c 03 a4 a2 bd 32 ca d1 3d
       0.072924726 0.0099073015 -0.07941439 0.10243644
000020 e9 66 1c 3d 01 a8 50 bd 4b 48 eb bd 09 f8 8d be
       0.03818408 -0.05094147 -0.11488398 -0.27728298
000030 e2 d7 ae 3d b8 f0 e8 be 41 40 14 bf 6e 4f ae 3d
       0.0853727 -0.45496154 -0.57910544 0.08511244
000040 10 ed c5 be 0a 84 fe be cc 9b df bd fc 77 83 be
       -0.38657427 -0.49710113 -0.10918388 -0.25677478
000050 88 0f a5 3d 45 81 98 bd e9 8d 09 be 65 c1 8b 3e
       0.08059603 -0.07446531 -0.1343304 0.27295986
000060 89 24 47 bd 28 23 fb 3d 45 f0 7e 3e 34 3b 87 be
       -0.048618827 0.12262565 0.24896343 -0.26412356
000070 d5 76 08 bf 57 b1 8b bd e8 ef ce be e6 78 2d be
       -0.53306323 -0.06820934 -0.4041741 -0.1694065
000080 95 81 e9 3e 9d f1 d9 be 1b 71 85 3e ed f5 3a 3f
       0.45606676 -0.4256715 0.26062855 0.730315
000090 4a 95 ba 3d 2a f7 16 3d bf a3 18 3e c4 69 a3 3e
       0.09110506 0.036856808 0.14906214 0.3191663
0000a0 df af 43 3e 9a fd 45 3e 4d 0a 77 3e ce 11 7f be
       0.19110058 0.19335023 0.24125023 -0.24909136
0000b0 f0 40 16 be 55 e7 e8 bd 0d 3a 34 be 32 eb 18 be
       -0.14673209 -0.11372248 -0.1760027 -0.1493347
0000c0 be d3 0b bd 5b 20 4f be 35 04 b9 bc 39 00 27 3e
       -0.03413748 -0.20227186 -0.022585014 0.16308679
0000d0 0c 18 9b be 81 13 97 be 0d fd c9 bd cd 82 bf be
       -0.30291784 -0.29507068 -0.09862719 -0.3740448
0000e0 74 b7 40 be b3 c9 44 bd fd 45 6d be 70 a4 d4 be
       -0.18819982 -0.048043918 -0.2317123 -0.41531706
0000f0 d7 7c f0 bd 38 dd 76 be 08 c6 be bd 1a 6e ee 3d
       -0.11742561 -0.24107826 -0.09315115 0.11642094
000100 7b 97 46 be af 0a 84 bd e1 3d 93 bd 89 3b 05 be
       -0.19393723 -0.0644735 -0.07189537 -0.13010992
000110 9c be 4b 3e b6 18 50 3d 34 52 ae 3d cd 53 50 3e
       0.1989693 0.050804816 0.08511773 0.20344467
000120 20 11 0a bd ca 19 f9 3d 87 17 2a 3e 97 f1 31 3d
       -0.033707738 0.12163122 0.16610537 0.04344329
000130 2a 47 af 3e f8 ad 26 3d 38 37 75 3d 2a 36 35 3e
       0.3423398 0.040693253 0.059867114 0.17696443
000140 27 a2 30 3e a8 bc 8a 3d 80 9b 42 3d a9 01 b4 3d
       0.17249356 0.067742646 0.047511578 0.08789379
000150 0f 7a 9f 3e 35 04 28 39 58 95 d1 bd 32 8a 9f 3e
       0.3114781 0.00016023296 -0.10233563 0.31160122
000160 85 87 ad 3d 29 85 a3 be 1f 73 9c 3c e6 02 cb be
       0.08473114 -0.3193753 0.019097863 -0.3965065
000170 03 bb 5b 3e 49 d5 7f be 3c 92 8a 3d 23 95 76 bd
       0.21458058 -0.24983706 0.06766173 -0.06020082
000180 71 0d 3d be 95 16 91 3e 06 78 ac 3e 9f 90 a6 3d
       -0.18462159 0.2833754 0.3368532 0.08133053
000190 26 4a e9 bd 2e eb 14 3e 89 c9 c4 be 20 54 25 be
       -0.11391096 0.14542839 -0.3843501 -0.16145372
0001a0 49 0c 98 be 8f 7d a8 be f4 33 4b be 44 ac 34 be
       -0.29696873 -0.32908294 -0.19844037 -0.17643839
0001b0 87 59 18 bf 03 81 c0 be 46 f5 9f be 8c 15 a3 be
       -0.5951161 -0.37598428 -0.31241816 -0.31852376
0001c0 e5 07 d7 bd 69 1d 68 be 77 7d 12 bc fa 6b de 3b
       -0.10499553 -0.22667469 -0.008941046 0.006787774
0001d0 84 45 37 be e6 6f 30 bd 0d b5 9f 3d 04 c6 cb 3d
       -0.17897612 -0.043075465 0.077982046 0.09949878
0001e0 f8 05 cf bd c3 c3 fa bd 91 67 de 3c 80 f5 b7 3d
       -0.1010856 -0.1224437 0.027148994 0.08982372
0001f0 cf d9 02 bd 7f 49 c0 3d 3f a2 49 bf c6 9b 48 be
       -0.031946 0.09389018 -0.7876319 -0.19590673
000200 b3 8f d7 3e 40 48 05 bf 00 d3 96 3d 2b b9 0e 3f
       0.4210182 -0.5206337 0.07364464 0.55751294
000210 01 19 9c be 79 b0 1d 3e f5 26 e1 3e 11 13 d7 be
       -0.30487826 0.1539935 0.43975034 -0.42006734
000220 99 71 ae be 4b a5 94 be be 2e 78 be e7 21 17 bd
       -0.34071043 -0.2903236 -0.2423658 -0.036897566
000230 87 44 93 3e 9a 9d 8f be 36 2a ab 3e 29 1b 30 3f
       0.2876322 -0.28049928 0.33430642 0.68791443
000240 66 5d 29 bf c4 a8 6b be 24 1c 4c bb e5 59 1d bf
       -0.6615814 -0.23013598 -0.0031144703 -0.61465293
000250 04 5d 41 bd d3 b3 08 3f b7 52 82 be ed 7f eb 3b
       -0.047207847 0.5339939 -0.2545373 0.007186881
000260 76 8c e5 3e 17 a5 a9 be 78 78 fe bd 03 45 9f be
       0.44833726 -0.33133766 -0.12425321 -0.3110734
000270 7f 29 22 bb ca cf ad 3e 48 ef c6 3e 16 ee 18 3e
       -0.0024743972 0.33947593 0.38854432 0.14934573
000280 f0 26 87 3e 7a b8 b1 3e ee 69 0a 3e a9 91 0a 3e
       0.26396894 0.34711057 0.13516971 0.13532127
000290 a8 5a 09 3d 42 7a 3e 3e 2e fe d1 be fc db f3 be
       0.033533722 0.18601325 -0.41014236 -0.47628772
0002a0 33 a5 ff 3d de 79 96 be 08 88 b1 be 5d 10 06 be
       0.12482681 -0.29389852 -0.34674096 -0.1309218
0002b0 62 c7 9f 3e dd ae 8d 3d bd 6e cb 3e 0a 13 96 bd
       0.31206805 0.06918118 0.39732924 -0.0732785
0002c0 26 2b c4 bc 9b b0 7f 3e 23 33 94 be 4d 90 43 be
       -0.023946356 0.24969713 -0.28945264 -0.19098015
0002d0 1d 77 41 be 3c 21 11 bf 54 25 2a bd 13 07 75 be
       -0.18893094 -0.56691337 -0.041539505 -0.2392848
0002e0 22 59 4e bf ad 91 a2 3d 68 bb 97 be 7d d2 31 bf
       -0.80604756 0.07937942 -0.29635167 -0.69461805
0002f0 89 90 92 3e 3a 15 91 bd 7c b6 8c be a1 fd 02 bf
       0.28625897 -0.07084127 -0.27482975 -0.51168257
000300 f0 50 29 3e fc ce 52 be 8f 44 e2 be e1 20 ef 3e
       0.16534781 -0.20586771 -0.4419293 0.46704772
000310 cb 66 03 3e 69 6d 78 bd 21 61 d4 be dd bb 36 3d
       0.12832181 -0.060651217 -0.41480353 0.044612754
000320 b7 51 0a 3e 15 dc 10 bd d4 6c c5 b9 ae ba 8d 3e
       0.13507734 -0.035366137 -0.0003765585 0.27681488
000330 ae d3 40 3d a4 c4 19 be e9 c9 31 be 3e e8 a2 bd
       0.047076873 -0.15016419 -0.17362179 -0.07954453
000340 21 36 ca bd 41 e2 bd bd ba 6f 21 bd ca c9 6b be
       -0.098736055 -0.0927167 -0.03941319 -0.23026195
000350 07 27 f9 bd e7 d1 0d 3e 39 7d ad bd 36 2c 64 be
       -0.12165647 0.13849603 -0.0847115 -0.2228249
000360 1e e4 b6 bd 25 c2 ed 3d 30 1f f4 3d 1b fb 61 be
       -0.08930229 0.11609296 0.11920011 -0.22068445
000370 8b 78 d4 bd 13 64 d0 be b6 79 58 3c 99 99 54 be
       -0.10374554 -0.4070135 0.013212612 -0.20761718
000380 b8 dc 24 bf 94 34 e9 bc 08 21 6c 3d 08 06 b7 be
       -0.6439929 -0.028467454 0.05764869 -0.3574679
000390 a8 95 21 3e f5 4f 97 bd 02 d1 b8 3e 46 62 49 3e
       0.15779746 -0.073882975 0.3609696 0.19666395
0003a0 af e6 4f 3d d5 1d a2 3e 54 78 d3 3d c6 47 9b 3d
       0.050757106 0.31663385 0.10325685 0.07582049
0003b0 9b 23 f9 bd ac e4 3b 3e 25 73 84 bd 32 65 70 be
       -0.12164994 0.1834895 -0.064672746 -0.23476103
0003c0 7a 60 13 3e 17 93 53 be a6 73 7b be 9a d9 ab 3e
       0.14392272 -0.20661579 -0.24555835 0.33564454
0003d0 36 c1 d2 3d 40 b2 04 3d 6b 46 9d 3e 69 66 69 3e
       0.10290758 0.032396555 0.30717787 0.22792973
0003e0 5f 23 52 3d 34 13 99 3e 9f 72 aa 3e ef 2c ad 3d
       0.051303264 0.29897463 0.33290574 0.08455836
0003f0 ca aa f9 bc 90 62 2e 3d ae 18 43 3e 11 4c 19 be
       -0.030476946 0.042574465 0.19052383 -0.14970423

features.0.1.conv.bias f4 [32]
000000 44 54 3c bd 4f a8 45 bc cc 66 ae 3d a2 11 1d 3d
       -0.0459788 -0.012064054 0.08515701 0.038346894
000010 08 3d 65 bd 3b 95 1d 3c 34 47 b3 bd 2a 33 3b 3d
       -0.055966407 0.009618099 -0.08753815 0.04570309
000020 7f 86 8b bd aa 1d 0b 3d c0 9f 48 3a b0 17 15 3e
       -0.068127625 0.033963837 0.0007653199 0.14559817
000030 7e 21 8b bd 40 6f 00 bd 97 60 d2 3c b6 02 b3 3b
       -0.067934975 -0.031356096 0.025680823 0.0054629697
000040 48 9e 67 3c 91 8a 26 3c dc 03 ea ba d1 04 35 bd
       0.014136858 0.010164873 -0.0017853933 -0.044194046
000050 8b 6e 99 bd c7 70 e4 3b 2e 43 8e bd f0 52 62 bd
       -0.074917875 0.006971452 -0.06946407 -0.055254877
000060 fa 56 ba 3c 08 c5 3e bc 2a 3a 62 3b bd 5c 68 bc
       0.022746552 -0.011643656 0.0034519532 -0.014182267
000070 a3 3e 60 3b 76 6a d9 3d 7f b2 0f bd 32 96 9e bd
       0.0034217022 0.10616009 -0.035082337 -0.07743491

features.0.2.normalize.weight f4 [32]
000000 bb f6 2b 3f 61 a4 ab 3e d1 14 0d 3f 26 24 52 3e
       0.67173356 0.3352385 0.5510989 0.20521602
000010 09 b9 2f 3f 10 15 a3 3e 26 ee d6 3d 7e d8 70 3b
       0.68641716 0.31852007 0.10494642 0.0036750133
000020 b6 93 ef 3e c8 32 2c 3f 78 85 6e 3f db a9 b8 3e
       0.46792382 0.67264986 0.9317241 0.3606709
000030 c6 af 4f 3f 03 49 3e 3f 08 10 62 3f c0 4c 9a 3e
       0.81127584 0.7433016 0.8830571 0.3013668
000040 aa 8a a3 3e e6 c6 89 3f e4 27 a8 3f fb 27 46 3f
       0.3194173 1.0763824 1.3137174 0.77404755
000050 da 5b a4 3e 5b c2 c3 3e 00 53 05 3f 05 4c 9c 3e
       0.32101327 0.3823422 0.5207977 0.30526748
000060 3a 3d 03 3f 21 56 9a 3d 9f 95 02 3f 03 9d d1 3e
       0.512653 0.07535959 0.51009554 0.40940103
000070 cd 00 af 3e 1d 42 97 3e 0a b4 9a 3f 78 39 19 3f
       0.34180298 0.29542628 1.2086194 0.59853315

features.0.2.normalize.bias f4 [32]
000000 d6 62 c5 be 80 17 89 be f7 63 ae be 1f 42 7e bd
       -0.38551968 -0.26775742 -0.34060642 -0.062074777
000010 c3 b7 f9 be 41 b3 73 bd 47 35 0a 3e 99 e7 37 bd
       -0.48773012 -0.05949712 0.13496886 -0.044898603
000020 81 76 33 be f9 f3 8c be 42 92 4c bf 92 4a 7a be
       -0.17525674 -0.27529886 -0.7991067 -0.24442509
000030 31 4a 5b bf ab ea e5 be b1 0a 09 bf 10 c1 11 be
       -0.8566008 -0.449056 -0.5353194 -0.14233804
000040 a8 2e be bd 75 18 26 bf a2 f1 78 bf fe 19 00 bf
       -0.09286243 -0.6488107 -0.972437 -0.5003966
000050 48 7a cf bd 39 37 34 be 07 d2 69 be c8 35 05 be
       -0.10130745 -0.17599191 -0.22834025 -0.13008797
000060 8a 03 9a be 56 d9 f5 3e cc 2a 4f be 51 95 30 be
       -0.30080825 0.48017377 -0.2023117 -0.1724446
000070 fd 4b 69 be 27 17 11 be 79 cd 57 bf ba e1 fa bd
       -0.22782893 -0.14168988 -0.842979 -0.12250085

features.0.2.normalize.running_mean f4 [32]
000000 ab 6a 45 c0 4e 78 cd be 13 b1 e7 c0 4c 2a e7 bf
       -3.0846355 -0.40130848 -7.2403655 -1.8059783
000010 f2 ce 0b c0 46 6f d0 c0 e0 2d ac c0 8e 6c 27 bf
       -2.184506 -6.513583 -5.3806 -0.65400016
000020 69 66 2b 40 02 5b 46 be a5 15 97 bf bc f9 c1 3e
       2.6781256 -0.19370654 -1.180348 0.37885845
000030 9d bc 51 40 eb c5 32 c0 f2 f4 82 c0 a5 04 b4 c0
       3.277137 -2.79333 -4.0924006 -5.625567
000040 8f 5f 11 c0 9f 87 a1 c0 fc a8 aa c0 c2 4f 60 c0
       -2.2714574 -5.0478053 -5.333128 -3.504868
000050 70 68 2e 3e e0 4b 22 bf 6a b2 47 c1 08 c9 85 c0
       0.17032027 -0.63397026 -12.481058 -4.18079
000060 bd a2 3c 40 15 37 ff bf 5a e0 c5 3f 3a ff 2c bf
       2.9474328 -1.9938685 1.5459092 -0.67576945
000070 69 51 a3 c0 89 77 4c 3e e6 5e d5 bf 41 78 a3 c0
       -5.103688 0.19967474 -1.6669586 -5.1084294

features.0.2.normalize.running_var f4 [32]
000000 9c cb c4 40 ff 58 ea 40 cc d6 15 41 97 ea c4 40
       6.1498547 7.323364 9.364941 6.1536365
000010 f4 95 ad 40 fb e8 d0 40 72 7d c8 40 b2 34 4e 3e
       5.424555 6.52844 6.265313 0.20137289
000020 51 0f 6f 40 bd 0f 99 40 12 94 93 40 87 38 ae 40
       3.7353098 4.783171 4.611825 5.4444003
000030 9f 1a 5b 40 22 38 8f 40 ef 07 c9 40 fa 41 ff 40
       3.4234998 4.475602 6.2822185 7.976804
000040 13 08 b2 40 80 1c c1 40 b0 6f 98 40 6e 6b d4 40
       5.5634856 6.034729 4.7636337 6.638114
000050 0a 5e 90 40 a9 30 51 40 9a 58 13 41 c8 b0 c6 40
       4.5114794 3.268595 9.209131 6.2090797
000060 13 1d 92 40 c3 ef 0f 41 72 ee cd 40 f9 29 de 40
       4.566049 8.996036 6.435357 6.9426236
000070 1b 35 66 41 54 df 25 41 26 67 9d 40 14 29 ca 40
       14.387965 10.367023 4.9188414 6.3175144

features.0.2.conv.weight f4 [32, 32, 3, 3]
000000 27 61 28 3d e0 cb cb bd 1c cf 57 3d 69 bb 2f bd
       0.041108277 -0.099509954 0.05268775 -0.042903338
000010 b9 3a 4c be f5 00 09 3b ea 3a f7 3d 0e c5 a2 be
       -0.19944276 0.0020905111 0.12071784 -0.31790966
000020 fa b9 f9 bd 21 32 a6 3b a6 65 8c 3d 71 2e da 3e
       -0.12193675 0.005071894 0.068553254 0.42613557
000030 d0 09 31 3d 9d e8 6f bd 02 41 f9 bd 16 b8 51 3e
       0.04322225 -0.058571447 -0.121706024 0.2048038
000040 2e ee 19 3e f9 76 35 3d 9a c3 a4 3b 69 8e 83 be
       0.15032265 0.044302914 0.0050282003 -0.25694588
000050 7e 1f 55 bd 30 51 17 be 63 cb cb be 5b c2 f7 bc
       -0.052031986 -0.14777064 -0.3980361 -0.030244043
000060 63 09 04 bf 3c 5b b1 be 9c a8 c5 bd 39 a8 a2 3e
       -0.51576823 -0.3463992 -0.096513 0.3176897
000070 19 84 03 3f 46 9a 5d be 7b 74 2c be 59 94 81 3e
       0.5137344 -0.21640882 -0.16841309 0.25308493
000080 55 63 a5 3e 02 4f f7 bd ca 0d fa bd 21 a6 a1 3e
       0.32302347 -0.120756164 -0.12209661 0.3157206
000090 e3 b3 fa bd 43 26 0b 3e dc 26 08 bf f5 c4 29 bd
       -0.12241342 0.13588814 -0.53184295 -0.0414476
0000a0 99 1a 0b 3e c9 81 d7 be c1 14 8d be 81 a4 77 bd
       0.13584365 -0.42091206 -0.27554896 -0.060459618
0000b0 89 e4 72 be 56 6b 60 3e 25 b9 c4 3e 15 c6 a0 be
       -0.23719992 0.21915945 0.38422504 -0.31401125
0000c0 97 12 71 be 64 d7 ab 3e 94 d8 e2 bd 8d 8d e6 3d
       -0.23542248 0.33562768 -0.11076465 0.112574674
0000d0 f8 58 73 3e 31 f4 31 3f 5e 02 02 bd 93 68 1e 3e
       0.23764408 0.6951323 -0.03174054 0.1546958
0000e0 d1 b4 43 3e 5d 8f 02 bf 15 70 22 be d5 75 c5 be
       0.19111945 -0.51000005 -0.15863068 -0.3856646
0000f0 7e 36 03 bf b5 bf b9 3d dd b2 86 be 04 1a 09 be
       -0.51255023 0.09069768 -0.26308337 -0.1338883
000100 eb 44 60 3e 0e ed 23 3e 90 4a 81 bd 1d a7 50 3d
       0.2190129 0.16008398 -0.0631305 0.05094062
000110 41 a0 be 3d f0 f3 ed bd 48 9a e8 3d 65 d1 08 3d
       0.0930791 -0.11618793 0.11357552 0.03340282
000120 96 b4 5e 3e da 1f 2e bc a4 52 74 bd c3 c9 1e be
       0.21748576 -0.010627711 -0.059649125 -0.15506653
000130 e7 df 81 be 0b 4d 0e bd bd e2 ec be a8 ec f6 bd
       -0.25366136 -0.034741443 -0.46266738 -0.12056857
000140 76 ce 2b be ec 8f 89 3d 6d d8 3f be ec 29 06 be
       -0.16777977 0.06716904 -0.18734904 -0.1310193
000150 81 32 ba be 44 2f 08 bf 03 55 25 bf 3b 05 80 bf
       -0.36366656 -0.5319712 -0.6458284 -1.0001596
000160 73 52 13 bf 6e 3a 41 bf ea eb c0 3e 7b 6b 08 3e
       -0.5754768 -0.7547978 0.37679988 0.1332225
000170 de 6b 33 3f 6c 34 71 3e a2 f5 de 3d 3d 6b ac 3e
       0.7008647 0.23555154 0.108866945 0.33675566
000180 8d d4 9e be 04 a7 26 3d 4e 09 98 be 3f fb b8 be
       -0.31021538 0.040686622 -0.296946 -0.36129186
000190 23 42 1b be bb 48 29 bd ba 8b c6 bd f5 14 86 be
       -0.15161948 -0.041329127 -0.096946195 -0.26187864
0001a0 fb bf ea 3d ce 67 3e 3e 59 6a 1c 3e 34 1f 65 3e
       0.114623986 0.18594286 0.15274943 0.22375184
0001b0 e4 f2 3b 3e 20 ac 91 3e 71 6f 74 3d 4b 82 be be
       0.18354374 0.28451633 0.05967659 -0.3720878
0001c0 4f b4 88 bd 2b 4c 80 bc c2 8e c9 be 1e 88 2c be
       -0.06675016 -0.01566132 -0.39366728 -0.168488
0001d0 a7 a3 1f 3e c5 64 4e 3e bb ea 01 3d 1d a4 97 be
       0.15589772 0.20155628 0.031717997 -0.29617396
0001e0 ed 39 fc bc b1 da 10 3e e4 30 e3 bd 34 40 01 bd
       -0.03078934 0.14145924 -0.110933095 -0.03155537
0001f0 18 c2 15 3d 2a 09 f0 3e ac f1 d7 3e 1e 46 3a 3e
       0.036562055 0.46881992 0.42176569 0.1819081
000200 97 fc 76 be 7a ff 15 be 42 38 00 3f 22 0b 80 3d
       -0.24119793 -0.14648238 0.5008584 0.062521234
000210 55 7b af 3c 7c 4c f6 3e 15 c3 09 3f 1e c3 5f 3e
       0.021421114 0.48105228 0.53813297 0.21851775
000220 6e 04 86 bd a8 c9 63 3d f9 26 37 be 10 1d 99 3d
       -0.06543814 0.055612236 -0.1788596 0.07476246
000230 19 6c 15 3e 41 27 11 3e d9 58 9e 3e 14 a8 dd 3e
       0.14592017 0.1417513 0.3092716 0.43292296
000240 0c e0 98 3e 1b aa 91 bd 52 4a 75 be 8a 22 d5 bd
       0.29858434 -0.07112523 -0.23954132 -0.104069784
000250 c7 ad ac be 59 25 fb bd 85 82 c8 be 88 76 d7 be
       -0.33726332 -0.12262983 -0.39162078 -0.4208262
000260 e3 06 58 be 2e 66 06 3c 32 ea 1d 3d d8 69 5e be
       -0.21096377 0.0082030725 0.038553424 -0.21720064
000270 cf b5 41 be 18 a4 63 bd 7b 7c 9d be 4d 4e 9d be
       -0.1891701 -0.055576414 -0.30759034 -0.307238
000280 63 6b 7f bd bb 30 9d be d7 48 31 3e 8f 77 18 3f
       -0.06235827 -0.3070124 0.17312942 0.5955743
000290 b5 69 10 3f e0 a8 67 3e 4f 23 9e 3c ce dc 0a 3e
       0.56411296 0.22623014 0.019303946 0.13560793
0002a0 00 d7 a4 3e c5 d9 1d 3e f3 aa c8 bd 33 04 c8 3d
       0.32195282 0.15415104 -0.09798231 0.09766426
0002b0 20 ec f3 bd e4 c0 72 3a 90 06 99 3d 2d e4 7d 3e
       -0.11910272 0.00092603103 0.07471955 0.24794073
0002c0 6a c3 65 be e2 c4 0b 3e c4 4b 38 3e f3 7c 5d be
       -0.22437826 0.13649324 0.17997652 -0.21629696
0002d0 c7 4c 5e bd de 3c 92 3e 0e 9a b7 bc 59 e1 11 be
       -0.05427244 0.28562063 -0.022412326 -0.1424612
0002e0 42 ce 9b 3d 9a da bf be 81 95 61 be 7f f0 b8 bd
       0.076077 -0.37471467 -0.22029687 -0.09030246
0002f0 86 43 ba be cd 1b 34 3d 32 35 a9 3e 45 28 38 3e
       -0.3637964 0.043971825 0.33048397 0.17984112
000300 1f e5 f5 bc 62 65 d6 be cd 1c a9 bd 33 e4 fc be
       -0.03001648 -0.41874224 -0.082574464 -0.49392852
000310 61 43 38 be 41 55 eb bd 5c 0e 1c be bb 8b c4 bd
       -0.17994453 -0.1149087 -0.15239853 -0.09596964
000320 6d a1 f4 bd 24 84 d2 be c2 f6 93 be 4c 45 7e be
       -0.11944852 -0.4111644 -0.288992 -0.24831122
000330 a1 e1 d2 be ef 05 a5 be a5 03 b3 be 0e a3 6f 3e
       -0.41187766 -0.3223109 -0.34963718 0.23402044
000340 bb e9 f3 bd a9 97 bb 3d d3 91 0f 3e 81 ef 87 3e
       -0.11909815 0.09159786 0.14020471 0.26549914
000350 0e 3a dd be b5 ee bf be dd 39 82 3c 8f ac 9c bd
       -0.43208355 -0.37486807 0.015896732 -0.076501004
000360 12 dd b9 bc 66 de 3a be 84 2c 1f 3f b2 6e 3c be
       -0.022688422 -0.18248901 0.621773 -0.18401602
000370 53 08 39 be 20 8b 0c be 72 8a 9d bd 47 43 44 3e
       -0.18069582 -0.13724947 -0.07692422 0.1916629
000380 dd c2 db bd c2 0f 57 be 4e 0b 56 bd e5 8d 47 be
       -0.107305266 -0.21002105 -0.052256875 -0.19487722
000390 b6 d2 44 bd 2d b8 c0 39 7d e3 17 bd 49 39 f9 bd
       -0.048052512 0.00036758315 -0.037082184 -0.121691294
0003a0 6c 96 6f 3d 9f 11 0d bc 3e 5e 8c bc 2d ec b3 3d
       0.058493063 -0.008610158 -0.017134782 0.08785281
0003b0 55 cd 6f 3e 7f 3e 8d 3c 86 1c b0 3d f8 23 4e 3c
       0.23418172 0.017241715 0.085991904 0.012581818
0003c0 4b db cc 3d fb 9e ca 3d 09 60 24 3e 21 27 8a bd
       0.10002764 0.09893604 0.1605226 -0.067457445
0003d0 0b d8 97 3d f8 d7 31 3e 24 2a 95 be db 5f 2d be
       0.07414254 0.17367542 -0.29133713 -0.16931097
0003e0 69 0c bf 3d f0 25 33 3d 03 b3 73 be 7e 3f 89 3e
       0.09328539 0.043737352 -0.23798756 0.26806253
0003f0 9d 4c 57 3e 66 f7 d9 3d 98 45 01 3e d4 75 21 be
       0.2102532 0.10642891 0.12624204 -0.15767604

features.0.2.conv.bias f4 [32]
000000 f2 24 16 3d f7 c9 ed bc 64 d9 80 3c 51 1b 03 bd
       0.036656328 -0.029026968 0.01572866 -0.032008473
000010 e1 b0 21 bd e7 b9 49 bc 91 07 4c 3a b6 01 42 ba
       -0.039475325 -0.012312389 0.000778311 -0.00074007676
000020 15 57 84 3c ee 1f 40 3a 3a 8e ba 3c 9f a3 8e 3c
       0.016154805 0.00073289766 0.022772897 0.017412005
000030 62 e6 56 bd 16 25 85 bc 72 64 33 3c 1e 54 4f 3c
       -0.052465804 -0.016253036 0.010949241 0.012654332
000040 77 70 48 3c b3 2a b9 3d 38 d9 8f 3b d5 73 2d 3d
       0.012233845 0.09041347 0.004389908 0.042346794
000050 dc 47 20 bc 69 57 9f b9 0a 92 b5 3d 17 6b 42 3b
       -0.009782758 -0.0003039197 0.08865745 0.0029665881
000060 a9 34 d7 bc 2b 82 79 3a 1b fc ce bd ec 4f a7 3c
       -0.026270228 0.0009517993 -0.10106679 0.020423852
000070 f2 fb 37 bd 25 a6 ac bb a8 f8 96 3d 23 a7 a4 bc
       -0.04491801 -0.0052688294 0.07371646 -0.020099228

features.0.3.normalize.weight f4 [32]
000000 f1 1e 05 3f d9 68 02 3c 48 46 57 bc 43 09 80 3f
       0.5200034 0.007959568 -0.013139315 1.0002826
000010 8d 45 a8 bb c9 d2 8a 3f 8d 19 a3 3f b1 df 80 3d
       -0.005135244 1.0845577 1.2742172 0.06292666
000020 1a 1e 38 3c 10 a2 8a 3d a5 2a 88 3f 9a 5f 06 3f
       0.0112376455 0.06769192 1.0638014 0.52489626
000030 cb 76 81 3f 1b 9c 67 3f 65 32 ce 3b 4a d3 04 3f
       1.0114378 0.90472573 0.0062926286 0.518849
000040 90 e6 b1 3f 10 11 4b 3c 75 d9 5a 3f f6 43 5e 3f
       1.3898487 0.012394205 0.85488063 0.8682245
000050 7d c1 93 3f f1 a2 03 3f 98 a4 6a 3f bc 32 a2 3c
       1.1543423 0.51420504 0.916574 0.019799583
000060 67 88 8e 39 97 63 03 3d 24 c7 70 3f b1 62 93 3d
       0.00027185978 0.0320774 0.94053864 0.07196558
000070 6a 3c 91 3d e9 3b 06 3f 1c 7b 40 bb 38 f4 d5 3a
       0.07091601 0.52435166 -0.0029370254 0.0016323393

features.0.3.normalize.bias f4 [32]
000000 c2 64 bb be 3f 88 68 be 8c c2 c2 3d 8b 57 27 bf
       -0.3660031 -0.22708224 0.09509763 -0.65367955
000010 f8 a6 35 bd 39 5b 2d be 17 39 88 bf 97 83 ea be
       -0.044348687 -0.1692933 -1.0642422 -0.4580352
000020 69 b6 40 be 4e bc 8c be 07 4b 4b bf de f1 c3 be
       -0.18819584 -0.27487415 -0.7941136 -0.38270468
000030 80 19 d3 bf 22 33 8a be df 08 2d be 65 f6 cc be
       -1.6492157 -0.26992136 -0.16897915 -0.40031734
000040 5c 51 79 bf 38 2f f4 bd 49 93 7e be 24 06 92 be
       -0.9738977 -0.11923069 -0.24860872 -0.2852031
000050 f6 a0 e0 be c4 87 c9 be 34 32 5c be 5e 6e 06 be
       -0.43872803 -0.39361393 -0.21503526 -0.13128039
000060 dd 67 32 bb 23 5b 9e be 68 11 ab be 91 bf 0d be
       -0.0027222552 -0.30928907 -0.33411717 -0.13842608
000070 9d 4f a7 be dd 71 ca be e7 76 c2 3d 35 e5 9b 3d
       -0.32677928 -0.39539996 0.09495335 0.07612077

features.0.3.normalize.running_mean f4 [32]
000000 93 34 30 3f 9a 35 61 3f d1 0d 86 3f 70 eb 46 bf
       0.6883022 0.87972414 1.0472966 -0.77703
000010 3f ac e0 3e c9 d7 ea 3f a1 cc e7 3d 67 5f 99 bf
       0.43881413 1.8347102 0.11318327 -1.198224
000020 71 20 4f be db 15 0b 3d a7 33 8a 3e e4 57 18 3f
       -0.20227219 0.03395639 0.26992533 0.5950911
000030 8e a6 d7 bf c2 a3 c1 3f b7 41 6f bf 0b 57 27 3e
       -1.6847703 1.51281 -0.9345965 0.16341798
000040 6b 86 d3 be 46 cc 39 3e 1e 05 a9 3f e4 b8 49 3f
       -0.4131349 0.1814433 1.3204687 0.78797746
000050 9e 69 d0 bf 8c 63 f4 3d d2 10 be bf 3b ca 7f 3e
       -1.6282232 0.119330496 -1.4848883 0.24979489
000060 47 3b 9b 3e c8 dc 6c 3f 15 15 1e 3f f5 26 8b be
       0.30318663 0.92524385 0.6175092 -0.2717816
000070 84 b9 97 bf 12 4e 79 3e 07 32 9e 3f 9e ca 69 3f
       -1.185349 0.24346188 1.2359017 0.91324794

features.0.3.normalize.running_var f4 [32]
000000 fc 19 86 3d 37 6c 2d 3f 7d 04 b0 3f 39 57 fe 3f
       0.06547925 0.6774325 1.375137 1.9870368
000010 bf 99 b4 3d 72 52 e9 3f 2d 0b f5 3f 73 ad ef 3e
       0.08818387 1.8228285 1.9144036 0.4681202
000020 e4 f3 04 3e fc 1a 83 3e 73 55 0a 40 f7 b8 8f 3d
       0.12983662 0.25606525 2.1614654 0.07017701
000030 9f a8 c8 3f 51 a0 ed 3f 77 1f 92 3e dd ec 98 3d
       1.5676459 1.856455 0.2853963 0.07467053
000040 47 86 c4 3f be 0c 61 3f e9 62 b3 3f b1 e4 cb 3f
       1.5353478 0.8791007 1.401456 1.5929166
000050 02 f0 05 40 48 52 8f 3d 2a 22 9b 3f 47 a8 17 3f
       2.092774 0.06998116 1.2119801 0.59241146
000060 5d fc 6d 3d 3e f5 2f 3f d2 11 e8 3f cd f4 99 3f
       0.058102 0.68733585 1.8130438 1.2027832
000070 47 26 3c 3e 8b 6f 93 3d 6d 5c df 3f d3 3b c5 3f
       0.18373977 0.071990095 1.7450081 1.5408882

features.0.3.conv.weight f4 [32, 32, 3, 3]
000000 37 33 61 3a 56 a3 f4 bb 9c 59 11 3d 5c 5a 12 3a
       0.00085907005 -0.00746576 0.03548585 0.00055829226
000010 2a f2 fe bc 23 50 07 bd 6b a0 13 bb b3 6b 5e 3c
       -0.031121332 -0.03303541 -0.0022526036 0.013575482
000020 39 63 55 bc 64 20 e3 bc ef 1c 7a bd bc ab cd 3c
       -0.013024145 -0.027725406 -0.06106275 0.025106303
000030 eb 25 9f bc 3b 0d 4d bd 7b 16 12 3d e9 64 6b bd
       -0.01942726 -0.050061446 0.03566597 -0.057469282
000040 ab cd 31 bd e8 d4 2d bb f0 52 a0 bd 96 3f bd bd
       -0.04340903 -0.0026524607 -0.07828319 -0.09240644
000050 fe 2f 7a bd d2 97 54 bd 08 43 9e bd df e5 11 bd
       -0.061080925 -0.0519026 -0.07727629 -0.035619613
000060 fc cd 2b 3d ac aa dd bc fd a7 0b bd 70 44 cb bc
       0.04194449 -0.027058922 -0.034095753 -0.024812907
000070 30 ae 0c bd 3e 77 9d bb 7c 70 64 3d d4 30 71 bc
       -0.034345806 -0.0048054745 0.055771336 -0.014721114
000080 fb 72 f5 3c 17 df bd 3d 71 fd aa 3d 9b d6 cc 3d
       0.029962054 0.09271067 0.08349121 0.1000187
000090 f9 e9 50 3c ff ab 91 bc b5 c2 ef bc 62 dd 19 3d
       0.012751096 -0.01778221 -0.029267648 0.037564643
0000a0 0d ad 40 ba f4 02 87 3b d6 68 a8 ba 01 64 21 3d
       -0.00073500053 0.004120225 -0.0012848626 0.03940201
0000b0 ac 9a a8 bc 0a 6d 58 39 13 45 b9 3c e6 62 89 3d
       -0.020581566 0.00020639985 0.022615945 0.067083165
0000c0 19 8d 31 bc 3e f5 05 3d d7 07 b5 bc 64 2b a7 bb
       -0.010836863 0.032704584 -0.022098465 -0.005101608
0000d0 10 3e 02 3c 4f 72 42 3d 38 6a 43 3e 3e 0f f1 3d
       0.007949367 0.047472294 0.19083488 0.11770485
0000e0 c5 63 8e bb 57 d1 b9 3c 07 97 37 bb 0f 1a 49 3d
       -0.0043453895 0.022682829 -0.0028013603 0.049097117
0000f0 e4 d4 8c 3d bb 06 8b 3c 1d 1c 68 3d 7d c4 e7 3a
       0.06876543 0.016970983 0.056667436 0.001768246
000100 b7 49 8b bd a4 95 d9 3d 4e 2a 9f bd c8 7c f8 bc
       -0.06801169 0.10624245 -0.07771741 -0.030332938
000110 c3 10 3d 3d a4 9c 56 3d 41 8b d3 bc de ee 22 bd
       0.046158563 0.052395478 -0.025823237 -0.039778583
000120 fb f2 ac bc 1e 1c 13 3d 2a 19 55 3d bc 88 dd 3c
       -0.021111956 0.035915487 0.05202595 0.02704274
000130 eb d1 dc 3c 99 f0 aa 3c d0 7e f3 bc eb c7 6b 3b
       0.026955565 0.020866679 -0.029723555 0.0035977315
000140 a2 a7 8c 3c 35 ce 13 3c 06 49 13 3d d9 b8 63 3d
       0.017169777 0.009021332 0.035958312 0.055596206
000150 5c b4 13 3d 64 e8 03 bc 24 91 05 3d 63 eb 05 bb
       0.036060676 -0.008051012 0.03260912 -0.002043449
000160 ce b7 96 3c 6a c0 9e bb 71 ce d7 3c fb 55 8b bc
       0.018398192 -0.004844715 0.026343556 -0.017008772
000170 b6 34 6f bc 51 7d f6 bc de 3c eb bc d2 7d 0c bc
       -0.01459997 -0.030089052 -0.028715547 -0.00857492
000180 f0 38 37 3c 0b 4b be 3c 4c 0f 19 3b e3 d5 85 bd
       0.011183009 0.023229143 0.0023355065 -0.06534936
000190 36 87 27 3d d7 fc fd bb 6b 99 2b 3c ec cb cc 3c
       0.04090043 -0.007751088 0.010473589 0.024999581
0001a0 d2 c3 a3 bd d2 7f ae 3c e4 ef d9 bc 24 e9 5d 3c
       -0.07996334 0.021301184 -0.026603647 0.013544355
0001b0 30 cb bf bc 52 39 15 3d 34 41 e9 bc d0 1d a7 3b
       -0.023412317 0.036431618 -0.028473474 0.0050999895
0001c0 05 53 25 3c 96 71 e3 bc 98 8f 1f 3d 2c ae 91 bd
       0.010090594 -0.027764123 0.0389553 -0.07113299
0001d0 3a ba bd 3c d7 a4 60 3c fa 3c 23 3b 09 dc 71 3c
       0.023160089 0.013711176 0.002490817 0.014761933
0001e0 ac ec 2e bc 41 16 b6 3c 0c 3a 50 3c 4d f8 1d 3d
       -0.010676544 0.022227408 0.012709152 0.038566876
0001f0 8d 75 71 bb c9 e7 a9 bb 29 92 fb 3a 21 20 69 bc
       -0.0036843747 -0.0051851016 0.0019193339 -0.014228852
000200 97 87 62 bd 64 cb 1f bd 2a 60 99 3c eb fc 27 3d
       -0.05530509 -0.039012328 0.018722612 0.041012686
000210 51 2a 4a bc 7a 09 4d 3c d7 2f 31 3b 7e 36 e1 bc
       -0.012339191 0.012514466 0.0027036571 -0.027491804
000220 73 b1 77 3b ad 47 eb 3c 9e 6c 9d bd c7 2a c9 3c
       0.0037794977 0.028720701 -0.07686733 0.02455653
000230 cb 45 b6 bd 16 f0 1e ba f6 b5 17 be a1 1e 0d bd
       -0.08900031 -0.0006062997 -0.14815506 -0.034453038
000240 13 ec c3 3c 8a 51 d6 3c d5 1e 5b 3d f0 db 9a 3c
       0.02391628 0.026161928 0.0534962 0.018903702
000250 6c 1b cb ba e7 d8 bc bc b8 3c ab bb 51 3c 51 3d
       -0.0015495843 -0.023052646 -0.005225744 0.051082913
000260 0e 7d a5 3d bd 45 62 3c f7 ea 9d 3c d0 ee af 3b
       0.08080493 0.013810572 0.019277079 0.005369045
000270 e0 a9 09 bd fc 4b ca 3c 2a ee e1 3b 55 50 3c 3d
       -0.03360927 0.024694435 0.0068948464 0.045975048
000280 46 d2 fe ba 4c 8b 23 3c 18 f5 67 bd d2 22 e1 3b
       -0.0019441328 0.009981941 -0.056630224 0.006870606
000290 f7 9a 8f 3c de 13 91 bb c0 11 0c bb 87 4e 01 bc
       0.017529948 -0.004427417 -0.0021372885 -0.0078922575
0002a0 47 00 1b bc 38 ee e5 bc 74 0f 8b 3b 3f cb 6f bc
       -0.009460515 -0.028067693 0.0042437855 -0.01463586
0002b0 1a 79 93 bc 5e 94 b5 bc 69 a6 24 bc c6 23 b4 3a
       -0.018002082 -0.022165474 -0.010049441 0.0013743571
0002c0 e1 ae 88 3c c2 d2 66 3d a1 3a b8 bc e1 59 bd 3c
       0.016684951 0.056353338 -0.022488894 0.023114147
0002d0 64 6c aa 3c b7 0f 9a 3d 0c 66 a9 bc fa 7a b9 3b
       0.020803638 0.075225286 -0.020678543 0.005660412
0002e0 88 76 70 3d 52 27 30 bc 8b 0d 14 3d b7 18 73 3d
       0.05870679 -0.010751562 0.036145728 0.05934974
0002f0 94 af cc bc f7 98 7d 3c 02 9a ce 3b 15 78 fd 3c
       -0.024986066 0.015478364 0.0063049803 0.030941049
000300 bf 98 ca 3c aa 3b 94 bc 68 1b 09 3d 06 48 29 bd
       0.024731038 -0.018094856 0.033473402 -0.041328453
000310 4c b1 00 3d 28 7d 7a 3b ff 69 10 3c 6d 4d 04 be
       0.031419083 0.0038221572 0.008814334 -0.1292016
000320 21 2f 54 3d f4 f1 9a bd 01 69 b9 bc cb db a9 bd
       0.051802758 -0.0756568 -0.022633078 -0.08293875
000330 85 d6 99 bd 0f 5d 8d bd 1f 43 d4 3b aa b5 f8 3c
       -0.075116195 -0.06902515 0.006477728 0.030360062
000340 ba e2 cf 3d b6 e7 9a bb 75 d7 33 3d 62 f4 eb bc
       0.101506665 -0.004727329 0.043906648 -0.028803054
000350 e8 72 ee 3c 4f 0d 02 3d 27 c4 df bb 60 3b a0 bd
       0.029107526 0.031750973 -0.006828803 -0.07823825
000360 8c 00 5a bc af 4d 4c 3c 5f 5a 50 bc 42 6c c2 bb
       -0.013305794 0.012469693 -0.012716859 -0.0059333155
000370 5e 1d 75 bc b7 a3 00 bd 4b 2d 19 3c 2f ed 76 bc
       -0.014960615 -0.03140613 0.009349178 -0.015071197
000380 93 61 12 3d 3b 1e 38 3d c4 0a 6c 3d 47 9f 5c bd
       0.035737585 0.044950705 0.057627454 -0.053862836
000390 a6 4e 21 3d e1 ba 54 bd 68 4e 40 bd 5e ad cb 3d
       0.039381646 -0.051936034 -0.046949774 0.099451765
0003a0 20 f7 5d bc f0 f1 a4 3d 42 49 26 bb 24 ac 02 bd
       -0.013547689 0.080539584 -0.0025373255 -0.031902447
0003b0 69 c4 0e bd bc 69 4d 3c 66 08 08 3d 92 7f 3c 3c
       -0.03485528 0.012537416 0.033211134 0.0115050245
0003c0 fa 61 31 3d a0 47 c0 bc b1 a0 5e bc 84 e7 cd bb
       0.04330633 -0.023471653 -0.0135881165 -0.0062837023
0003d0 ae 40 4e 38 6d f0 37 bc 60 f6 f1 3c ec 6f 9b bc
       4.9174465e-05 -0.011226756 0.029536426 -0.018974267
0003e0 6e 9f d8 bd 09 77 26 bc db 6b 93 bc 38 c9 b0 bd
       -0.10577284 -0.010160216 -0.017995765 -0.086321294
0003f0 09 b7 9b be 94 c4 55 bd 34 0b 6d be 1d 92 5b be
       -0.30413082 -0.052189425 -0.23148805 -0.21442457

features.0.3.conv.bias f4 [32]
000000 f7 6e 1a 3f a6 bd f7 3b fc 0e 4c bd b5 3d 56 3e
       0.6032557 0.0075604497 -0.049818978 0.20921977
000010 47 42 4e bb d1 14 e6 bc 6f b3 aa 3e 49 a6 26 3d
       -0.003147261 -0.028086098 0.33340022 0.040685926
000020 e3 e7 ad 3c c1 08 29 3c 27 6e c5 3d e9 c9 22 3f
       0.021228736 0.0103170285 0.096401505 0.6358934
000030 c3 23 ef 3d 04 3e d6 3d 02 01 65 3c 96 68 84 3e
       0.11676743 0.10461047 0.013977291 0.25861043
000040 03 95 2a 3e ad a7 6f bd fd 0f 72 bd 3f 74 a4 3d
       0.16658406 -0.058509517 -0.05909728 0.08029985
000050 52 30 4a 3e 2e 47 f7 3d 81 3e be 3e 41 b8 05 bd
       0.19744995 0.12074123 0.37157062 -0.03264642
000060 fd fa cb bc 21 f5 cc 3c 6a 08 3e bd 7b 24 84 3c
       -0.024899954 0.02501923 -0.046394743 0.016130676
000070 08 7a 9d 3d c1 03 88 3e 4e 57 34 bd 52 1b 12 bd
       0.07689291 0.26565364 -0.044028573 -0.035670586
