trainResults/miniImagenet_MAML_lr_0.14_ways_5_shots_1_steps_5_seed_1_iter_1.pt (torch, 143549 bytes, 26 tensors)

features.0.0.normalize.weight f4 [32]
0.7586316 0.2783109 0.40206927 0.7336845 0.028281556 0.79885864 0.39613736 0.75337195
0.5705085 0.43777794 0.63968045 0.5236659 0.6836141 0.3041495 0.4645456 0.45598632
0.571472 0.49900258 0.9360834 0.65659505 0.31479686 0.19701932 0.4151922 0.28532964
0.34077573 0.5249408 0.79906386 0.77076834 0.012224568 0.80896026 0.6406819 0.97327775
00000000: ae35 423f c47e 8e3e 06dc cd3e bfd2 3b3f
00000010: b9ae e73c 0082 4c3f 84d2 ca3e fcdc 403f
00000020: d80c 123f 6e24 e03e 19c2 233f f80e 063f
00000030: 5501 2f3f 7cb9 9b3e ecd8 ed3e 0a77 e93e
00000040: fd4b 123f 447d ff3e 29a3 6f3f 9d16 283f
00000050: 0e2d a13e 6fbf 493e 1294 d43e ba16 923e
00000060: 287a ae3e 8562 063f 738f 4c3f 1351 453f
00000070: 8e49 483c 0518 4f3f bb03 243f bb28 793f

features.0.0.normalize.bias f4 [32]
-0.0009999998 -0.0009999998 -0.0009999999 -0.0009999998 0.0009999999 -0.001 -0.001 0.0009999999
0.0009999999 -0.0009999999 0.0009999999 0.0009999998 -0.0009999999 -0.0009999999 0.0009999998 0.0009999999
0.0009999998 0.0009999999 -0.001 0.0009999998 0.001 -0.0009999999 -0.0009999998 0.0009999999
0.001 0.001 0.001 -0.0009999999 0.0009999998 -0.001 -0.0009999998 -0.0009999998
00000000: 6d12 83ba 6d12 83ba 6e12 83ba 6d12 83ba
00000010: 6e12 833a 6f12 83ba 6f12 83ba 6e12 833a
00000020: 6e12 833a 6e12 83ba 6e12 833a 6d12 833a
00000030: 6e12 83ba 6e12 83ba 6d12 833a 6e12 833a
00000040: 6d12 833a 6e12 833a 6f12 83ba 6d12 833a
00000050: 6f12 833a 6e12 83ba 6d12 83ba 6e12 833a
00000060: 6f12 833a 6f12 833a 6f12 833a 6e12 83ba
00000070: 6d12 833a 6f12 83ba 6d12 83ba 6d12 83ba

features.0.0.normalize.running_mean f4 [32]
62.990467 51.96799 -27.765053 66.6705 12.813434 -80.21906 -78.02045 -1.7557173
-109.53942 74.651505 -40.001667 -47.98507 79.45092 65.9472 -71.05033 -16.341764
102.37625 -77.65098 71.750854 -76.63515 -41.08734 -9.334198 24.609488 -60.797108
69.534836 77.43046 -49.215534 -41.46665 -83.11943 44.361023 -145.51355 -6.328906
00000000: 3df6 7b42 39df 4f42 d41e dec1 4c57 8542
00000010: d303 4d41 2970 a0c2 780a 9cc2 58bb e0bf
00000020: 2f14 dbc2 924d 9542 b501 20c2 b6f0 3fc2
00000030: dfe6 9e42 f7e4 8342 c519 8ec2 efbb 82c1
00000040: a4c0 cc42 4d4d 9bc2 7080 8f42 3245 99c2
00000050: 7059 24c2 e058 15c1 3be0 c441 3d30 73c2
00000060: d611 8b42 65dc 9a42 b5dc 44c2 d9dd 25c2
00000070: 263d a6c2 b071 3142 7883 11c3 6686 cac0

features.0.0.normalize.running_var f4 [32]
1899.3264 1374.7822 2416.2864 4573.994 196.23419 3850.7097 6948.216 1900.6158
3189.2058 2106.9714 1963.1342 1832.8323 2987.3467 1325.5265 1837.3636 2153.3093
2716.6628 2136.825 4035.4182 2780.386 1012.2312 1207.815 1024.5188 1378.0521
1348.7253 1736.2659 2803.381 3138.4333 1757.4733 3853.1448 8336.395 3584.8677
00000000: 726a ed44 08d9 ab44 9504 1745 f4ef 8e45
00000010: f43b 4443 5bab 7045 ba21 d945 b593 ed44
00000020: 4b53 4745 8baf 0345 4b64 f544 a21a e544
00000030: 8cb5 3a45 d9b0 a544 a3ab e544 f394 0645
00000040: 9bca 2945 338d 0545 b136 7c45 2dc6 2d45
00000050: cc0e 7d44 14fa 9644 9a10 8044 ab41 ac44
00000060: 3697 a844 8208 d944 1936 2f45 ef26 4445
00000070: 25af db44 51d2 7045 9441 0246 e20d 6045

features.0.0.conv.weight f4 [32, 3, 3, 3]
0.052569594 0.113656424 0.0038532158 -0.1134973 0.0006869264 0.101314835 -0.06538219 0.059866846
0.032813974 -0.0213927 0.0019808288 0.059717737 -0.09344348 0.08813881 0.09443503 0.0784454
0.13891278 -0.0050265472 -0.096456416 0.00730201 -0.03904081 0.04772025 0.11574391 -0.07653921
0.0067793652 0.13323654 -0.11117548 -0.024815984 0.13301888 0.095434904 0.039056983 -0.060525205
-0.013865417 -0.12475975 -0.130935 -0.13030927 0.13155776 0.10815873 0.053745825 -0.035665315
0.11782816 -0.037455242 0.0948127 -0.005491863 -0.06592273 -0.039519005 -0.030469669 -0.12732843
0.040271405 -0.043049864 0.062408302 0.08699504 -0.022942659 0.06593358 0.02657443 0.09168534
-0.09000585 -0.01311693 -0.046990093 0.11993152 -0.124879524 -0.07857347 0.0145803 0.12151916
0.09238106 -0.13014689 -0.09803218 0.13281879 0.019113442 -0.11920914 -0.04448108 0.059337337
-0.029859563 -0.107011825 -0.08621149 -0.072495595 -0.006405944 0.05308616 0.06526403 -0.06804561
-0.0241567 -0.10555798 0.1053715 0.13873075 0.1351451 0.057402518 -0.028429508 -0.002440453
0.05079291 -0.118631005 0.009567397 -0.11118463 -0.13698927 -0.0036128873 -0.042936634 -0.08642582
0.023879016 0.006622096 0.022060873 -0.07624424 -0.13418224 0.002020488 -0.055303063 -0.045529228
0.10260331 0.023540046 0.064032674 -0.037570816 -0.108511515 0.026519347 -0.09039872 0.016100276
-0.10870853 0.10304689 -0.09301644 0.1208172 0.09849291 0.105330005 0.081813805 0.032944478
-0.0077265487 -0.0032029985 -0.0538908 -0.12586117 0.12679541 0.008150792 0.06591021 0.006065477
0.0406611 -0.08603412 -0.10628665 0.10625465 0.053336788 0.06914576 -0.1359857 0.010330791
-0.12773223 -0.014793804 -0.006295968 -0.09609499 -0.13566406 0.0019083559 0.12511508 0.12538083
-0.08302533 -0.023516841 -0.114412546 -0.106781855 -0.036841314 0.13499124 -0.03500555 0.008985178
0.13083786 0.02559494 0.11233493 0.0927085 0.12841639 0.022667877 -0.11060876 -0.1177276
-0.0703083 0.11491272 0.08036201 0.04139317 -0.104100995 -0.1006473 0.111597896 -0.013326279
-0.13641562 -0.016061448 -0.03213345 0.0030817937 0.05875968 0.05410563 -0.104604684 -0.0025126706
-0.06939551 0.09435598 0.06934171 0.07475286 0.12647371 0.06879238 -0.13691539 0.03582484
-0.095702596 0.017430391 0.0024751918 0.13788432 -0.09529367 -0.1362199 -0.037998438 0.021240037
0.10010068 0.11090125 0.10729027 0.04256703 -0.040441442 -0.0281819 -0.07447562 0.027988542
-0.09497993 0.04844977 0.09013033 0.118113406 -0.1350343 0.11423558 -0.08569882 -0.010268756
0.12698859 0.07579 -0.042778146 0.08247303 -0.13323662 0.10889596 0.13497184 -0.005267411
0.02171408 -0.03338471 -0.08836959 -0.061425086 -0.0101653775 -0.11191051 -0.11254416 0.014146548
-0.08880162 -0.07607169 -0.0021935261 -0.073733315 0.12875167 -0.04882266 -0.077739455 -0.035767645
-0.11160122 0.07209857 0.11958024 -0.07859373 -0.050305553 0.12980318 -0.098837875 0.03837941
-0.111448266 -0.12183795 0.0012088309 -0.07776927 0.075745925 -0.041688237 0.0003598112 -0.07105366
0.057714406 0.1288723 -0.01974747 -0.08418314 -0.13360746 0.1312529 0.05916931 0.055997506
00000000: 3753 573d b3c4 e83d 3c86 7c3b 4671 e8bd
00000010: da12 343a 277e cf3d 19e7 85bd f036 753d
00000020: f267 063d be3f afbc cbd0 013b 969a 743d
00000030: 4c5f bfbd 1f82 b43d 2767 c13d fba7 a03d
00000040: 273f 0e3e bcb5 a4bb f18a c5bd b345 ef3b
00000050: 42e9 1fbd 4f76 433d 250b ed3d 97c0 9cbd
00000060: 7025 de3b 296f 083e f8af e3bd e44a cbbc
00000070: 1a36 083e 6073 c33d 37fa 1f3d 47e9 77bd
00000080: c62b 63bc 0a82 ffbd d313 06be cb6f 05be
00000090: 14b7 063e 5382 dd3d 9524 5c3d cb15 12bd
000000a0: e44f f13d ab6a 19bd 292d c23d 16f5 b3bb
000000b0: 7f02 87bd aede 21bd 879b f9bc 6262 02be
000000c0: a1f3 243d 0e55 30bd d99f 7f3d 752a b23d
000000d0: 3ef2 bbbc 2f08 873d 9eb2 d93c 86c5 bb3d
000000e0: fd54 b8bd 64e8 56bc af78 40bd a89e f53d
000000f0: d6c0 ffbd 21eb a0bd 36e2 6e3c 0adf f83d
00000100: 4832 bd3d 3a45 05be 18c5 c8bd a601 083e
00000110: cb93 9c3c ec23 f4bd cb31 36bd b50b 733d
00000120: 0b9c f4bc 0429 dbbd a68f b0bd 9278 94bd
00000130: f4e8 d1bb e070 593d 26a9 853d 7f5b 8bbd
00000140: 46e4 c5bc c82e d8bd 03cd d73d 6f0f 0e3e
00000150: 7a63 0a3e e71e 6b3d 00e5 e8bc 02f0 1fbb
00000160: 3a0c 503d d0f4 f2bd 92c0 1c3c c4b4 e3bd
00000170: ea46 0cbe 31c6 6cbb 53de 2fbd 0500 b1bd
00000180: ed9d c33c 2bfe d83b 01b9 b43c f125 9cbd
00000190: 1267 09be 2a6a 043b 7785 62bd db7c 3abd
000001a0: af21 d23d 0ed7 c03c 9023 833d dbe3 19bd
000001b0: 493b debd 1a3f d93c f722 b9bd bae4 833c
000001c0: 94a2 debd 3f0a d33d 677f bebd 026f f73d
000001d0: a7b6 c93d 42b7 d73d ff8d a73d caf0 063d
000001e0: fd2e fdbb 66e9 51bb 99bc 5cbd c0e1 00be
000001f0: a8d6 013e e68a 053c effb 863d e9c0 c63b
00000200: 418c 263d a832 b0bd d1ac d9bd 0a9c d93d
00000210: ad77 5a3d 4b9c 8d3d d63f 0bbe 7a42 293c
00000220: 3dcc 02be b661 72bc 684e cebb 73cd c4bd
00000230: 85eb 0abe cc21 fa3a 2b1e 003e d563 003e
00000240: 2f09 aabd 64a6 c0bc 2051 eabd 72b0 dabd
00000250: ebe6 16bd 253b 0a3e fb61 0fbd 9136 133c
00000260: 5cfa 053e 7bac d13c db0f e63d f4dd bd3d
00000270: 967f 033e fcb1 b93c d886 e2bd 2b1b f1bd
00000280: ccfd 8fbd 5c57 eb3d d694 a43d e28b 293d
00000290: e732 d5bd 2c20 cebd 708d e43d 7756 5abc
000002a0: 89b0 0bbe 4c93 83bc 5d9e 03bd ebf7 493b
000002b0: fdad 703d dd9d 5d3d fb3a d6bd 9eab 24bb
000002c0: 3c1f 8ebd b53d c13d 0703 8e3d 0718 993d
000002d0: 5382 013e 05e3 8c3d 8c33 0cbe 11bd 123d
000002e0: b9ff c3bd 2eca 8e3c d436 223b 8c31 0d3e
000002f0: 5429 c3bd 3b7d 0bbe 40a4 1bbd 96ff ad3c
00000300: 9601 cd3d 3220 e33d 00bb db3d c45a 2e3d
00000310: eda5 25bd badd e6bc ad86 98bd 3a48 e53c
00000320: d684 c2bd 4473 463d 4096 b83d 71e5 f13d
00000330: 6e46 0abe 58f4 e93d dd82 afbd 493e 28bc
00000340: 4c09 023e ca37 9b3d 2338 2fbd 9fe7 a83d
00000350: 2e6f 08be d804 df3d 0f36 0a3e 3f9a acbb
00000360: bae1 b13c 68be 08bd 1efb b4bd df98 7bbd
00000370: af8c 26bc 5631 e5bd 8d7d e6bd ecc6 673c
00000380: a0dd b5bd 79cb 9bbd 43c1 0fbb 7e01 97bd
00000390: 7ad7 033e 45fa 47bd dd35 9fbd 1881 12bd
000003a0: 2e8f e4bd 6aa8 933d 7ce6 f43d c0f5 a0bd
000003b0: 320d 4ebd 20eb 043e 836b cabd ba33 1d3d
000003c0: fd3e e4bd 2d86 f9bd a271 9e3a 7f45 9fbd
000003d0: ae20 9b3d 49c1 2abd 0ba5 bc39 9584 91bd
000003e0: f165 6c3d 1af7 033e 72c5 a1bc 3668 acbd
000003f0: 65d0 08be 2967 063e 855b 723d a45d 653d

features.0.0.conv.bias f4 [32]
-0.00062774465 0.00036673393 0.0005447414 -0.00076930557 -5.6398687e-05 -0.000516403 0.0005981976 -0.000489522
5.9245718e-05 -0.0003218264 -7.576814e-05 -0.0008145324 -0.00074125594 4.9871498e-05 7.703129e-05 0.0005152611
-0.0003048596 -0.00011085849 -0.00038471186 -0.00054575474 1.2782014e-05 -3.1618338e-06 0.00073869823 -4.6565605e-05
0.00015954682 0.00025381544 -0.0007232618 -0.0007990708 5.519768e-06 -0.0005973258 -0.0006579132 -0.00049352826
00000000: 3b8f 24ba 3246 c039 facc 0e3a 39ab 49ba
00000010: a18d 6cb8 385f 07ba 5dd0 1c3a 4453 00ba
00000020: 9b7e 7838 cfba a8b9 b6e5 9eb8 5886 55ba
00000030: d850 42ba 1d2d 5138 dc8b a138 9612 073a
00000040: 90d5 9fb9 b37c e8b8 27b3 c9b9 fb10 0fba
00000050: 5572 5637 e42f 54b6 33a5 413a 704f 43b8
00000060: 064c 2739 8812 8539 4799 3dba bc78 51ba
00000070: 7236 b936 db95 1cba cf77 2cba 1f60 01ba

features.0.1.normalize.weight f4 [32]
0.24799345 0.9533139 0.50750315 0.7634865 0.61655843 0.58900523 0.86693037 0.4759416
0.8517831 0.66606444 0.22192468 0.82672185 0.14577116 0.7593261 0.3918789 0.65414834
0.4411717 0.5998346 0.34998268 0.7062191 0.73439294 0.04366071 0.9418375 0.09578954
0.2778287 0.6978351 0.9598509 0.66158 0.2219903 0.5889893 0.19893919 0.73622876
00000000: fff1 7d3e 610c 743f baeb 013f da73 433f
00000010: c6d6 1d3f 0cc9 163f 26ef 5d3f 9eae f33e
00000020: 750e 5a3f 3383 2a3f 3940 633e 0ba4 533f
00000030: 0945 153e 3263 423f 5aa4 c83e 4476 273f
00000040: 42e1 e13e c38e 193f ee30 b33e c6ca 343f
00000050: 2d01 3c3f 93d5 323d 431c 713f 4e2d c43d
00000060: 903f 8e3e 52a5 323f cab8 753f 4f5d 293f
00000070: 6d51 633e 01c8 163f b7b6 4b3e 7d79 3c3f

features.0.1.normalize.bias f4 [32]
-0.0009999999 0.0009999998 0.0009999967 -0.001 -0.0009999998 0.0009999998 -0.0009999996 -0.0009999998
-0.0009999998 -0.0009999998 -0.0009999999 -0.0009999999 -0.001 -0.001 0.0009999998 -0.001
-0.0009999991 -0.0009999999 -0.0009999998 0.0009999889 -0.0009999998 0.0009999999 0.0009999998 -0.0009999999
0.0009999999 0.001 -0.0009999998 -0.001 0.0009999998 0.0009999999 -0.0009999999 -0.0009999998
00000000: 6e12 83ba 6d12 833a 5212 833a 6f12 83ba
00000010: 6d12 83ba 6d12 833a 6b12 83ba 6d12 83ba
00000020: 6d12 83ba 6d12 83ba 6e12 83ba 6e12 83ba
00000030: 6f12 83ba 6f12 83ba 6d12 833a 6f12 83ba
00000040: 6712 83ba 6e12 83ba 6d12 83ba 0f12 833a
00000050: 6d12 83ba 6e12 833a 6d12 833a 6e12 83ba
00000060: 6e12 833a 6f12 833a 6d12 83ba 6f12 83ba
00000070: 6d12 833a 6e12 833a 6e12 83ba 6d12 83ba

features.0.1.normalize.running_mean f4 [32]
-0.32213515 -0.058121193 0.25156045 0.089960985 0.26267263 0.08237684 0.55703574 0.16148216
0.2298986 -0.044469308 0.23926207 0.3847665 -0.33338422 0.19842628 0.35781893 0.52008015
0.021997178 0.47167712 -0.31301606 -0.14843996 0.23189594 -0.20789899 0.29751763 0.1542783
0.17863546 -0.5890068 0.112241104 -0.9624624 -0.28933403 0.26908353 -0.43605876 -0.7289758
00000000: e6ee a4be 7d10 6ebd 88cc 803e 773d b83d
00000010: 077d 863e 30b5 a83d e599 0e3f 945b 253e
00000020: 8a6a 6b3e 7325 36bd 1e01 753e 1d00 c53e
00000030: 56b1 aabe 4230 4b3e 0b34 b73e f923 053f
00000040: 6d33 b43c aa7f f13e a443 a0be a500 18be
00000050: 2176 6d3e 79e3 54be 3b54 983e 21fb 1d3e
00000060: 37ec 363e 26c9 16bf aade e53d f063 76bf
00000070: 9723 94be 51c5 893e 1843 dfbe 289e 3abf

features.0.1.normalize.running_var f4 [32]
0.11921504 0.6863172 0.40319425 0.6269288 0.51620626 0.22849803 0.5477713 0.40737894
0.2731131 0.47298706 0.13244852 0.36005297 0.0928843 0.2993201 0.2835207 0.2642189
0.17821293 0.448109 0.18194814 0.28355202 0.6069663 0.1740502 0.40735862 0.08549959
0.14424688 0.22094446 0.38532975 0.39896262 0.17947678 0.2461254 0.21837892 0.49827942
00000000: 0427 f43d 7cb2 2f3f 7a6f ce3e 687e 203f
00000010: 1826 043f 63fb 693e bd3a 0c3f f993 d03e
00000020: 7bd5 8b3e 5c2b f23e 96a0 073e dd58 b83e
00000030: 203a be3d 7c40 993e a029 913e b347 873e
00000040: 737d 363e 8b6e e53e 9d50 3a3e bb2d 913e
00000050: 2562 1b3f 373a 323e 4f91 d03e 691a af3d
00000060: 74b5 133e 443f 623e f149 c53e d444 cc3e
00000070: c3c8 373e 4c08 7c3e b99e 5f3e 7b1e ff3e

features.0.1.conv.weight f4 [32, 32, 3, 3]
-0.0054732696 -0.09480509 -0.09274003 -0.036462404 -0.040430006 0.025603548 0.013628118 -0.00908554
0.028841339 0.013894478 0.08732594 0.034565356 -0.05280506 -0.08384496 -0.060642086 -0.059268706
0.054215185 -0.010990694 -0.063774966 -0.098491214 -0.006395721 -0.03783894 -0.058806453 0.062126245
0.022910384 -0.023879757 0.034708615 0.014985196 -0.009127083 -0.016356211 0.06199975 -0.08435355
0.042051625 -0.08143638 -0.08138366 -0.032494962 -0.030464977 -0.06788305 -0.06800019 0.041488986
0.027484978 0.06015649 -0.05355452 -0.0891536 -0.011389388 0.0306197 -0.0076568653 -0.056479856
-0.04417234 0.039849494 -0.026361378 0.0852657 -0.017297644 -0.09323301 -0.069329344 0.056164544
0.09067188 -0.050979488 0.035630405 -0.02576429 -0.021636149 0.036602568 -0.058525316 -0.04872606
-0.032534685 -0.07758842 -0.054854013 -0.06206229 0.09438254 -0.07600427 0.09251261 0.08987458
-0.09157205 -0.06861915 0.030788427 0.0379133 0.09236063 -0.08031926 -0.078412175 -0.01364585
-0.05739101 -0.03233473 -0.049730033 0.0700999 0.009591762 0.059864864 -0.06906113 -0.052127067
0.03201216 -0.07933365 0.09157392 -0.09283133 -0.06575748 -0.032468487 0.08781982 -0.00082160556
0.037952658 0.017633568 0.057318266 0.040830206 0.06204051 -0.0015804754 -0.067527264 0.088452816
-0.03680637 0.02152537 -0.041292045 -0.048496038 -0.07901183 -0.0009671983 0.05357109 -0.08547516
-0.0791304 -0.0020950867 -0.007213071 -0.087426625 -0.0020745008 0.097922154 0.08522249 -0.012378848
0.09319701 -0.029423164 -0.08007077 0.018089687 0.057698246 -0.03890927 -0.083726354 -0.031999152
0.097828045 0.06445038 -0.063358754 0.018271757 -0.09695628 -0.011523026 0.06837875 -0.044031203
0.015264526 -0.089895114 0.09026141 0.02124177 0.019445824 -0.09560516 0.08576306 0.09092651
-0.0909267 -0.08125551 -0.08116323 -0.059606675 -0.06996206 0.015158688 0.08436066 0.025558464
0.07059289 0.035200566 0.05732582 -0.095897175 0.027199248 0.040460408 0.06450664 0.09790041
-0.059682753 -0.08402707 0.011542621 0.04831361 -0.004456093 0.09913199 -0.07230623 -0.095588915
-0.041794177 0.07798793 0.01194287 -0.040330615 -0.018278275 -0.008355042 0.016297178 -0.036451273
0.06060084 0.08786783 -0.10256743 -0.07287461 0.026887499 -0.0807613 0.093398154 0.047362473
-0.08325772 0.08594249 0.03086563 -0.092924215 0.09716819 -0.066066444 0.032355092 0.007010003
-0.0908175 0.015107227 -0.06993522 -0.056825574 0.055774536 0.015778327 -0.10299258 -0.033834048
-0.058624633 0.051565766 -0.07123097 0.08852846 -0.056732997 0.064043894 -0.047870968 -0.060064547
0.10270603 -0.061708916 0.09457341 -0.047647405 -0.044999495 -0.068533555 -0.066214845 0.09289585
-0.08852245 0.017038522 0.049410123 -0.093276426 0.06689483 -0.0402047 0.038040053 0.08404121
-0.07331404 0.0470172 0.006335082 -0.012225851 0.025910059 0.05604707 0.09938347 0.03995668
0.02841276 -0.0717951 0.08690757 -0.019275654 -0.021946218 0.010085275 0.06387247 0.10024386
-0.09619893 0.039203573 -0.04493838 -0.06816899 -0.020810556 0.015192907 -0.019395046 -0.0087612355
-0.051351923 0.03474761 0.027130306 -0.05170853 0.0928208 0.09927549 0.053378757 -0.035690308
00000000: 1d59 b3bb 2c29 c2bd 7cee bdbd 9a59 15bd
00000010: ef99 25bd 88be d13c 7848 5f3c 84db 14bc
00000020: ac44 ec3c aaa5 633c f1d7 b23d 6794 0d3d
00000030: 1e4a 58bd e8b6 abbd d663 78bd bec3 72bd
00000040: be10 5e3d 5012 34bc 739c 82bd c3b5 c9bd
00000050: 3293 d1bb 01fd 1abd 09df 70bd 1778 7e3d
00000060: 8fae bb3c 7b9f c3bc 9f2a 0e3d 7884 753c
00000070: c389 15bc 76fd 85bc 73f3 7d3d 8ec1 acbd
00000080: 533e 2c3d 1ec8 a6bd 7aac a6bd 7019 05bd
00000090: b091 f9bc 4506 8bbd af43 8bbd 5bf0 293d
000000a0: 2d28 e13c a766 763d fc5b 5bbd 2a96 b6bd
000000b0: 8e9a 3abc 2ad6 fa3c 71e6 fabb 6c57 67bd
000000c0: 0eee 34bd 3939 233d d1f3 d7bc c99f ae3d
000000d0: cab3 8dbc f3f0 bebd 8bfc 8dbd cb0c 663d
000000e0: 2eb2 b93d decf 50bd 30f1 113d a20f d3bc
000000f0: 4b3e b1bc 93ec 153d 3eb8 6fbd fa94 47bd
00000100: 1743 05bd ade6 9ebd 9aae 60bd 0735 7ebd
00000110: a24b c13d 20a8 9bbd 4077 bd3d 2a10 b83d
00000120: 208a bbbd 3288 8cbd 0338 fc3c fa4a 1b3d
00000130: 9227 bd3d 6d7e a4bd 9096 a0bd d892 5fbc
00000140: d612 6bbd 6c71 04bd b8b1 4bbd 8990 8f3d
00000150: c426 1d3c dc34 753d ec6f 8dbd 3183 55bd
00000160: 2f1f 033d ae79 a2bd 1b8b bb3d 5a1e bebd
00000170: dcab 86bd adfd 04bd e1da b33d 0461 57ba
00000180: 3f74 1b3d 4674 903c 8fc6 6a3d 933d 273d
00000190: 311e 7e3d f427 cfba bc4b 8abd c026 b53d
000001a0: 47c2 16bd f955 b03c d921 29bd c8a3 46bd
000001b0: f4d0 a1bd 948b 7dba 5c6d 5b3d 9a0d afbd
000001c0: 1f0f a2bd b94d 09bb a05b ecbb bb0c b3bd
000001d0: 59f4 07bb 698b c83d 2189 ae3d a7d0 4abc
000001e0: 13de be3d d908 f1bc 25fc a3bd d330 943c
000001f0: ff54 6c3d 545f 1fbd b978 abbd 8b11 03bd
00000200: 125a c83d 90fe 833d 3cc2 81bd a7ae 953c
00000210: 0491 c6bd 13cb 3cbc 280a 8c3d 105a 34bd
00000220: 1018 7a3c ee1a b8bd f9da b83d 3803 ae3c
00000230: d94c 9f3c a3cc c3bd 8ba4 af3d ae37 ba3d
00000240: c737 babd 4a69 a6bd e838 a6bd 2126 74bd
00000250: 4548 8fbd 255c 783c 48c5 ac3d fc5f d13c
00000260: 0193 903d 782e 103d 7bce 6a3d bd65 c4bd
00000270: f5d0 de3c d0b9 253d 0f1c 843d 0380 c83d
00000280: e775 74bd 6216 acbd 431d 3d3c 7ee4 453d
00000290: 6b04 92bb b605 cb3d 4a15 94bd 1fc4 c3bd
000002a0: 5f30 2bbd 23b8 9f3d 07ac 433c b731 25bd
000002b0: 52bc 95bc 96e3 08bc a981 853c ee4d 15bd
000002c0: 9638 783d 0df4 b33d df0e d2bd 493f 95bd
000002d0: 2c43 dc3c 2e66 a5bd 8847 bf3d 27ff 413d
000002e0: 0683 aabd 9e02 b03d ebd9 fc3c 0d4f bebd
000002f0: 1e00 c73d d84d 87bd c686 043d 2bb4 e53b
00000300: 87fe b9bd 4d84 773c 323a 8fbd efc1 68bd
00000310: d773 643d 8d41 813c c6ed d2bd 9295 0abd
00000320: 6220 70bd a036 533d 8be1 91bd 694e b53d
00000330: dc60 68bd 7229 833d 5914 44bd 3e06 76bd
00000340: 8a57 d23d 7dc2 7cbd b4af c13d ed29 43bd
00000350: 6451 38bd 525b 8cbd a69b 87bd 2e40 be3d
00000360: 424b b5bd 5f94 8b3c 4562 4a3d b607 bfbd
00000370: 2800 893d afad 24bd e3cf 1b3d cc1d ac3d
00000380: ac25 96bd 1c95 403d 8596 cf3b f04e 48bc
00000390: 5541 d43c 9d91 653d 9089 cb3d 9ea9 233d
000003a0: e0c1 e83c 4f09 93bd 99fc b13d fae7 9dbc
000003b0: 8ec8 b3bc b63c 253c 92cf 823d a74c cd3d
000003c0: f203 c5bd ed93 203d 4f11 38bd 2f9c 8bbd
000003d0: e67a aabc aceb 783c 5ce2 9ebc 498b 0fbc
000003e0: 6556 52bd 8353 0e3d 6040 de3c 53cc 53bd
000003f0: d518 be3d f350 cb3d afa3 5a3d 0030 12bd

features.0.1.conv.bias f4 [32]
-0.00096698105 0.0009704941 0.0008895929 0.0009600588 -0.0009711106 0.0009591373 -0.000983612 0.0009531491
0.0009139844 0.00091650826 0.00052255584 0.0009834351 0.0008850738 0.000945205 0.0009641473 -0.0009769489
0.00032640822 0.0009850053 0.0009095701 0.0009851287 0.0009374094 0.0006507172 -0.0009824593 0.00084531587
-0.00096288166 0.00088680134 0.0008139798 -0.0009681901 -0.00096754683 -0.00093759975 -0.0008857426 -0.00096459343
00000000: 007d 7dba c268 7e3a 9233 693a 75ac 7b3a
00000010: 2192 7eba 9d6e 7b3a 8bec 80ba c1dc 793a
00000020: 7498 6f3a d441 703a 21fc 083a 9be6 803a
00000030: 4c04 683a a2c7 773a d4be 7c3a f70c 80ba
00000040: c521 ab39 4b1b 813a 3770 6e3a 6f1f 813a
00000050: 7bbc 753a e494 2a3a ddc5 80ba 3098 5d3a
00000060: e569 7cba 3b78 683a 4261 553a 23ce 7dba
00000070: f8a2 7dba 41c9 75ba 2e31 68ba c5dc 7cba

features.0.2.normalize.weight f4 [32]
0.47207767 0.50637877 0.73929584 0.15176426 0.74269295 0.2487083 0.22145025 0.06819226
0.39636338 0.87850505 0.9169985 0.11501987 0.98485667 0.38273108 0.7254615 0.046409894
0.5433197 0.920537 0.8921796 0.8933372 0.6617548 0.3237204 0.11334635 0.4796241
0.74504125 0.1375392 0.4582166 0.73583204 0.18245406 0.06822123 0.58718807 0.97708315
00000000: 2ab4 f13e 0aa2 013f 7e42 3d3f 1768 1b3e
00000010: 2021 3e3f 63ad 7e3e dbc3 623e 62a8 8b3d
00000020: 24f0 ca3e b5e5 603f 6ac0 6a3f 8a8f eb3d
00000030: 911f 7c3f 54f5 c33e d8b7 393f 4d18 3e3d
00000040: 0017 0b3f 50a8 6b3f e265 643f bfb1 643f
00000050: c368 293f aebe a53e 2222 e83d 4a91 f53e
00000060: 06bb 3e3f 13d7 0c3e 5e9b ea3e 7d5f 3c3f
00000070: 3dd5 3a3e 92b7 8b3d f551 163f 1f22 7a3f

features.0.2.normalize.bias f4 [32]
-0.0009999998 -0.0009999998 0.0009999998 -0.0009999998 0.001 -0.0009999998 0.0009999998 0.0009999998
-0.0009999997 -0.0009999996 -0.0009999998 -0.0009999998 0.0009999998 0.001 -0.0009999998 -0.0009999998
0.0009999998 0.0009999998 0.0009999999 -0.0009999998 -0.001 0.0009999999 -0.0009999997 -0.0009999999
0.0009999998 0.0009999999 -0.0009999999 -0.0009999998 -0.0009999999 0.0009999998 0.0009999997 0.0009999998
00000000: 6d12 83ba 6d12 83ba 6d12 833a 6d12 83ba
00000010: 6f12 833a 6d12 83ba 6d12 833a 6d12 833a
00000020: 6c12 83ba 6b12 83ba 6d12 83ba 6d12 83ba
00000030: 6d12 833a 6f12 833a 6d12 83ba 6d12 83ba
00000040: 6d12 833a 6d12 833a 6e12 833a 6d12 83ba
00000050: 6f12 83ba 6e12 833a 6c12 83ba 6e12 83ba
00000060: 6d12 833a 6e12 833a 6e12 83ba 6d12 83ba
00000070: 6e12 83ba 6d12 833a 6c12 833a 6d12 833a

features.0.2.normalize.running_mean f4 [32]
0.42911825 0.31612656 -0.09453639 0.12575348 0.2474113 0.56232387 0.40213767 0.22767219
0.12123702 0.41833246 0.96670794 0.42939287 0.6547821 -0.3050441 0.648257 0.6528101
-0.39986196 0.032259718 0.29892126 0.58183044 0.063591585 0.3273391 0.1718956 0.04204914
-0.22409669 -0.009760125 -0.12807724 -0.05049441 0.31041017 -0.51931953 -0.4785918 0.9082314
00000000: 63b5 db3e 57db a13e 4b9c c1bd 85c5 003e
00000010: 6359 7d3e 75f4 0f3f fde4 cd3e e622 693e
00000020: 1d4b f83d ac2f d63e 2c7a 773f 62d9 db3e
00000030: cd9f 273f be2e 9cbe 2cf4 253f 901e 273f
00000040: b5ba ccbe c422 043d 350c 993e d7f2 143f
00000050: 4e3c 823d fe98 a73e 6605 303e b83b 2c3d
00000060: 9a79 65be eee8 1fbc ae26 03be 3ad3 4ebd
00000070: 15ee 9e3e 20f2 04bf fc09 f5be da81 683f

features.0.2.normalize.running_var f4 [32]
0.26484287 0.30935237 0.38348097 0.24721596 0.29037562 0.23063612 0.18927096 0.24363166
0.24319574 0.9069821 0.49708727 0.18079215 0.42076606 0.3640271 0.38663435 0.18460056
0.1857716 0.44308087 0.6318005 0.7530395 0.26219758 0.21604708 0.23311974 0.37658277
0.33019122 0.1589095 0.19903861 0.41350028 0.18389933 0.2390107 0.31868288 0.40104046
00000000: 7c99 873e 6f63 9e3e 9e57 c43e 2e26 7d3e
00000010: 1dac 943e e02b 6c3e 3fd0 413e 947a 793e
00000020: 4e08 793e fb2f 683f 3982 fe3e 9421 393e
00000030: a66e d73e c361 ba3e f0f4 c53e ee07 3d3e
00000040: e93a 3e3e 7fdb e23e adbd 213f 32c7 403f
00000050: c33e 863e 723b 5d3e f1b6 6e3e 75cf c03e
00000060: d30e a93e 2cb9 223e c7d0 4b3e 4fb6 d33e
00000070: 1b50 3c3e 39bf 743e 672a a33e 2d55 cd3e

features.0.2.conv.weight f4 [32, 32, 3, 3]
-0.07421614 0.0784411 -0.013037305 0.09972187 -0.037177105 0.012510237 0.09262289 0.07886792
-0.08605332 -0.075374685 0.0980771 -0.0016359139 -0.061604854 -0.09203172 -0.038959153 -0.016354162
-0.03408203 0.0826939 -0.059394192 -0.099734925 0.060715772 -0.075986564 0.09197794 0.07315529
-0.0015507344 0.09032184 0.06843836 0.07739594 0.02560398 -0.0983742 -0.06503805 -0.08343731
0.06661897 -0.08479339 -0.08880606 -0.068550274 -0.08152347 0.09101558 0.029475689 0.019565988
-0.02029403 -0.04668819 -0.073018536 -0.05545195 0.044128392 -0.07428082 -0.0050647347 0.019538613
-0.056443308 -0.033508707 0.07462666 -0.016531084 0.0047930633 -0.023949394 -0.03883682 0.05831476
0.027371341 -0.049290355 -0.077800885 0.09989142 -0.07750339 0.052352346 -0.06394491 -0.03947276
0.02405519 0.09909218 -0.04674086 -0.029409606 0.04921166 0.03141969 -0.07443339 -0.03176005
-0.050926343 -0.019829758 0.04609067 0.06848121 -0.034708664 -0.04777366 0.03764276 -0.0012430128
-0.020238535 0.03613691 0.047076844 0.07944225 -0.06297639 0.0856347 -0.09780191 0.048793145
0.0804029 -0.07880976 -0.003813609 -0.038798444 0.091622815 0.03910788 0.0902279 0.08538168
0.061003637 0.032912113 -0.06317471 -0.06687983 0.084993534 0.0037058846 0.07789876 -0.037521616
0.06750183 -0.034586947 -0.002234571 0.03172072 0.033422105 0.07176612 -0.06321851 0.018141499
-0.051255524 -0.0026083342 -0.016766626 0.021407498 0.018273491 -0.07026129 0.09591712 -0.054298416
-0.08983945 -0.011880461 -0.054413162 -0.009587236 -0.011773406 0.06460418 0.0018235305 -0.08247218
0.03293568 -0.05436661 -0.01392557 0.05171493 0.050346587 0.027397864 -0.028133508 0.034181748
-0.07639742 -0.026320834 -0.034690745 0.091508426 -0.09327439 0.0087604085 0.07174919 0.026035437
0.04351569 -0.0600233 -0.058286462 0.10029504 0.09356643 0.04695575 -0.028704736 -0.06083926
0.029110212 0.06098777 -0.03312128 0.07122557 0.031271245 0.073105104 0.04179656 -0.053129863
0.093678415 0.07034342 -0.03285369 0.023388488 0.07972604 -0.018122373 0.05248889 0.0019778723
0.0896595 -0.048399128 0.099537164 0.03656834 -0.05438749 0.09723318 0.093976974 0.023588255
0.052595973 0.006892752 0.041975927 -0.040729467 0.043774195 0.09995085 0.03863435 0.020270875
0.0701894 0.0450819 0.030808434 0.016660862 -0.040397216 -0.06964743 -0.03222406 -0.094072446
0.013685556 -0.093266785 0.0036815829 -0.025857091 0.061456554 0.005041946 -0.044641048 -0.043198533
-0.028490579 0.065727 -0.054054964 0.035443928 -0.030676736 -0.0243175 0.08342556 -0.054398976
-0.07394238 -0.038210265 -0.0531194 -0.0027432947 -0.017681908 0.057970297 -0.030635273 0.03919233
-0.05875888 -0.08558265 0.01585524 -0.07994004 -0.013856319 -0.02356908 -0.022198392 0.076307245
0.06013532 0.06964877 0.0069539505 0.03944524 -0.057074748 -0.057297558 0.045898955 -0.10097368
0.036406875 -0.031328004 -0.003935921 -0.042846214 0.02740242 0.092395976 0.04636206 -0.023497406
-0.083289444 0.0088427225 0.020375613 0.030668607 -0.008182591 0.09511843 -0.08760161 -0.037554406
-0.06205141 0.077601485 0.02878477 0.040944234 0.06827287 0.04017386 0.014761188 -0.10045971
00000000: a2fe 97bd baa5 a03d 6c9a 55bc fb3a cc3d
00000010: 0547 18bd bdf7 4c3c 12b1 bd3d 8185 a13d
00000020: b93c b0bd 0b5e 9abd a6dc c83d 296c d6ba
00000030: 5f55 7cbd 207b bcbd a293 1fbd 2af9 85bc
00000040: 9999 0bbd 6b5b a93d 5347 73bd d341 ccbd
00000050: 1ab1 783d d89e 9bbd ee5e bc3d 71d2 953d
00000060: 0342 cbba a8fa b83d 6929 8c3d c381 9e3d
00000070: 70bf d13c 6a78 c9bd ab32 85bd 2ee1 aabd
00000080: 876f 883d 28a8 adbd f4df b5bd 1664 8cbd
00000090: c7f5 a6bd 6066 ba3d 0077 f13c da48 a03c
000000a0: aa3f a6bc 1e3c 3fbd be8a 95bd 9521 63bd
000000b0: f9bf 343d 8b20 98bd 13f6 a5bb 710f a03c
000000c0: 1931 67bd 6d40 09bd ddd5 983d 326c 87bc
000000d0: 210f 9d3b 8531 c4bc 5b13 1fbd 75db 6e3d
000000e0: dd39 e03c afe4 49bd 1256 9fbd df93 cc3d
000000f0: 19ba 9ebd 6a6f 563d 8df5 82bd 30ae 21bd
00000100: 640f c53c d7f0 ca3d 5873 3fbd 6aec f0bc
00000110: 2a92 493d efb1 003d 8870 98bd d416 02bd
00000120: 2498 50bd 0472 a2bc 92c9 3c3d e03f 8c3d
00000130: ac2a 0ebd 50ae 43bd 4b2f 1a3d 97ec a2ba
00000140: 49cb a5bc 4c04 143d a6d3 403d 9eb2 a23d
00000150: c4f9 80bd 3f61 af3d 5e4c c8bd 52db 473d
00000160: 47aa a43d 0367 a1bd beed 79bb 1eeb 1ebd
00000170: bea4 bb3d 962f 203d 68c9 b83d 97dc ae3d
00000180: f3de 793d dace 063d be61 81bd 4bf8 88bd
00000190: 1711 ae3d 6dde 723b 6389 9f3d 44b0 19bd
000001a0: 663e 8a3d 0bab 0dbd e171 12bb 96ed 013d
000001b0: 9ee5 083d 1efa 923d b578 81bd 7b9d 943c
000001c0: 50f1 51bd 96f0 2abb 2a5a 89bc c75e af3c
000001d0: 4ab2 953c 27e5 8fbd 3270 c43d 0468 5ebd
000001e0: bffd b7bd 44a6 42bc 56e0 5ebd c813 1dbc
000001f0: 3ee5 40bc 324f 843d 8803 ef3a 2de7 a8bd
00000200: 90e7 063d 86af 5ebd 1328 64bc 09d3 533d
00000210: 3938 4e3d 7c71 e03c 3e78 e6bc 2902 0c3d
00000220: 4076 9cbd ca9e d7bc e217 0ebd c568 bb3d
00000230: a506 bfbd d187 0f3c 3df1 923d 4548 d53c
00000240: 823d 323d feda 75bd c9bd 6ebd 7c67 cd3d
00000250: c29f bf3d ac54 403d 3226 ebbc 9732 79bd
00000260: 8a78 ee3c 50ce 793d 2eaa 07bd b6de 913d
00000270: 4716 003d 21b8 953d df32 2b3d b39e 59bd
00000280: 78da bf3d 3610 903d 9791 06bd 3799 bf3c
00000290: 6847 a33d 5f75 94bc 97fe 563d 319f 013b
000002a0: 669f b73d 2a3e 46bd 24da cb3d afc8 153d
000002b0: 6bc5 5ebd 3122 c73d 0077 c03d 283c c13c
000002c0: e06e 573d 98dc e13b f3ee 2b3d f1d3 26bd
000002d0: 924c 333d 08b3 cc3d 0d3f 1e3d 1b0f a63c
000002e0: 76bf 8f3d cca7 383d f861 fc3c 5c7c 883c
000002f0: 8d77 25bd 50a3 8ebd 60fd 03bd 0ea9 c0bd
00000300: 6239 603c a802 bfbd b646 713b 40d2 d3bc
00000310: deb9 7b3d e936 a53b 88d9 36bd f2f0 30bd
00000320: 1365 e9bc e19b 863d bd68 5dbd a72d 113d
00000330: c74d fbbc 7e35 c7bc 05db aa3d 76d1 5ebd
00000340: 1a6f 97bd 5e82 1cbd ba93 59bd d9c8 33bb
00000350: a6d9 90bc 4372 6d3d d3f6 fabc 2388 203d
00000360: 27ad 70bd f545 afbd d9e2 813c 9bb7 a3bd
00000370: 9d05 63bc f113 c1bc 67d9 b5bc f946 9c3d
00000380: 7450 763d 04a4 8e3d f7dd e33b 5591 213d
00000390: 36c7 69bd d8b0 6abd 8b00 3c3d 4acb cebd
000003a0: 601f 153d cb51 00bd e6f8 80bb 837f 2fbd
000003b0: 0a7b e03c 1a3a bd3d 25e6 3d3d a27d c0bc
000003c0: a893 aabd 11e1 103c c2ea a63c bb3c fb3c
000003d0: 4610 06bc 74cd c23d 7968 b3bd a6d2 19bd
000003e0: 9f29 7ebd 87ed 9e3d 0ace eb3c 24b5 273d
000003f0: a5d2 8b3d 588d 243d e9d8 713c d2bd cdbd

features.0.2.conv.bias f4 [32]
0.00070464757 0.0009141644 -0.0009576196 -0.00071854383 -0.00096236705 0.0009368972 0.00077306776 -0.0003834439
-0.0008489746 -0.00096544356 0.0009096651 0.0002788724 -0.00096963503 0.0009034848 -0.0008091758 -6.025581e-05
-0.00071416836 -0.0009767879 -0.00090507296 0.00085174415 0.0009010118 -0.0007408957 -0.0007278646 0.0008693346
0.0006929692 0.0006716613 0.0009542577 0.000889275 -0.00070834556 -0.0006570576 -0.00090045267 0.0009612567
00000000: 19b8 383a 89a4 6f3a c308 7bba a95c 3cba
00000010: 5c47 7cba 1b9a 753a b3a7 4a3a f808 c9b9
00000020: b98d 5eba d215 7dba 9776 6e3a 9f35 9239
00000030: 1b2f 7eba d7d7 6c3a de1e 54ba 2fbb 7cb8
00000040: 0737 3bba 9007 80ba 6b42 6dba 9547 5f3a
00000050: e131 6c3a ab38 42ba 2bce 3eba 0fe4 633a
00000060: 60a8 353a 6d12 303a 2627 7a3a 3c1e 693a
00000070: 44b0 39ba 643e 2cba 5b0c 6cba d8fc 7b3a

features.0.3.normalize.weight f4 [32]
0.42133677 0.10286717 0.2449017 0.7668495 -0.00044096803 0.45250928 0.9327932 0.43888813
0.2646032 0.31217796 0.6923741 0.43104124 0.9990831 0.38197643 0.052094173 0.21016736
0.6535139 0.71053296 0.4443612 0.7743804 0.62648636 0.39601845 0.9593121 0.38469142
0.075545564 0.44281286 0.80760765 0.5460608 0.36709034 0.62016547 0.1764118 0.328763
00000000: 74b9 d73e 06ac d23d 83c7 7a3e 4050 443f
00000010: ba31 e7b9 4caf e73e 89cb 6e3f f2b5 e03e
00000020: 127a 873e cad5 9f3e 6e3f 313f 70b1 dc3e
00000030: e9c3 7f3f 6a92 c33e b360 553d 1d36 573e
00000040: b04c 273f 7de5 353f 5083 e33e cb3d 463f
00000050: 6961 203f eec2 ca3e 7a95 753f 46f6 c43e
00000060: a2b7 9a3d 5eb8 e23e 60bf 4e3f a4ca 0b3f
00000070: 44f3 bb3e 2ac3 1e3f 4ba5 343e a053 a83e

features.0.3.normalize.bias f4 [32]
-0.0009999999 -0.001 0.0009999999 -0.001 -0.001 -0.0009999999 -0.001 0.0009999999
0.0009999998 0.0009999988 0.0009999998 0.0009999999 0.001 -0.0009999999 0.0009999996 -0.0009999999
-0.0009999998 0.0009999999 -0.001 -0.0009999999 -0.0009999999 -0.0009999999 -0.0009999999 0.001
0.001 -0.0009999999 -0.001 -0.0009999999 -0.0009999997 -0.001 0.0009999999 -0.001
00000000: 6e12 83ba 6f12 83ba 6e12 833a 6f12 83ba
00000010: 6f12 83ba 6e12 83ba 6f12 83ba 6e12 833a
00000020: 6d12 833a 6412 833a 6d12 833a 6e12 833a
00000030: 6f12 833a 6e12 83ba 6b12 833a 6e12 83ba
00000040: 6d12 83ba 6e12 833a 6f12 83ba 6e12 83ba
00000050: 6e12 83ba 6e12 83ba 6e12 83ba 6f12 833a
00000060: 6f12 833a 6e12 83ba 6f12 83ba 6e12 83ba
00000070: 6c12 83ba 6f12 83ba 6e12 833a 6f12 83ba

features.0.3.normalize.running_mean f4 [32]
0.066612065 -0.0048921835 0.15624192 0.12851171 -0.17840895 0.80728334 0.48854455 0.09371105
-0.49887782 -0.64984334 -0.19663118 0.37689254 -0.14637993 0.19812934 -0.004946794 0.44918793
0.21099795 0.2664279 0.6826215 -0.29608652 0.052672613 0.82515967 0.3328679 0.062380992
0.023000378 -0.06957399 0.5432975 0.038611665 0.19587658 0.8076986 0.721881 0.5223951
00000000: e86b 883d 9c4e a0bb e2fd 1f3e 9398 033e
00000010: d6b0 36be 1faa 4e3f 8322 fa3e 94eb bf3d
00000020: ea6c ffbe 225c 26bf af59 49be 0ff8 c03e
00000030: 9fe4 15be 6be2 4a3e b718 a2bb f6fb e53e
00000040: d90f 583e 3d69 883e 48c0 2e3f a798 97be
00000050: 3dbf 573d aa3d 533f a96d aa3e 3683 7f3d
00000060: 4a6b bc3c cf7c 8ebd 8c15 0b3f 4427 1e3d
00000070: df93 483e 56c5 4e3f 31cd 383f afbb 053f

features.0.3.normalize.running_var f4 [32]
0.2207251 0.29110608 0.28433537 0.5333059 0.14392248 0.47284237 0.6062741 0.21008366
0.2728321 0.25072053 0.4295964 0.34407952 0.5392511 0.18936928 0.225762 0.17413424
0.3215468 0.7490853 0.585442 0.40389743 0.50962734 0.3108909 0.5409051 0.18043312
0.23243795 0.31465462 0.61584944 0.25331244 0.27238366 0.44941875 0.22119111 0.26221246
00000000: c305 623e db0b 953e 6894 913e bc86 083f
00000010: 6a60 133e 6518 f23e c834 1b3f 2c20 573e
00000020: a6b0 8b3e 715e 803e 0ff4 db3e 312b b03e
00000030: 5c0c 0a3f 05ea 413e 272e 673e 3f50 323e
00000040: c8a1 a43e 0ec4 3f3f 87df 153f a5cb ce3e
00000050: f076 023f 182d 9f3e c278 0a3f 76c3 383e
00000060: 3704 6e3e 691a a13e 4fa8 1d3f 2bb2 813e
00000070: df75 8b3e 371a e63e ec7f 623e b640 863e

features.0.3.conv.weight f4 [32, 32, 3, 3]
-0.0021777775 -0.081011675 -0.09509344 -0.03434011 -0.085971326 -0.034466255 -0.08819194 0.061479695
0.014242118 -0.022268673 0.048541002 -0.07361567 0.05900633 -0.012274779 -0.08409747 0.06687985
-0.06799433 -0.07360979 -0.086401165 -0.042065486 -0.036420625 -0.0014972128 -0.02475235 0.07702104
0.09055976 -0.022770552 -0.09648629 0.011034361 -0.09666545 0.035446018 -0.030920418 -0.067321725
0.013952059 0.08226876 0.01014724 -0.057527885 0.06443341 0.002355996 0.041997474 -0.019817445
0.08519195 0.08872274 0.002028924 -0.032237504 -0.009223359 0.06756899 -0.054124787 -0.021364441
-0.019266212 -0.087958485 0.03483251 -0.042810407 -0.0035005708 -0.09408347 0.03589126 -0.07754007
0.048152983 -0.1006805 -0.078892335 -0.015608175 0.09202454 -0.035642587 0.019856567 -0.045385204
-0.08298881 0.082323276 -0.06165917 -0.0029207228 0.09022706 0.022127284 -0.044313755 0.008276379
0.03589902 -0.017577395 0.04366693 -0.0026777822 0.09405993 -0.043032937 0.10039199 0.00412476
0.01223702 -0.004424873 0.05977932 -0.09824267 -0.078672 0.035402253 0.05028889 -0.09850096
-0.0318666 0.06697103 0.08382359 0.0033027462 0.03679261 0.048355203 0.06439299 0.035987157
-0.08455052 -0.01522954 -0.08646358 0.06709636 0.032066762 -0.04137137 0.09216354 -0.0456022
-0.074042246 -0.0826523 -0.038702413 0.02498729 0.094140485 0.020526031 -0.05246573 0.06916163
0.07745416 0.055475138 -0.044727884 0.060262777 -0.030772664 -0.025987288 -0.0037322252 -0.05370731
-0.10195885 -0.073441595 -0.08659874 0.059650376 0.04260857 0.025302732 -0.06426898 -0.061175954
-0.07502767 0.044857584 -0.014491968 0.055663064 0.059382245 -0.06701327 0.02822289 0.08652538
0.008650969 -0.038432397 0.053258598 0.09493644 -0.07281244 0.042201348 -0.024251932 0.01760567
0.07539864 0.07018982 -0.09187082 -8.0820886e-05 0.069966495 0.09304694 0.05398634 0.025060017
0.012095307 -0.09635163 0.036427252 -0.05667845 0.013806956 0.08997257 0.03148276 -0.0331097
-0.0038552312 -0.020250477 0.06250609 -0.016519386 0.025607837 0.0024081916 0.09732473 -0.031044137
-0.063875444 -0.03153318 0.03388269 -0.09581161 -0.07594326 0.018549992 -0.06071252 -0.052612364
0.028126428 0.067770995 0.051893782 -0.07828323 0.07170175 -0.06142036 0.0954883 0.0854859
-0.013765109 0.029456612 0.019525437 -0.032626633 0.005511972 -0.06657163 0.03502152 0.04160076
-0.042974535 -0.0446653 -0.028090846 -0.06780817 -0.06780652 0.061464984 -0.024915373 -0.049912184
0.09406938 -0.05227155 0.08997318 -0.088534 0.04857096 0.05731193 0.095878094 -0.10066614
0.07363984 -0.08977146 -0.024764506 -0.07993855 0.009550084 0.0152963735 0.025798485 0.016086323
0.037095357 -0.019672204 0.06264326 0.0051088026 -0.07374118 0.10204831 0.07270944 -0.0036595848
0.042246062 -0.033911973 0.085563034 -0.08361022 -0.09926667 -0.045261115 -0.081479594 0.059626285
-0.007211083 -0.03953212 -0.057003487 -0.0742884 0.0014671157 -0.102643855 -0.0855219 0.018389683
0.00922887 0.055570476 0.007141093 -0.07998395 0.062161382 0.07223407 0.027828403 0.015274466
0.021979677 0.025458831 -0.04889355 -0.040363986 0.020907713 0.10183739 -0.0053837155 0.01006987
00000000: 0bb9 0ebb 73e9 a5bd 59c0 c2bd 37a8 0cbd
00000010: bc11 b0bd 7d2c 0dbd fa9d b4bd 22d2 7b3d
00000020: c657 693c cb6c b6bc eed2 463d d0c3 96bd
00000030: 9fb0 713d 281c 49bc 4b3b acbd 4ef8 883d
00000040: 9c40 8bbd bbc0 96bd 18f3 b0bd dc4c 2cbd
00000050: cb2d 15bd 203e c4ba 71c5 cabc 35bd 9d3d
00000060: 6577 b93d 4f89 babc 9b9a c5bd 77c9 343c
00000070: 89f8 c5bd d82f 113d d14c fdbc f9df 89bd
00000080: 2d97 643c 867c a83d 9c40 263c 5ca2 6bbd
00000090: aaf5 833d 0e67 1a3b 8b05 2c3d 3258 a2bc
000000a0: 1e79 ae3d 45b4 b53d b2f7 043b 790b 04bd
000000b0: 921d 17bc 9c61 8a3d f4b1 5dbd 7b04 afbc
000000c0: 2dd4 9dbc 9423 b4bd 89ac 0e3d f759 2fbd
000000d0: d569 65bb d6ae c0bd b702 133d 54cd 9ebd
000000e0: 103c 453d 9431 cebd 4e92 a1bd 6eb9 7fbc
000000f0: 5d77 bc3d f6fd 11bd 3daa a23c d6e5 39bd
00000100: 0af6 a9bd 1b99 a83d 538e 7cbd 9969 3fbb
00000110: f7c8 b83d 4744 b53c 5782 35bd a699 073c
00000120: da0a 133d 78fe 8fbc 18dc 323d bb7d 2fbb
00000130: 7ea2 c03d 4e43 30bd 519a cd3d ff28 873b
00000140: c87d 483c 86fe 90bb 29db 743d 7433 c9bd
00000150: c91e a1bd f401 113d b9fb 4d3d dfba c9bd
00000160: 8d86 02bd 1b28 893d b4ab ab3d e372 583b
00000170: d9b3 163d 1b10 463d 79e0 833d 4567 133d
00000180: d328 adbd 5285 79bc d113 b1bd d169 893d
00000190: 7058 033d 0775 29bd 3dc0 bc3d 5fc9 3abd
000001a0: 76a3 97bd 9c45 a9bd 6c86 1ebd 25b2 cc3c
000001b0: bacc c03d 3526 a83c 4ee6 56bd 9da4 8d3d
000001c0: 49a0 9e3d e639 633d 9634 37bd 1ad6 763d
000001d0: f416 fcbc 4be3 d4bc 5998 74bb 32fc 5bbd
000001e0: cdcf d0bd 8c68 96bd ae5a b1bd f453 743d
000001f0: 5386 2e3d ad47 cf3c 749f 83bd a393 7abd
00000200: 1ba8 99bd 96bc 373d b86f 6dbc f4fe 633d
00000210: cc3a 733d 413e 89bd b133 e73c 3834 b13d
00000220: cbbc 0d3c 4a6b 1dbd b025 5a3d 096e c23d
00000230: b01e 95bd 52db 2c3d fdab c6bc c439 903c
00000240: 9a6a 9a3d aebf 8f3d c526 bcbd 627e a9b8
00000250: 984a 8f3d 658f be3d c820 5d3d aa4a cd3c
00000260: 652b 463c 0154 c5bd be34 153d aa27 68bd
00000270: 9236 623c 8a43 b83d 11f4 003d 099e 07bd
00000280: 0ca8 7cbb 54e4 a5bc 3103 803d aa53 87bc
00000290: 87c7 d13c c0d2 1d3b 3052 c73d 4650 febc
000002a0: 21d1 82bd f028 01bd 93c8 0a3d e138 c4bd
000002b0: 2488 9bbd 27f6 973c b1ad 78bd 1080 57bd
000002c0: 6569 e63c 85cb 8a3d 938e 543d f552 a0bd
000002d0: 5ed8 923d ea93 7bbd 5f8f c33d 3b13 af3d
000002e0: 0d87 61bc fe4e f13c cff3 9f3c 81a3 05bd
000002f0: c69d b43b b556 88bd ba72 0f3d 8f65 2a3d
00000300: 1106 30bd f6f2 36bd c61e e6bc 03df 8abd
00000310: 25de 8abd b5c2 7b3d 531b ccbc b870 4cbd
00000320: 72a7 c03d b11a 56bd dc43 b83d 5051 b5bd
00000330: 58f2 463d eabf 6a3d bc5b c43d 0d2a cebd
00000340: 7cd0 963d 19da b7bd efde cabc d3b6 a3bd
00000350: f577 1c3c a49d 7a3c 5857 d33c 77c7 833c
00000360: 4df1 173d 9a27 a1bc 1c4b 803d be67 a73b
00000370: 9e05 97bd b4fe d03d b0e8 943d a5d5 6fbb
00000380: 350a 2d3d 48e7 0abd ac3b af3d d63b abbd
00000390: 534c cbbd b863 39bd c6de a6bd b13a 743d
000003a0: f34a ecbb 6fec 21bd 7d7c 69bd 8424 98bd
000003b0: 3c4c c03a f136 d2bd 1b26 afbd f6a5 963c
000003c0: b034 173c de9d 633d d4ff e93b a0ce a3bd
000003d0: ef9c 7e3d 75ef 933d 64f8 e33c c141 7a3c
000003e0: b90e b43c 0a8f d03c 9a44 48bd b554 25bd
000003f0: a746 ab3c 1f90 d03d e169 b0bb 19fc 243c

features.0.3.conv.bias f4 [32]
-0.00072585617 1.6283271e-05 -0.0007181543 0.0009385647 -8.810735e-05 -0.000844348 -0.00088271505 -0.00094446767
0.00012965922 0.0008920386 -0.00095858943 0.0008755351 -0.0009319285 0.0006865266 -1.1729688e-05 0.0009411997
-0.00034875076 -0.0009645586 -0.00042772858 0.00092845503 -0.0008344984 -0.0009612545 0.00078261545 -0.00072492345
-0.0006593737 0.00070000597 -0.0008849535 0.0008887889 0.00067224854 -0.0009540198 -0.000874277 0.0005463147
00000000: 6247 3eba 0f98 8837 8542 3cba 030a 763a
00000010: 46c6 b8b8 3c57 5dba 0166 67ba 2796 77ba
00000020: 22f5 0739 b2d7 693a d949 7bba 2a84 653a
00000030: aa4c 74ba 05f8 333a a0ca 44b7 d8ba 763a
00000040: 89d8 b6b9 6fda 7cba c240 e0b9 9063 733a
00000050: 3dc2 5aba b3fc 7bba 6f28 4d3a ca08 3eba
00000060: d2d9 2cba 9b80 373a 39fc 67ba 9dfd 683a
00000070: d639 303a 2f17 7aba bc2f 65ba 8f36 0f3a

classifier.weight f4 [5, 800]
-0.041545358 -0.026153456 -0.07131535 0.021998022 -0.041495167 -0.04324112 -0.0069928556 0.06537771
-0.029298091 -0.008207833 0.062097233 -0.019898184 -0.06773064 -0.07226197 0.008725671 0.00765768
-0.010335666 0.017938508 -0.047989957 0.0022933392 0.021112451 -0.02929946 0.03395292 0.06468159
-0.06723904 0.015852336 -0.040723585 0.020325793 -0.04651615 -0.009083463 -0.06559103 0.062260937
-0.07521196 -0.072790645 0.07900269 0.077856965 0.0793445 0.08698547 -0.07336308 -0.06350573
0.059192274 -0.057221647 -0.021872442 0.045358945 0.011881586 0.08156947 -0.06676942 0.021667546
0.02729269 -0.031136759 -0.06517565 -0.071339376 -0.012678442 -0.04108644 0.018343322 -0.030389786
-0.012396563 0.072686195 0.012982181 -0.0070460946 0.047395848 -0.025913259 0.06657789 0.011122303
-0.035365254 0.07563629 0.072828025 0.045297254 -0.018077128 0.07783529 -0.014235887 -0.07339629
0.049773183 0.0613198 0.0674532 -0.08677693 -0.069545776 -0.082939975 -0.027810147 0.020426314
-0.07886701 0.078011304 -0.011000583 0.054814406 -0.01885446 -0.05322032 0.01584474 0.0012706922
0.029214153 0.0034070674 -0.008876476 0.08073364 0.051514182 0.04183489 -0.010437606 0.046221614
0.022706432 0.059898335 0.056640636 0.048741013 0.06071877 0.017020488 -0.01743583 0.030536927
-0.083715245 0.060971074 0.045842726 -0.01960212 -0.027984334 -0.043807313 -0.08451768 -0.07545234
0.037975747 -0.08648301 -0.02757434 0.030513098 0.02276206 -0.07672632 0.023218108 -0.050148305
0.065126546 0.07472387 0.03617741 -0.023910334 -0.015637863 -0.020416206 -0.067520075 0.031782646
-0.004335504 -0.00227325 0.08016059 0.03133151 0.04877995 0.06840363 -0.019857243 0.00037496313
-0.02873818 -0.08063678 0.06019586 -0.0629261 0.02721932 0.039479874 -0.02600218 -0.032122407
0.044130277 0.0522163 -0.0028884062 -0.057640325 0.021558577 0.054347035 -0.007632445 0.0028406526
-0.005786687 -0.049215186 -0.0555869 -0.042684123 -0.05082012 0.037492428 -0.011591791 0.068885036
-0.06364663 -0.029400617 0.044997536 -0.0027426963 -0.022103462 0.008738084 0.024722992 0.007489688
-0.070827514 0.060510065 -0.043808766 0.070107765 -0.08129498 0.005448553 -0.07978975 -0.0028242373
-0.017482214 0.013765206 0.016255872 0.0147486515 -0.047022004 -0.008529429 0.08052074 0.0058562593
-0.0047109043 0.053121027 -0.04623208 0.042543303 -0.07589416 0.03903452 -0.059854906 -0.06406181
0.06386006 0.07174914 -0.03392856 -0.032523997 -0.07392501 0.0392727 0.02240402 0.042367626
-0.029947447 0.03497785 -0.053220928 0.072671294 0.038923293 -0.046799455 0.049165096 0.022374433
0.08383048 -0.009819361 0.053496096 0.078848824 -0.008261176 -0.07004579 0.06897785 0.08436218
0.0027947824 -0.016343003 0.009525792 -0.057819784 -0.004710626 0.084058404 0.058751706 0.013876491
-0.046033565 0.08134737 0.08461852 -0.042909678 -0.04737577 0.062254783 0.035129696 0.0026096036
0.028815607 -0.040887184 0.05487109 0.020503635 -0.053224377 -0.05182256 -0.049087763 0.051895615
-0.01338895 0.02147219 -0.0093493285 -0.041744854 -0.020534016 -0.018776705 -0.005765599 -0.050380252
-0.07365104 -0.008351712 -0.06893514 0.02831018 -0.05470351 0.0138969915 -0.06429026 -0.057555933
00000000: 772b 2abd c63f d6bc c80d 92bd 3235 b43c
00000010: d6f6 29bd 9a1d 31bd 5324 e5bb c0e4 853d
00000020: 8d02 f0bc 267a 06bc ab59 7e3d 8401 a3bc
00000030: 5db6 8abd 15fe 93bd 1ef6 0e3c 47ed fa3b
00000040: ed56 29bc c7f3 923c 1e91 44bd d94b 163b
00000050: 05f4 ac3c 6c05 f0bc 3812 0b3d c877 843d
00000060: 9fb4 89bd c2dc 813c c6cd 26bd 4782 a63c
00000070: b887 3ebd ced2 14bc 9754 86bd 5305 7f3d
00000080: ba08 9abd 4313 95bd 2acc a13d 7973 9f3d
00000090: 5f7f a23d 7025 b23d 623f 96bd 4b0f 82bd
000000a0: 9973 723d 3f61 6abd d62d b3bc 4dca 393d
000000b0: fcaa 423c e50d a73d 68be 88bd 2380 b13c
000000c0: eb94 df3c 8412 ffbc d07a 85bd 611a 92bd
000000d0: 3db9 4fbc 414a 28bd bc44 963c 00f4 f8bc
000000e0: f41a 4bbc 80dc 943d 37b3 543c ede2 e6bb
000000f0: 2622 423d 0b48 d4bc fd59 883d 523a 363c
00000100: 28db 10bd 33e7 9a3d dc26 953d 9d89 393d
00000110: 7c16 94bc 1c68 9f3d a33d 69bc cb50 96bd
00000120: f7de 4b3d 782a 7b3d e724 8a3d 1ab8 b1bd
00000130: 046e 8ebd 6fdc a9bd 1bd2 e3bc 1655 a73c
00000140: 0785 a1bd 64c4 9f3d ca3b 34bc 1285 603d
00000150: ab74 9abc 8dfd 59bd d4cc 813c 5b8d a63a
00000160: 8552 ef3c 1b49 5f3b a46e 11bc ae57 a53d
00000170: 8900 533d 105b 2b3d 7e02 2bbc e052 3d3d
00000180: d702 ba3c f557 753d 0300 683d a8a4 473d
00000190: 3fb4 783d 8d6e 8b3c 96d5 8ebc 9428 fa3c
000001a0: e672 abbd cebc 793d 95c5 3b3d a094 a0bc
000001b0: 673f e5bc 4c6f 33bd 9b17 adbd c286 9abd
000001c0: 758c 1b3d 011e b1bd 95e3 e1bc 9bf6 f93c
000001d0: 8077 ba3c b022 9dbd e733 be3c 4f68 4dbd
000001e0: 1161 853d d408 993d c42e 143d 9bdf c3bc
000001f0: fa1a 80bc e33f a7bc f747 8abd 852e 023d
00000200: d810 8ebb cefa 14bb 3c2b a43d 7855 003d
00000210: 7ccd 473d 3417 8c3d a8ab a2bc b396 c439
00000220: 556c ebbc e524 a5bd ef8f 763d 66df 80bd
00000230: 0dfb de3c a6b5 213d 8602 d5bc c992 03bd
00000240: f3c1 343d c2e0 553d 6a4b 3dbb 4318 6cbd
00000250: 9d9b b03c ff9a 5e3d 9719 fabb 3e2a 3a3b
00000260: 409e bdbb dd95 49bd 17af 63bd 8cd5 2ebd
00000270: c228 50bd a991 193d 7feb 3dbc 9913 8d3d
00000280: 2a59 82bd 90d9 f0bc 564f 383d cfbe 33bb
00000290: 5212 b5bc 2e2a 0f3c df87 ca3c 0f6c f53b
000002a0: 040e 91bd 67d9 773d d270 33bd a994 8f3d
000002b0: fc7d a6bd c689 b23b cf68 a3bd d716 39bb
000002c0: dc36 8fbc 7587 613c 092b 853c 54a4 713c
000002d0: 259a 40bd 05bf 0bbc 0fe8 a43d dde5 bf3b
000002e0: ee5d 9abb 6f95 593d d95d 3dbd e341 2e3d
000002f0: 666e 9bbd a9e2 1f3d 6b2a 75bd d732 83bd
00000300: 10c9 823d 37f1 923d acf8 0abd e237 05bd
00000310: ff65 97bd 69dc 203d a388 b73c ad89 2d3d
00000320: 5954 f5bc ef44 0f3d 30fe 59bd b0d4 943d
00000330: 086e 1f3d c9b0 3fbd 5761 493d 964a b73c
00000340: 51af ab3d 63e1 20bc b91e 5b3d 7e7b a13d
00000350: e259 07bc 2b74 8fbd 4244 8d3d 14c6 ac3d
00000360: ab28 373b c3e1 85bc 1112 1c3c 70d4 6cbd
00000370: 985b 9abb d026 ac3d a1a5 703d 395a 633c
00000380: b18d 3cbd 7399 a63d 7a4c ad3d 0fc2 2fbd
00000390: 180d 42bd dffe 7e3d 28e4 0f3d e205 2b3b
000003a0: b50e ec3c 5279 27bd 82c0 603d 3df7 a73c
000003b0: ce01 5abd e543 54bd 4010 49bd 7f90 543d
000003c0: 545d 5bbc 72e6 af3c ed2d 19bc a7fc 2abd
000003d0: f436 a8bc 9bd1 99bc 5aed bcbb 865b 4ebd
000003e0: 5bd6 96bd 9ed5 08bc de2d 8dbd c0ea e73c
000003f0: ca10 60bd 35b0 633c 9daa 83bd c5bf 6bbd

classifier.bias f4 [5]
0.0009999999 0.001 0.0009999964 0.0009999999 -0.001
00000000: 6e12 833a 6f12 833a 5012 833a 6e12 833a
00000010: 6f12 83ba
